Assets/ML-Agents/Experiments/Basic-6749646.onnx (onnx, 23839 bytes, 9 tensors)

62 f4 [13]
000000 07 8c a1 41 c2 f1 cd 40 c5 5a a2 41 f0 d3 f7 3e
       20.193373 6.4357615 20.294321 0.48403883
000010 02 34 d2 3e 7e 2a c9 3e 52 3e ff 3e 60 e5 cd 40
       0.41055304 0.3929023 0.49852234 6.43425
000020 99 e5 77 40 5a 44 c9 40 80 8f e2 3f f7 dd 53 40
       3.8733885 6.2895937 1.7700043 3.3104227
000030 98 f2 d3 3f
       1.6558409

action_model._continuous_distribution.log_sigma f4 [1, 4]
000000 05 1b 94 bf 4d 5f 82 bf 88 5d 83 bf 70 30 c0 bf
       -1.1570746 -1.0185333 -1.0262918 -1.5014782

action_model._continuous_distribution.mu.bias f4 [4]
000000 6d 27 42 bd 8d a9 fe 3b 81 88 05 3e 90 d5 64 bd
       -0.04740088 0.007771677 0.13040353 -0.05586773

action_model._continuous_distribution.mu.weight f4 [4, 64]
000000 f7 ad 89 ba 9d 5e 5d 3d 2d 92 35 bd 61 a0 e7 3c
       -0.0010504116 0.05404531 -0.044328857 0.028274717
000010 5f 9f 9a bd f8 8b 07 be 28 99 d4 bc 89 23 0b 3e
       -0.07549929 -0.13236988 -0.025951937 0.13587774
000020 db db 1d be b0 1a 07 be 53 8a a4 bd 43 03 2d be
       -0.154159 -0.13193774 -0.08034196 -0.16895775
000030 62 bd 9b bd 94 8e 86 3d 96 5e de 3c b2 00 90 b9
       -0.07604481 0.06570163 0.027144711 -0.00027466338
000040 dd 6a 0b be 40 87 d7 3d 1e 3d 5f 3d 21 a7 32 3e
       -0.13614984 0.10523844 0.054501645 0.17446567
000050 5f a6 1f 3e 0e 30 2c be 49 30 2b 3c 52 db 07 bc
       0.1559081 -0.16815206 0.010448524 -0.008292036
000060 17 23 db 3d 05 6c 31 be 40 43 14 3e 1a f9 ce bd
       0.10700052 -0.17326362 0.14478779 -0.10106106
000070 70 c3 d3 bc 69 1c 86 bd 88 1e 3f 3e ec b2 78 3e
       -0.025850028 -0.065483876 0.1866399 0.24287003
000080 fc b0 69 3d 58 93 48 3e 00 6f 6a be d1 ee cd bd
       0.05705355 0.19587457 -0.22893906 -0.10055316
000090 07 5b a7 3e 5f 3c 65 be 4e 50 53 be 34 72 d8 bd
       0.32686636 -0.22386311 -0.20636103 -0.105686575
0000a0 6f 6a af 3c b2 c2 d0 bd f2 19 46 bd a3 13 4d be
       0.021413056 -0.10193385 -0.048364587 -0.20027022
0000b0 71 cb c5 bc 5f 39 29 3e 12 12 71 be 9a 94 31 be
       -0.02414486 0.16525792 -0.2354205 -0.17341843
0000c0 a7 5e cc bc 29 1a b4 3c 42 24 69 3d 8e bf 09 be
       -0.024947478 0.02198513 0.056919344 -0.13451979
0000d0 97 83 b5 3c 04 de df 3d 3f d0 9f 3e 3c 4c 39 be
       0.022157473 0.10931018 0.31213567 -0.18095487
0000e0 84 75 0b be 8c f5 72 bd 02 33 da bb 69 98 b7 3e
       -0.13619047 -0.059316203 -0.0066589126 0.35858467
0000f0 40 70 c9 3d e2 21 77 be 50 a4 c8 3d eb 72 73 3d
       0.09835863 -0.24134019 0.09796965 0.059435766
000100 20 13 7e bb d9 c9 ad 3d 3b bc 9f 3d d4 36 c9 bd
       -0.0038768724 0.08485765 0.07799574 -0.09824911
000110 97 12 52 3d ea ba 7d 3d d0 a5 1c be 40 67 0f 3d
       0.05128726 0.061945833 -0.15297627 0.035010576
000120 9f 4f 5a 3d 4c b1 23 3b ec 50 d8 bb df 6c fb 3d
       0.05329859 0.0024977503 -0.0066014435 0.12276625
000130 eb 6a 28 3e 76 d0 48 3d d5 19 93 be d9 07 8f 3e
       0.16447036 0.04902693 -0.28730646 0.27935675
000140 f2 6b f6 bd 35 69 c7 bd 20 a8 f7 bd ab 37 26 3e
       -0.12032308 -0.097368635 -0.12092614 0.16232173
000150 60 6d 0b be cd 0f 09 be 9d 04 10 be ae 63 97 bd
       -0.13615942 -0.13384934 -0.1406426 -0.07392059
000160 2f 82 00 3e cf 63 9d bd ac 1e 84 3d 90 14 2b bd
       0.12549661 -0.076850526 0.06451163 -0.041767657
000170 9d b0 41 be b5 5b 7f bd c6 8d ff 3d fa 50 18 bd
       -0.18915029 -0.062343318 0.12478213 -0.0371866
000180 b7 1b cc 3d b0 c1 3a bc e8 7a b6 3d 1f 38 2d 3c
       0.09966224 -0.011398718 0.08910161 0.010572462
000190 94 ef 1c be 79 d3 21 bd 5d 25 2a bd 1a c9 94 3d
       -0.15325767 -0.039508317 -0.04153954 0.072649196
0001a0 7c 84 66 be 29 68 7f 3e 16 43 de 3d ea b0 ab 3d
       -0.22511476 0.24942078 0.108526394 0.08383353
0001b0 15 7f 23 3d c0 79 83 bc 1f 00 61 3d 4e f2 17 be
       0.039916117 -0.016049266 0.054931756 -0.14838526
0001c0 c7 cf 26 3e f2 8e 0a be 5a 09 07 bd 79 c0 6d 3e
       0.16290198 -0.13531092 -0.032967903 0.23217954
0001d0 52 14 5c 3c 0d 69 7e be 21 2a b9 bd c2 dd 00 3e
       0.013432579 -0.24844761 -0.090412386 0.12584594
0001e0 53 73 eb bc 78 03 cc bc 9a a2 29 3e 44 0f 65 3d
       -0.028741514 -0.024903998 0.16565934 0.05592276
0001f0 ff 59 29 3e 24 0f 45 bd 53 a1 93 bd eb 3b 39 3d
       0.16538237 -0.048110142 -0.072085045 0.045223158
000200 34 f9 98 be 5d bf 0d 3e 2d 3d d9 3c 1d 51 6c be
       -0.29877627 0.1384253 0.026518429 -0.23077817
000210 0d 96 aa bc 5e b9 14 bd 15 78 86 bd fc 99 25 be
       -0.020823503 -0.036309592 -0.065658726 -0.16172022
000220 e2 1e 43 bd 58 d1 de 3d 45 82 2b bd b5 a9 0a 3d
       -0.047636874 0.10879773 -0.04187228 0.03385325
000230 b9 da 63 bd dc 29 b6 bd 85 b4 3f bd f0 92 6e 3d
       -0.055628512 -0.08894703 -0.046803016 0.0582456
000240 8f a0 4b ba 26 e7 72 be 7d 99 05 be 86 43 14 be
       -0.00077677605 -0.23720989 -0.13046832 -0.14478883
000250 05 24 62 3d 1d 59 a2 3d ea 64 06 3d e0 78 95 bb
       0.055210132 0.07927153 0.032811083 -0.0045615286
000260 60 26 06 3e d9 1b b0 bd f1 e8 b6 bd ee 9b 8c 3c
       0.13100576 -0.085990615 -0.08931149 0.017164197
000270 c3 39 07 3e fe 76 4c bd 28 6b 32 bd 26 f3 ea 3d
       0.13205628 -0.049918167 -0.043559223 0.11472158
000280 f4 50 f5 bc 61 ba 4e 3d 08 55 db 3d 74 52 10 3e
       -0.029945828 0.050470714 0.10709578 0.14093953
000290 ac ae 9c bc 9a e9 2c bd 24 86 4c 3d 26 3d 36 3d
       -0.019126259 -0.042214967 0.049932614 0.04449191
0002a0 9f 49 70 3c ab 59 b3 bd d2 de f6 bc e3 79 02 3e
       0.01466599 -0.08757337 -0.030135546 0.12741809
0002b0 8e 8a 2e 3e d3 26 2e be df ce 44 3d 63 f3 9a bd
       0.17045042 -0.17006998 0.04804885 -0.075659536
0002c0 7b 2c 5d bd c8 c7 22 be 3d 72 4b 3c e0 26 5a bd
       -0.053997498 -0.15896523 0.012417373 -0.05325973
0002d0 b3 6f e0 bd 01 92 3d 3d 8c 1e b3 3d 50 bb db 3d
       -0.10958805 0.04628182 0.08746061 0.107290864
0002e0 36 26 38 bd 74 ee 18 bd 29 b9 8b bd 15 72 57 3c
       -0.044958316 -0.03733678 -0.06822426 0.013149758
0002f0 02 2d df 3d 41 24 34 3e a2 44 0b 3e f8 c8 a3 3d
       0.108972564 0.17591955 0.136004 0.07997316
000300 62 e7 39 3c c8 f0 16 3d 7d 65 2d be f7 44 cb 3d
       0.01134667 0.03685072 -0.16933246 0.099252634
000310 80 da ab 3d d2 c9 a2 bc 17 1c cc bd 8a 57 9c 3d
       0.08391285 -0.019871626 -0.09966295 0.07633884
000320 2f 28 4b 3e 5b fe ef bd 98 d2 76 3b ec cd 46 bd
       0.19839548 -0.11718436 0.0037662145 -0.048536226
000330 a4 23 10 3c 24 4f bf bc 36 cd 0a be b2 45 4a bd
       0.00879756 -0.023353167 -0.13554844 -0.049382873
000340 fe 96 aa bd 96 a7 50 3c 06 c7 70 3d 3b 19 89 3d
       -0.08329581 0.012735268 0.058783554 0.066942655
000350 eb a9 5d bd 53 3b 2a bd db 1c dd 3c 38 b6 6b 3e
       -0.054117125 -0.041560482 0.026991298 0.2301873
000360 5b 4b ff bd 3c c8 af 3d 5d 7c d6 3d 26 54 d8 bc
       -0.12465545 0.085831136 0.10472939 -0.026407313
000370 1a 0e d5 bd e5 9d 8e bd 3d c3 9d 3d 43 9f a8 3d
       -0.1040308 -0.0696371 0.07703254 0.08233502
000380 5a 58 59 bd c8 86 61 3e 4a f5 dc 3c fc 1f 5a bd
       -0.053062774 0.22024071 0.026972432 -0.05325316
000390 15 e7 86 3e 62 97 92 bd 88 6a 08 be 9d 91 26 3e
       0.26348177 -0.0715778 -0.13321888 0.16266485
0003a0 9d ca e0 bd 79 eb c2 bd 3c f6 9d 3c a8 25 f9 bd
       -0.109761454 -0.09517569 0.019282453 -0.121653855
0003b0 4a 11 4f bd 13 6a f4 bc f0 86 23 bc e0 44 56 3d
       -0.050553598 -0.029835736 -0.009980902 0.052311778
0003c0 b1 7c 8c bd d1 89 fc 3c a5 7b 3e 3e dc 6a 77 3e
       -0.068597205 0.030827435 0.18601854 0.24161857
0003d0 b0 cd 2f 3e 85 90 26 3c a2 c4 75 bd ba 80 b1 3d
       0.17168307 0.010166292 -0.060001977 0.08667131
0003e0 13 3a 07 be 79 71 26 be ab 92 8a 3d 31 f7 a7 bd
       -0.13205747 -0.16254224 0.06766256 -0.08201445
0003f0 bd c1 97 bd 8a a3 6e 3b e1 a1 d3 3d 65 2c ca 3c
       -0.074099995 0.0036413395 0.1033361 0.024679372

network_body.linear_encoder.seq_layers.0.bias f4 [64]
000000 e1 98 bb 3d ff 52 3a 3e 3f af 9e 3d b7 cf 2c 3e
       0.09160019 0.18195723 0.07748269 0.16876112
000010 b3 9f 3b 3e 43 c4 15 3e 4e 68 01 3e bb fd bf 3b
       0.18322639 0.14625649 0.12637445 0.0058591045
000020 5d 10 55 bd 76 10 c4 3d e2 90 50 3d e5 24 20 bd
       -0.05201756 0.09573452 0.05091942 -0.039097685
000030 75 22 29 3e 17 ad af bd 38 6a 26 3e a8 68 0a 3e
       0.1651705 -0.08577936 0.16251457 0.13516486
000040 93 af bb 3d d6 fb 81 bc 26 41 7c 3d f8 af a0 3b
       0.091643475 -0.015867155 0.061585568 0.0049037896
000050 3b 63 f6 bd 8d f2 5d 3e 62 98 41 3d e5 15 b2 3d
       -0.120306455 0.21674557 0.047264464 0.08695582
000060 64 5b 83 3e 8b 24 3f 3e 77 74 c2 3b 7f a5 c2 3d
       0.25655663 0.18666284 0.005934294 0.09504222
000070 89 0c 47 3d 1c aa fa 3c 51 60 db bc e9 0f e3 3d
       0.04859594 0.030598693 -0.026779326 0.11087019
000080 fd 25 01 3e d4 4b f8 bd 08 b5 3a 3e 7f 31 85 3d
       0.12612148 -0.12123838 0.1823312 0.06503581
000090 c3 41 1c 3d 7a 4a e6 3d 62 1c e2 3d a1 63 69 3e
       0.038148653 0.11244674 0.1104057 0.22791912
0000a0 bc 28 58 3d 6b b5 3d 3d e6 39 47 3e 1a 5f f6 3b
       0.052773222 0.04631559 0.1945568 0.007518661
0000b0 a1 4a a4 bd d0 7d 29 3c f7 b9 07 3e 79 d8 b9 bd
       -0.08022047 0.010344937 0.13254534 -0.09074492
0000c0 ab 1c c3 3d 11 0a ee 3d c6 0c c4 3d 27 6d 23 be
       0.09526952 0.11623014 0.09572749 -0.15959607
0000d0 cc 7c 74 3e 47 ed 16 3e a7 8f 88 bd aa 2f bd 3d
       0.23875731 0.14738952 -0.066680245 0.09237607
0000e0 09 b9 c3 3d 03 8e ea 3d 64 b6 90 3e 69 3f d8 3d
       0.09556777 0.11452868 0.28264153 0.105589695
0000f0 6d 79 27 3e d9 a7 b0 3d 95 47 a9 3d 47 f4 c0 3d
       0.16354914 0.086257644 0.08265606 0.09421592

network_body.linear_encoder.seq_layers.0.weight f4 [64, 13]
000000 36 2f 4d be d2 28 cd 3d 6a 54 d8 be 78 62 6c bd
       -0.20037541 0.100175515 -0.42251903 -0.057711095
000010 1a ab 02 3f a1 94 be 3e 2a e1 d4 be 0a af bd be
       0.5104233 0.3722277 -0.41578037 -0.37047607
000020 e8 d0 9e be b1 93 7e 3e c7 50 e3 3c a0 7c 56 3e
       -0.31018758 0.24861027 0.027748479 0.20945978
000030 99 3d 70 be 26 4f d2 3e 4f b5 20 3e 42 d5 92 bd
       -0.23460998 0.4107601 0.15694164 -0.07169582
000040 d8 7b fd be 30 34 42 3e 9f b6 71 be d3 24 19 3f
       -0.49508548 0.1896522 -0.2360482 0.59821814
000050 88 5d 97 be 47 fc 09 3f 68 8a e3 3d 04 dd b0 be
       -0.29563546 0.5390057 0.11110383 -0.34543622
000060 43 1e d7 be 21 6f 8f 3e dc 00 02 be e5 52 f0 3d
       -0.42015275 0.28014472 -0.1269564 0.11734561
000070 6b aa 7a 3e 59 ce ad 3e e4 25 12 3f 24 54 fd 3e
       0.24479072 0.33946493 0.57089067 0.49478257
000080 ec 0c 8f be 2b ff 4a be 0a 62 86 3e 61 0c a8 3d
       -0.27939546 -0.19823901 0.26246673 0.08205486
000090 18 27 6f bd 67 c9 d5 3e c9 7a ad 3e c8 30 28 be
       -0.058386892 0.4175522 0.3388274 -0.16424859
0000a0 82 a9 b6 3e 33 0e fd be 9f 4f a6 be 53 ed aa be
       0.356762 -0.49424896 -0.3248262 -0.3338419
0000b0 ce c8 50 be 2e b3 b6 be c0 06 e0 bd 50 34 c6 3d
       -0.20389101 -0.35683578 -0.109387875 0.096779466
0000c0 5a 0d d1 3b e6 ce 48 3e 60 3d 76 3d 37 2d de 3e
       0.0063797655 0.19610175 0.060117126 0.4339387
0000d0 e6 86 4e be 65 ba 9b be b6 4c 0d be fe 86 06 3f
       -0.20168647 -0.30415645 -0.13798794 0.5254973
0000e0 8e e7 84 3e b6 76 b1 be 90 c4 4a 3e c0 89 39 3f
       0.25957912 -0.34660882 0.19801545 0.72475815
0000f0 cf 9e 9d be 49 74 3b 3e bf c5 1a 3e cf 51 5c 3e
       -0.30785224 0.18306078 0.15114497 0.21515583
000100 41 25 2e 3e 0b 84 a9 bb b3 42 ce bd fe 8d f1 3b
       0.17006399 -0.0051732115 -0.100713156 0.007371663
000110 e3 95 60 bf 61 46 9e bd ae e8 9a bd 54 0b a4 bc
       -0.8772871 -0.077282675 -0.075639114 -0.020024933
000120 23 6b 6b 3e b8 a9 f4 3e 93 f4 5f bf c9 a2 76 bd
       0.22990088 0.47785735 -0.87482566 -0.060213838
000130 28 63 86 be d4 b3 f4 be fa 23 a1 3a f2 a6 9a be
       -0.26247525 -0.47793448 0.0012294047 -0.30205494
000140 0b 3b 7f 3e 84 a9 8b 3c 7f 72 29 3f 56 ff 32 3e
       0.24924867 0.017048605 0.6619033 0.17480215
000150 4f 71 89 3d 99 bd a2 be 54 68 91 3e 25 5b 10 3f
       0.06711065 -0.31785277 0.2839991 0.56389076
000160 e2 73 bf 3e 46 aa 6f 3e 48 bb 7f be 4a d9 fb 3e
       0.373931 0.23404798 -0.24973786 0.49189216
000170 b8 c4 5c 3d e8 93 fc 3d 6c 01 3b bf 1b 0d 88 bd
       0.053898543 0.123328984 -0.73049045 -0.06643125
000180 c8 ee 86 bf 01 2f e3 3e ac 7e 20 3f 60 a2 28 3c
       -1.054162 0.443718 0.62693286 0.0102926195
000190 41 5f 8a be a7 5f 99 3e 8c fa 92 3d 2d 34 01 3e
       -0.27025798 0.2995579 0.07176694 0.1261756
0001a0 ee 41 6f 3e 30 e2 cd 3e 1f 32 b7 be 8c ae 2f 3e
       0.23364994 0.4021163 -0.35780427 0.17156428
0001b0 d5 b8 f8 3e 84 83 8d be 93 26 8c be 32 bc ae 3e
       0.48578516 -0.276394 -0.2737318 0.34127957
0001c0 fe 14 8f 3e cb 57 b0 be c6 f6 26 3d 23 4f c7 3d
       0.27945703 -0.3444198 0.040762685 0.09731891
0001d0 c1 10 8a be cb 5d 00 be fc 22 91 be bd cc fe bd
       -0.26965907 -0.12535779 -0.28347003 -0.124413945
0001e0 f7 38 2b bf 68 e1 d3 3e 1e 72 f9 be 1b 1d db 3c
       -0.66883796 0.4138291 -0.48719877 0.026747277
0001f0 4e 02 b6 3e 96 cd a5 bd 3e 07 f8 be cf 83 5e bd
       0.35548633 -0.08095853 -0.48443025 -0.05432492
000200 ef 34 97 3e fb 96 57 be 03 b9 db 3d 01 ce a7 be
       0.29532573 -0.21053688 0.107286476 -0.32774356
000210 13 2b 44 3e 14 0b 69 be 3f b9 3e be fb d5 8f 3e
       0.19157057 -0.22758132 -0.18625353 0.28092942
000220 78 44 a7 3e ad bb aa 3d 29 b7 c9 be ba 72 1b 3e
       0.32669425 0.083365776 -0.39397553 0.15180483
000230 f9 cf 91 bd 60 6d f8 bd f8 2c c5 3d 92 e4 91 be
       -0.07119746 -0.121302366 0.09627718 -0.28494698
000240 d1 49 38 3e 3e c5 a7 be 63 62 96 3e 82 07 25 3e
       0.17996909 -0.3276767 0.29371938 0.16116145
000250 50 b4 69 bd 34 e0 5f 3e 5b b0 17 bf 73 23 1a bf
       -0.057056725 0.2186287 -0.5925347 -0.6021034
000260 e3 bd f4 bd bb d8 06 3f a2 6e aa 3e cc ab 08 be
       -0.119502805 0.52674454 0.3328753 -0.13346785
000270 33 fa 2a 3e d1 1b 94 3e 58 11 a4 bd fc da c4 3e
       0.16697006 0.28927472 -0.080111206 0.38448322
000280 f2 20 18 bf e7 26 2a bf 1a 01 a7 3d 2e 5f 2f bf
       -0.5942527 -0.6646561 0.08154507 -0.6850461
000290 04 7d b3 3d e0 8d 87 be 33 63 4c 3e 7e f3 87 3e
       0.08764079 -0.2647543 0.19959716 0.26552957
0002a0 c4 ad 5c 3e 50 a2 68 be d6 fc 87 3e 87 1a 87 bd
       0.21550661 -0.22718167 0.26560086 -0.065968566
0002b0 bc a3 39 3e af cb 6c 3e 56 be dc 3e 78 45 cc be
       0.18128866 0.23124574 0.43113965 -0.3989675
0002c0 44 58 62 be ac a6 01 3e 50 0a e2 3d 18 b2 78 3d
       -0.22103983 0.12661237 0.11037123 0.06071672
0002d0 2e d7 06 be b7 38 45 be 1a 61 63 bd f7 c4 b5 bc
       -0.13168022 -0.19259916 -0.055512525 -0.022188647
0002e0 a8 4e c7 bd 93 9e c1 be f5 50 b2 3e 44 83 41 3e
       -0.09731799 -0.37816295 0.3482739 0.1889773
0002f0 e7 19 aa be c5 94 16 bd 0f 0f 34 bc 86 41 c1 3e
       -0.33222887 -0.03676297 -0.010989918 0.37745303
000300 3b f8 7d be 80 13 3a 3f fe 9a 8a 3e b9 9e e0 3d
       -0.24801724 0.72686005 0.27071375 0.10967774
000310 30 1c 81 3d 20 ce a2 3e 3b 45 39 be e8 d4 7b be
       0.063042045 0.31797886 -0.18092816 -0.24592936
000320 6f 09 70 3e 66 d5 a4 3e 6e 48 3d bf fb c4 4f be
       0.23441099 0.3219406 -0.73938644 -0.20289986
000330 e8 fa 56 3e cf d3 07 3f 61 0e b2 3e 75 08 4b 3e
       0.2099415 0.5305757 0.34776595 0.19827445
000340 85 3c 04 be d7 f2 0e bf 60 0f a9 be 8b e9 0a bd
       -0.12913711 -0.55839294 -0.33019543 -0.03391413
000350 ef 00 e1 be f5 72 5f 3d 51 aa d1 3e bb 20 16 3e
       -0.43946025 0.05455299 0.40950254 0.14660923
000360 5e af 29 be b1 65 74 be 92 fd 05 3d 88 47 f9 bd
       -0.16570804 -0.23866917 0.032712527 -0.12171847
000370 78 20 ef 3c 6f 28 f1 be 8c 17 9e be e4 22 be 3d
       0.029190287 -0.4710116 -0.3087734 0.092839986
000380 58 5f ec bd a3 dc 83 bd 28 95 f6 be 5c bf a0 bc
       -0.11541623 -0.064385675 -0.48160672 -0.019622497
000390 6c 85 81 3e 6d 79 14 3e 12 79 c2 3c 65 b3 ef 3d
       0.25297105 0.14499445 0.023739371 0.11704139
0003a0 dc c2 16 3f 8b a1 df bd 82 df a0 be 64 a2 c3 3e
       0.5889108 -0.10919484 -0.31420523 0.38209832
0003b0 5e bc bc bc c2 47 25 bf c6 21 97 be 05 a6 ce be
       -0.02303904 -0.6456262 -0.29517955 -0.40361038
0003c0 2a 9e 76 bd 4a 7f cb 3c 27 ce cc 3d 7e 49 22 bf
       -0.06020943 0.02484097 0.10000258 -0.6339339
0003d0 ae 44 05 bf c0 f3 30 bc e3 cb 94 3d 5b f2 8c 3e
       -0.5205792 -0.010800302 0.07265451 0.27528653
0003e0 5e 9d 47 be 05 01 9e 3d c8 45 5a 3e 4e 2d 23 3f
       -0.19493625 0.07715038 0.21315682 0.63741004
0003f0 61 bc 4b be 85 ed 05 3e 2b f6 c2 be be 7c c4 bc
       -0.1989608 0.13078888 -0.38078436 -0.023985263

network_body.linear_encoder.seq_layers.2.bias f4 [64]
000000 ff 91 d0 3c 1c 76 57 3e ea 42 fc 3d 53 d5 92 3c
       0.025460241 0.21041149 0.1231745 0.017923987
000010 2f a3 63 3d 45 58 1c 3e ea 97 ff 3d 81 76 8b 3c
       0.055575546 0.15268047 0.12480147 0.01702428
000020 8c 9f aa 3d 7f 6c 31 3e 28 7f 58 3c 18 b7 d7 3d
       0.083312124 0.17326544 0.01321391 0.10532969
000030 53 26 14 bd 13 c9 88 3d c6 59 d5 3d e2 56 2d 3e
       -0.03616936 0.06678977 0.104175135 0.16927674
000040 30 1b e1 3d c9 5b 77 3d c3 a5 ee 3c 1c 43 9d 3c
       0.10991514 0.060390268 0.029131776 0.01919704
000050 97 9d b9 3b 0f 5c e5 3d 76 b5 69 3d d4 bf ba bc
       0.005664538 0.111991994 0.05705782 -0.022796549
000060 e3 d5 08 3e 87 89 8f 3d 2e 35 2a bd 98 37 d9 3d
       0.13362841 0.07008653 -0.041554622 0.10606307
000070 f8 2a 17 3e e5 05 6e 3d a5 02 39 3d 1c 4f c8 3c
       0.14762485 0.05811109 0.045168538 0.024451785
000080 89 8c b5 3c 20 6d f3 3d 1b 68 2c 3e 3d 8d 17 3e
       0.022161739 0.11886048 0.16836588 0.14799972
000090 db 40 2f 3d a1 20 57 3d 0f 8a 48 3e ad 46 19 3a
       0.04278646 0.05252135 0.19583915 0.00058470183
0000a0 e4 c2 2f 3d f9 79 a8 3d 4e c9 75 3d c0 d1 5c 3e
       0.04291047 0.082263894 0.060006432 0.21564388
0000b0 13 af 50 3e 50 d7 c7 ba 8a ca 1e 3e af c7 60 3d
       0.20379286 -0.0015246663 0.1550695 0.054877933
0000c0 a4 1f b2 bb b4 f7 8c bc 29 41 58 bd 9b 60 3c 3d
       -0.0054359008 -0.017207958 -0.052796517 0.045990568
0000d0 6f c3 64 3d a5 7c f3 3d b7 75 eb 3d 08 45 c1 3d
       0.055850442 0.118890084 0.11497062 0.09436995
0000e0 21 a7 db 3d 50 a2 f7 3d e2 a7 ad bc c8 41 13 3e
       0.10725237 0.120915055 -0.021198217 0.14380562
0000f0 b7 91 0a 3e f8 92 d0 3d 28 0d ec 3d 31 c6 82 3d
       0.13532148 0.10184282 0.11525947 0.06385458

network_body.linear_encoder.seq_layers.2.weight f4 [64, 64]
000000 43 61 8d 3e 96 d8 e9 bd 46 03 b1 3b be 41 e6 3d
       0.27613267 -0.114182636 0.0054020016 0.11243008
000010 f4 dd 35 bd 27 30 75 3d 14 bb d2 3e 4e d4 5a be
       -0.044401124 0.059860375 0.41158354 -0.2137005
000020 37 5b d8 3c 85 1b 8e 3e fd c7 6f be 73 34 d3 bc
       0.026410682 0.2775537 -0.23416133 -0.025781846
000030 4f e2 59 be bd 5d 5a 3e 02 f0 01 3d cc 5d bc bd
       -0.21277736 0.21324821 0.03172303 -0.09197578
000040 d2 e9 0e be f0 19 74 bc d6 29 b9 bd 7a 36 ec 3d
       -0.13956383 -0.014898762 -0.09041183 0.11533828
000050 0d 6f 26 bd 71 b6 11 3e 8e 02 91 3d 77 92 99 be
       -0.04063325 0.14229752 0.070805654 -0.29994556
000060 a1 ed e3 be 9a 08 89 3c e7 f4 8a 3e 52 61 f7 bd
       -0.44517234 0.016727734 0.2713997 -0.12079109
000070 9a 24 3f 3e cc 26 0d bc 3d 50 ba be ba f4 61 be
       0.18666306 -0.008615207 -0.36389342 -0.22066012
000080 0c 76 86 3e 3d a7 d5 bc ba b8 b4 3d f0 24 19 bd
       0.26261938 -0.026080722 0.08824296 -0.037388742
000090 a7 52 61 3d c7 f2 1f 3e f4 bc a4 bd 78 48 97 3d
       0.055010464 0.15619956 -0.080438524 0.07386869
0000a0 58 48 2f 3e b9 d9 c1 3d a9 79 d1 3e 0d 57 02 be
       0.1711744 0.094653554 0.40913132 -0.1272852
0000b0 7f d4 fa bd f4 1e 07 bf 8a e6 ce be 9a 88 af be
       -0.12247562 -0.52781606 -0.40410262 -0.34283906
0000c0 3d b4 6e be ca 58 1a bf a2 c5 91 3e e7 74 15 3d
       -0.23310943 -0.6029173 0.28471094 0.03648844
0000d0 59 ba c2 bc 01 a4 8c bb db 0e 23 be 4c 92 ab 3e
       -0.023770498 -0.0042920117 -0.15923636 0.33510053
0000e0 87 36 8c b9 04 46 6c 3d 72 21 a0 be 60 6c 69 be
       -0.00026743507 0.05768396 -0.31275517 -0.22795248
0000f0 82 e5 a4 be 0f bc 47 3c 5e 2c 25 be c7 2e 76 be
       -0.3220635 0.012190833 -0.16130206 -0.24041282
000100 33 b2 b9 3d cc 33 cb 3e c1 c1 85 bd f5 08 8e 3e
       0.09067192 0.39687955 -0.06531096 0.2774121
000110 5a 67 1d bd e8 3f 3d be f4 57 ba 3d 0d 0f 50 3d
       -0.03842864 -0.1848141 0.09098807 0.050795604
000120 02 25 71 be dc dc 9c bc 05 be d4 3d f7 60 25 3e
       -0.23549274 -0.019148283 0.10387806 0.1615027
000130 c3 a5 d6 3d 34 a9 41 be 31 e3 80 3d 2c e7 a1 bd
       0.10480835 -0.18912202 0.06293333 -0.07905421
000140 6f 39 8c 3e 61 e0 ef bd 52 72 aa 3d 4b d3 b5 bc
       0.27387568 -0.11712719 0.08322586 -0.022195479
000150 7a 00 08 bd b6 95 b1 bc ab d9 32 3e 5a 41 1c be
       -0.03320358 -0.021677833 0.17465846 -0.15259305
000160 75 47 54 3e 1e a9 9b 3e 85 be 77 3e 82 f1 a0 bb
       0.20730384 0.30402464 0.24193771 -0.0049116025
000170 33 57 81 3e 33 39 5b 3d 15 9f e2 bc 6d 6b 07 3d
       0.2526184 0.053521346 -0.027663747 0.033061434
000180 f2 0d 5e bd 43 69 bb 3c a4 99 33 be 96 8c 0e be
       -0.054212518 0.022877341 -0.17539078 -0.13920817
000190 cd fe b5 3d 50 1b d4 3e b1 40 60 3e cd fc e9 bc
       0.0888649 0.41427088 0.21899678 -0.028562928
0001a0 5f 0d 30 3e 00 66 7d be 1f c7 d9 bd b7 1c 15 3e
       0.171926 -0.24745941 -0.106336825 0.14561735
0001b0 74 db 3b be 08 45 dd 3d 87 eb eb bb 0e 05 12 3e
       -0.18345433 0.10804182 -0.007199708 0.1425974
0001c0 dd 36 29 3e 36 26 82 3e 1b 49 79 3e af e0 0c bd
       0.16524835 0.25419778 0.24344294 -0.034393962
0001d0 d6 80 5d bd fc 66 1f 3e d9 89 fd 3c bd a2 87 bd
       -0.054077946 0.15566629 0.03094952 -0.06622837
0001e0 f8 cd c0 bd 3d ef a4 3d 6b b4 b1 3e 95 0d b1 3d
       -0.094142854 0.080534436 0.3470796 0.08645169
0001f0 7b db a6 3c e3 5b 16 3e e7 17 e2 3d d2 0c 8a bd
       0.020368328 0.1468349 0.11039715 -0.067407265
000200 3f 50 86 be d7 d9 3a 3e 09 a8 c9 3d 93 d7 8a 3d
       -0.26233098 0.18247162 0.09846503 0.06779399
000210 35 37 9b bc 90 e4 6d bd b6 b2 15 3e c3 2f 84 3e
       -0.018947223 -0.058079302 0.14618954 0.2581769
000220 b5 58 e3 3c 11 48 18 3e 62 c2 97 bd 9e 0c 4e 3d
       0.02775226 0.14871241 -0.074101225 0.050305
000230 41 de 18 3d 52 bb bc 3e c6 26 bb 3d a4 23 cd bd
       0.037321333 0.36861664 0.09138255 -0.100165635
000240 d8 49 3a bc 6c ff 4a be a6 21 ec bd 6f 37 6b be
       -0.011370145 -0.19823998 -0.115298554 -0.22970365
000250 cb be 08 be 20 13 d9 bb d1 9c c7 be 36 06 9e bd
       -0.13354032 -0.0066245943 -0.3898683 -0.077160284
000260 15 96 68 bd a1 60 c4 3c 21 b9 67 be 96 45 34 be
       -0.056783754 0.023971858 -0.22629215 -0.1760467
000270 44 43 05 3d 89 82 fa be 65 7d 45 be b0 e8 da 3d
       0.032534853 -0.48927715 -0.19286115 0.10688913
000280 eb d7 45 3e 69 29 0c be e4 68 85 3b 83 25 84 3d
       0.19320647 -0.13687672 0.004071342 0.06452467
000290 55 12 a3 bd 4c 57 7a bd 80 53 70 be da ef 13 be
       -0.07962481 -0.06111841 -0.23469353 -0.14446965
0002a0 82 b1 4e bc b2 ac c2 bd 37 cf 5a bd 35 c3 83 bd
       -0.012615563 -0.09505595 -0.05342027 -0.06433717
0002b0 b6 8e 03 bd 9a d9 d2 3c 1a 69 89 3d 84 2b 85 bd
       -0.03211852 0.025738526 0.067095 -0.065024406
0002c0 8f 96 8c 3d 83 3e df 3d 20 5c 64 3a fa 7c 8e 3e
       0.06864654 0.10900595 0.00087112375 0.27829725
0002d0 10 f3 72 be f1 ed 80 bd c2 25 13 be ba a7 af 3d
       -0.23725533 -0.06295384 -0.14369872 0.08576913
0002e0 62 bc 8e be d1 3d 71 be fc 53 fa 3d e3 ed 1f 3e
       -0.278781 -0.23558737 0.1222305 0.1561809
0002f0 53 1d 0f bd c5 5d 5f 3d 14 9b 18 3e f9 4c a8 3e
       -0.034940075 0.054532785 0.14902908 0.32871225
000300 53 95 ba 3d 0c 59 5e be 3f ba af 3e d3 ec 61 bc
       0.091105126 -0.21713656 0.34321782 -0.013789373
000310 15 a7 fd bd 58 71 91 bd 84 dc b1 3d b6 75 11 be
       -0.12385384 -0.07101697 0.08684638 -0.1420506
000320 53 37 27 be ec c6 77 3e b4 24 34 bd 06 31 30 3e
       -0.16329698 0.24196976 -0.043980315 0.17206201
000330 a8 65 1d 3d 72 9a 8b bd 93 51 97 3d 92 bf 44 3e
       0.038427025 -0.068165675 0.07388606 0.19213703
000340 44 0f c0 3b 99 1d 6f 3e 36 6e 61 bc 96 d0 4c 3e
       0.005861195 0.23351134 -0.0137591865 0.20001444
000350 e9 38 b9 bd e5 d9 43 3a 2a 70 06 3d 2f ba fb bd
       -0.09044058 0.00074711285 0.03282181 -0.12291371
000360 f3 e0 06 bf 90 a7 ef bd fc bd 52 3d 1a e5 54 3e
       -0.52686995 -0.11701882 0.051450714 0.2079052
000370 b9 c5 5b bd 88 43 d1 3d e3 6b e7 bd 9d b4 eb bd
       -0.05365536 0.10217959 -0.11299875 -0.115090586
000380 4a a0 1d 3e eb ed ca bd e3 50 20 3e 37 28 24 be
       0.15393177 -0.099086605 0.15655856 -0.16030966
000390 c8 d3 09 be 86 ce 93 bc f7 c1 5a 3e b7 27 b9 3d
       -0.13459694 -0.018042814 0.21363054 0.09040778
0003a0 ce 7f 61 3c eb 82 44 3e 67 cc 61 3e 32 87 16 3e
       0.013763381 0.19190566 0.2205063 0.1470001
0003b0 68 90 9e bc 9f b0 06 3e 39 2c e6 3d 7c f8 33 be
       -0.019355968 0.13153313 0.112389036 -0.17575258
0003c0 53 3f 92 be cf a0 9b be f4 d2 8e 3e 30 39 a2 bc
       -0.28563938 -0.30396125 0.2789532 -0.01980266
0003d0 2b 3c 6f 3e 9e 84 42 be ab f4 13 bd 05 73 d7 bc
       0.23362796 -0.18995902 -0.036122005 -0.026299963
0003e0 29 e3 96 3d d6 59 7d be 51 e5 89 be ce 89 11 be
       0.07367546 -0.24741301 -0.26932767 -0.14212725
0003f0 2e a8 0e be 5f 57 45 bd a5 9e e7 bd 7a 2d 80 be
       -0.13931343 -0.048179027 -0.11309556 -0.25034696

network_body.vector_processors.0.normalizer.running_mean f4 [13]
000000 e5 41 bf 3f 94 b9 5e 41 b5 24 d1 3f 2d 9c 9e be
       1.4941984 13.920307 1.6339327 -0.30978528
000010 19 60 31 ba 96 17 b3 3d 9c 25 9a 3e 1d 5d 49 3e
       -0.0006766334 0.08744733 0.3010682 0.19664426
000020 e1 d6 a2 3e 8b 31 34 3d 69 47 03 3f 1a 64 59 40
       0.31804565 0.04399256 0.5128084 3.3967347
000030 75 16 29 3c
       0.010320296
