Assets/ML-Agents/Basic-749981.onnx (onnx, 80982 bytes, 9 tensors)

62 f4 [19]
00000000: 012c bb3f 3843 6640 08a2 b73f 7877 4e3e
00000010: 5789 8f3e e764 8e3e e78a 583e 3e02 943f
00000020: 13c0 4140 5698 9b3f ee81 813f c06f 0740
00000030: 8511 823f 23bc dd3f 7b81 9440 0f5d db3f
00000040: e3b8 873f 1ac5 8740 9548 843f
1.4622804 3.5978527 1.4346323 0.20162761 0.2803447 0.27811357 0.21146737 1.1563184
3.0273483 1.2155864 1.0117776 2.1161957 1.0161597 1.732304 4.6408057 1.7137774
1.0603298 4.2428102 1.033465

action_model._continuous_distribution.log_sigma f4 [1, 4]
00000000: 1a9f cfbe b129 fabe c6c9 f5bd b76c 51bf
-0.40551072 -0.48859933 -0.12001376 -0.8180651

action_model._continuous_distribution.mu.bias f4 [4]
00000000: 534f aeb8 8608 d13c 56cb 3dbd f838 403d
-8.311742e-05 0.02551676 -0.046336494 0.04692933

action_model._continuous_distribution.mu.weight f4 [4, 128]
00000000: 56a0 043e 27c0 04be ff19 003e ea4d e13d
00000010: f8a3 e4ba 28d8 43bd 1e41 5ebe 394c b33d
00000020: 1a49 b73c ca99 33bb c54e b83d af64 bf3d
00000030: 2fdf d03d d538 59bd 596e d73d 0369 86bc
00000040: 76c3 2abd 1333 5abd 5dc3 b4bc 0eb9 bf3e
00000050: 5487 913d 8490 d33d ff6f 1d3d d061 393d
00000060: cdac fbbb 89ce efbd 7785 473d d2e7 8a3c
00000070: 6786 e5bd bd9c 31bd f609 053c 5c1a 123c
00000080: d1f4 3dbd 5bc1 b3bd e5f3 ae3e 30a7 3abd
00000090: 3e6f c4bc f2a2 3cbc da0d 463d 5a8e 2cbe
000000a0: 3bf6 1b3d 7455 bbbd 324e b7bc 1798 a83c
000000b0: 43da 183e d3cb a1bd b4ce 813d ca81 ec3d
000000c0: 8477 5ebe d409 e03d 3f98 21bc 02a2 37bc
000000d0: b57a 83be 1c1f 533d de74 04bd dd78 b93d
000000e0: 387e 39be 148c 04be a815 7b3e e87f 67bd
000000f0: fe9b b53d dbcc 4a3d 7f44 993d 666d 653e
00000100: f578 ddbd 3306 673c 9d5d 933e 65d2 aebd
00000110: d625 7d3d a984 d1bd 4cc4 5b3d 9ede 6c3c
00000120: a33e 303e b627 b33d 1647 38bd c352 393c
00000130: 5678 18be 85ef d33d eab7 90bd 0192 173e
00000140: f0b8 efbd 7d34 1a3d ab4e a33c 7972 8d3d
00000150: 4567 963c 5879 a4bd 8914 d2bd 0dbc 62bc
00000160: 2ef2 36bc b96c 49bd 233d 2a3e 0dd0 59be
00000170: 387a 25bd 36ca 213e 2c53 d6bd 3873 213e
00000180: 003a 6abd 1c06 84bd 719e ebbd 577a 813d
00000190: 7a7a 2abd 6db5 a739 88de 51bc cfa8 c93d
000001a0: f7f1 bcba 61fa 643d 40f6 38bd 93bb 7b3c
000001b0: ba25 073b 8a68 d53d bd4f b5bd 33b2 24be
000001c0: ee50 cb3c 0f38 ecbd bb5a 893e 0c21 0a3d
000001d0: 6448 763e f30e 3dbd 082f cfbd 5e21 b5bd
000001e0: 93eb ffbc 8bc5 64be 3468 173d d9f4 d4bc
000001f0: 99e5 eebd 7255 6fbe 3743 1d3e 26fb 17be
00000200: f2d0 b03d 66f9 4b3d 5817 563b 39c9 81be
00000210: 8b64 0ebe 170b 92bd 09b0 e03d e8e1 41bc
00000220: 15a4 863d 2d28 0d3c dff7 333e d19b 173b
00000230: be25 cbbc a14c a1bc cef8 9c3d c196 6cbc
00000240: bb55 0b3d e994 60bd 1900 1d3e 3bee 9d39
00000250: 1be1 8cbd a351 973d ffd1 6b3d be9b 2d3c
00000260: 1852 01bd 5386 4d3d d145 c23d cb71 583d
00000270: 933b 833d e360 0bbd b290 33bd 9872 a63b
00000280: 17dc ec3d 6b8f 89bc aa1f 1ebe d2e7 013e
00000290: d627 55be 9402 223d f7fb 893e 0d4d 92be
000002a0: 8609 fcbc 4e49 1d3d 5484 9ebd 7f00 50bc
000002b0: a786 c4bc fa88 ed3c ee18 673d 8087 8e3e
000002c0: 5ecd 9bbc bf48 b43c 844c c0bc 8622 e2ba
000002d0: d032 443e 05b3 5c3d b42d 663d d8f9 98bc
000002e0: 74c3 fbbc 0f8c c3bd a9ed f3bd 1d85 383d
000002f0: cb7d 50bd dd33 733c 6cf7 31bc 77c6 ebbd
00000300: 6370 8bbd d1b0 c03d 0fad 28be eaec 46bc
00000310: 26da 2f3d df29 153e 86ba 843e edca 54bd
00000320: 69e5 90be a231 ea3c 000a 513c 520f 43bc
00000330: 2447 263e 50b8 3a3e a9ff 84be 8b38 adbd
00000340: 171f dcbd 9e6b ddbd a298 41be d0d3 423d
00000350: 8e74 953d 6ed5 32be 60f9 3c3d 753c bf3d
00000360: 6040 ddbb ce59 d03d 9557 2d3b bd81 3ebe
00000370: 35cd 7cbd 75aa dfbd 42c7 8bbc 70ea 47bd
00000380: 48e3 813d 9d58 ba3c 79f7 1a3d f4c3 3d3e
00000390: cc4e ee38 b2be 053e f008 093e acfa dc3d
000003a0: 813e 5d3d 62a7 85bc ddc0 423d 25e8 a4bd
000003b0: 862a 8bbd 3488 cfbd e977 f4bd 3aa1 2bbe
000003c0: cff6 1ebc fea8 14bd c753 183e cf3a 0abd
000003d0: f178 ffbd cc9f f63d 2a97 503e d8d7 0ebc
000003e0: abfe aabd acd1 c1bd ffac 02be e5af 87bd
000003f0: 6551 02be 17f3 013d a791 4bbe a51e e43d
0.12951788 -0.12963925 0.12509917 0.11001189 -0.0017443886 -0.047813565 -0.21704528 0.08754773
0.022373725 -0.0027404898 0.08999399 0.09345376 0.10198819 -0.053032715 0.10519094 -0.016407495
-0.041690312 -0.053271364 -0.022065813 0.37445873 0.0710589 0.103302985 0.038436886 0.045259297
-0.0076805116 -0.11709315 0.048711266 0.016956244 -0.11207276 -0.043362368 0.008120051 0.008917417
-0.046376053 -0.08777114 0.34170452 -0.0455696 -0.023978826 -0.011513459 0.048353054 -0.16851178
0.03807662 -0.09147158 -0.022376154 0.020580335 0.1492701 -0.079002045 0.063382536 0.11548193
-0.21725279 0.109393746 -0.009862958 -0.011208059 -0.25679556 0.05154334 -0.032338016 0.09056256
-0.18114555 -0.1294406 0.2451998 -0.056518465 0.08867644 0.04951177 0.07483768 0.22405013
-0.10814086 0.014100599 0.2878236 -0.08536223 0.06180366 -0.10230381 0.053654 0.014457373
0.17211394 0.08747809 -0.044989668 0.011311236 -0.14889655 0.10348419 -0.07066329 0.1480179
-0.11705196 0.037647713 0.019934973 0.069065996 0.01835979 -0.08030957 -0.10257823 -0.01383878
-0.011166139 -0.04917595 0.16624884 -0.21270771 -0.04039976 0.15799794 -0.104650825 0.15766609
-0.05718422 -0.06446478 -0.1150483 0.063221626 -0.04162071 0.00031987895 -0.012809403 0.09846651
-0.0014415373 0.055902842 -0.045156717 0.015364545 0.0020621852 0.1042033 -0.088530995 -0.16083603
0.024818864 -0.1153413 0.26827034 0.033722922 0.24051052 -0.046156835 -0.101163924 -0.08844255
-0.03124026 -0.22340982 0.03696461 -0.025995659 -0.11664886 -0.23372439 0.15357672 -0.148419
0.08633603 0.04979839 0.0032667723 -0.25348833 -0.13905542 -0.071310215 0.10971076 -0.011833645
0.06574265 0.008615536 0.17575024 0.0023133645 -0.02479827 -0.01968986 0.07664643 -0.014440239
0.034017306 -0.05482951 0.15332069 0.0003012287 -0.06878873 0.07388618 0.057573315 0.010596214
-0.03157243 0.05017693 0.09485973 0.052842896 0.06407847 -0.034027945 -0.043839164 0.0050795786
0.11565416 -0.01679202 -0.15441766 0.12686089 -0.20815977 0.03955324 0.26950046 -0.2857441
-0.03076626 0.038399987 -0.07740083 -0.012695431 -0.023989988 0.02899598 0.05642026 0.27837753
-0.019018825 0.022007344 -0.023473985 -0.001725272 0.19160008 0.053881664 0.05619593 -0.018673822
-0.030732848 -0.095481984 -0.119105645 0.04504882 -0.050901216 0.014843908 -0.010862213 -0.115124635
-0.068085454 0.09408725 -0.16472267 -0.012141446 0.042932652 0.14566754 0.25923556 -0.051951338
-0.28300026 0.02858812 0.012758732 -0.011905508 0.16238075 0.18234372 -0.25976303 -0.0845805
-0.107481174 -0.10811542 -0.18905881 0.04756528 0.07297622 -0.1746423 0.04613626 0.09337703
-0.006752059 0.10173379 0.0026449908 -0.18604179 -0.06171914 -0.10921184 -0.017062787 -0.04880756
0.063421786 0.022747332 0.037833665 0.18531781 0.000113634014 0.13061026 0.13382316 0.10789999
0.054014686 -0.016315166 0.04754721 -0.080520906 -0.0679522 -0.101334006 -0.119369335 -0.16760722
-0.009702398 -0.036293976 0.14875709 -0.03374749 -0.124742396 0.120421976 0.20370165 -0.008718453
-0.08349355 -0.0946382 -0.12761305 -0.06625346 -0.12726362 0.03172597 -0.1987978 0.111386575

network_body.linear_encoder.seq_layers.0.bias f4 [128]
00000000: 181f 8d3c 322b b03c c90d 1e3d bcc1 1f3e
00000010: 1e50 cb3d 27ef 4a3e e9ed 0a3e 8a58 743d
00000020: 7644 3d3e 89d3 083e d170 be3d 15e0 1c3d
00000030: 7fe5 14be 4732 54be f6a0 d43b 718e 1a3e
00000040: 4a84 a13d 9320 f93c d71e 993d 1622 d03c
00000050: 2008 0a3e 2a62 4abc fae4 8f3d f347 0fbe
00000060: 9476 15be 994a 9bbe 7636 ec3c 4f06 09bd
00000070: 5479 3ebc 0480 3f3d 529d 843c 2835 43bc
00000080: 15cb ccbc 19fb 693d cfac 38be 00bc 48bd
00000090: 7a8c 00be 24c2 293d f3b4 e7bd 87ca 81bd
000000a0: 8f47 873d afcc d0bc a112 a1bc 83cb d93c
000000b0: 90ab 0abe b0c6 343d 0841 363d fc6d 1c3b
000000c0: 1f79 8cbd dfe7 3fbc 3ef0 8cbd e2ca 60bd
000000d0: e4d0 75bd d143 75bd 2138 b8bc 8f0c cf3d
000000e0: b3e4 1abe ff8c 91bc 0701 9d3d 3163 dbbd
000000f0: 8dfb 8dbd d26c 783d ea5f debd 1f44 e7bd
00000100: c3af 543d a607 6bbd ded1 0b3e 8164 123e
00000110: 32ce 57bd f789 cbbd 5855 c33d c176 383d
00000120: 89b8 093d 53eb 8b3d d3ef de3d c762 bb3d
00000130: 0242 9cbd 934a 3b3d b359 b3bd ce86 4fbd
00000140: 76c1 9d3d 07e4 d33d 96f0 c63d 16ec a7bc
00000150: 37d0 5f3e 69f9 b63d 76b7 e93c ded2 8b3b
00000160: 0208 b3bc b40a 9b3c becd 7b3e ac5e 5ebe
00000170: f2c2 fd3d 81ae cf3c 3bdf 0f3c 43ac 66bc
00000180: 11b2 003e 4d13 823d 3fb5 1ebe 2c03 a23d
00000190: 620c eabd 8730 8bbd 45f1 1bbe a1fb b53d
000001a0: 9b7d 363d 34ca 593d 32a3 b03d c667 70bd
000001b0: baa2 64bd 7b4e 48be d4c1 2f3e 6d73 8d3c
000001c0: ca21 8bbc d6f0 cfbd 45a3 b1bd 2dbe 693d
000001d0: ec62 093d 1a77 3ebd b5a1 9abd a7ef 373d
000001e0: 8c6e 883d 340f 3fbd 787a 9d3d 568a d9bd
000001f0: 30b9 95bc c013 cb3d 318a 68bd 2eac 923d
0.01722674 0.021504972 0.038587365 0.15601248 0.099273905 0.19817792 0.13567318 0.05965475
0.18483147 0.13361944 0.09298862 0.03829964 -0.14540671 -0.20722304 0.0064889146 0.150934
0.0788656 0.03041104 0.07476585 0.025406878 0.13479662 -0.012352506 0.07026096 -0.1399229
-0.14596015 -0.3033035 0.028834563 -0.033453282 -0.011625607 0.046752945 0.016188297 -0.011914529
-0.02499918 0.05712423 -0.18034671 -0.049007416 -0.12553588 0.041444913 -0.1131381 -0.06337457
0.066054456 -0.025488226 -0.019662203 0.0265863 -0.13542008 0.044134796 0.044495612 0.0023869267
-0.068590395 -0.011712997 -0.0688176 -0.054880984 -0.060013667 -0.059879128 -0.022487702 0.10109817
-0.15126304 -0.017767427 0.076662116 -0.10712279 -0.06932745 0.060650654 -0.10858138 -0.1129229
0.051925432 -0.05738034 0.13654277 0.14296152 -0.052686878 -0.09938424 0.095377624 0.045035128
0.033623252 0.06831994 0.108855866 0.091497 -0.076297775 0.045725416 -0.08757343 -0.05066567
0.07702915 0.10346227 0.09713857 -0.020498317 0.21856771 0.0893429 0.028529864 0.0042670807
-0.021854404 0.018926002 0.24590203 -0.21715802 0.123906985 0.025351765 0.00878125 -0.014079156
0.12567927 0.063513376 -0.15498827 0.07910761 -0.11428143 -0.06796365 -0.15228756 0.08885885
0.04455338 0.05317135 0.08624877 -0.058692716 -0.05581925 -0.19561188 0.17163783 0.017266953
-0.016983885 -0.10153358 -0.08673719 0.05706613 0.033541605 -0.046500303 -0.075503744 0.044906285
0.0666171 -0.04664536 0.07689375 -0.106220886 -0.01827678 0.099158764 -0.056772415 0.07161747

network_body.linear_encoder.seq_layers.0.weight f4 [128, 19]
00000000: b824 393e 9109 843e 154f 1c3f a7ac b53e
00000010: 1c34 1cbe 39a2 13be 1483 233f 4b48 94bd
00000020: fad9 7f3e f097 a43d 9ff4 133e eea4 5f3e
00000030: 60b6 2b3e acd4 1b3d be8b 9a3b 617a 23bf
00000040: d29c 413d 2efe 3fbe e99f b0bd d7fd 26be
00000050: 1328 94be 9791 3c3d f3cd 063e 122b b4bd
00000060: d2c3 f13e 2bd8 b33e 3383 363e eed5 673e
00000070: 7633 7c3e dca7 9abc b287 adbd c202 7b3e
00000080: 83e8 463e 66a1 203f 1253 fcbe 01f7 89be
00000090: 71fa 4a3e f7a1 163e 4632 0fbf 2395 5fbc
000000a0: 3f93 8abe 5b80 43be 568c 21be b78e 233e
000000b0: ac87 95be ef74 643e 1966 653d 815b 053f
000000c0: a592 07be eb75 f63e 4dd2 59be 7db2 e83d
000000d0: 6d0c c7bd d6b1 6dbc 2aa3 143e 580e d0be
000000e0: a2d5 99be e493 923e a069 f2bd 0632 83bd
000000f0: f42d 90be 79b5 293e 9482 be3d f8b4 fc3d
00000100: c390 4c3d b9bb a4bd 8534 803d d952 393e
00000110: 7a3d 53be 4eb7 04bd 9ff7 5abf 7fb7 d93e
00000120: e503 bbbd dc9f 93bd 9b8e 4ebc f9f3 773e
00000130: 4edb 5b3d edc3 5fbd 488d 97be a3ab 28bf
00000140: a7d4 a0bc 2f6c 863e dfb6 113e 7da5 c3be
00000150: 18e5 6bbd b03b a4be fa4b 323e 4476 ce3e
00000160: 04ed 673e b6c5 bd3d 4ee8 0a3e 9489 aa3e
00000170: bc9f d43e dbfb 23bd 3d56 5e3e bcd7 673e
00000180: 24b1 393d 641b fcbb b602 9d3c 014b 42be
00000190: 560c 4a3e fba3 613e 0d8e 063d 1a7c dbbe
000001a0: 0972 edbd d6a7 9ebd 62af 62be 173e 72be
000001b0: 39b0 2d3f 81bb 8bbe 9bde 123d 85dd 4cbe
000001c0: 5617 9b3e c33a 4f3e bd02 393f 694e 853c
000001d0: ab8a e1bd af73 d2be 0ae7 87bd f320 8e3d
000001e0: 0a14 1d3e a38a b1be d79d 74bd f002 6b3d
000001f0: 56f7 e8bd 737e bc3e 8df8 88bd 7d64 cd3e
00000200: efe0 a83d 194b 09be 69cc 51be a606 62be
00000210: d503 c23e e72b bc3e da48 7d3d 428f 563e
00000220: 86fd 88be 0ed3 11be 1d2e 18bf 9314 2fbd
00000230: 0347 163f c81f 733d b6d3 033e a16e 9d3c
00000240: 8d35 4bbe 0626 d5be ac77 7abe 3c86 f03e
00000250: a576 02be 000e cd3d 02ee 8a3e 568e 76bd
00000260: 9576 9b3e e141 e03e 1e62 89be 200c ad3d
00000270: 84ca f8be f05d 03be da4b 203d 41b4 4abe
00000280: 66c9 efbd 3795 163d 3aa3 af3b c354 1d3f
00000290: 6fee c03c fce0 63be cb0f f43c 48da 363f
000002a0: 4d78 013d 38ab 15bf 4f23 48bd 6f24 91be
000002b0: e3ea 94be 7e4f 92bd 983c a6be 4407 9a3d
000002c0: 5525 0ebf dc86 9b3e 31bf ab3d 0e37 2a3e
000002d0: 289e 40be 60a6 833e 35ff 4abb c3ab a2be
000002e0: 0cc2 42be c876 a73e 3e92 10bf 68bc 0dbe
000002f0: a3fa acbe 0fc3 523e 5cc3 04be e732 89bd
00000300: c937 0cbd 1808 53bf 8482 2abe 96ec ddbd
00000310: 4c97 25bf 834d 9dbe e4e0 423e 132d 153b
00000320: 23e9 a53e 2bd5 eebe e943 303e 9f05 b7be
00000330: 82d1 89bc 81dc 993e 7e47 b8be a8c7 8abd
00000340: 0308 c9be 8e09 cabe 7690 273f 482b 9fbd
00000350: 4c3c 0ebd 7a39 fd3b 29b2 383e 5ee6 32bf
00000360: 3296 153e e77c 983d 9790 aebe 468b 1abe
00000370: 5178 703e 2efe 1c3e ef8c 453e 22e7 9dbd
00000380: 9d35 bc3e 9ddc b73e 82cf 383d fa67 583e
00000390: 9581 763d bd27 c93e 5dae ac3e 3e46 623e
000003a0: 3f3a 733e f2f9 31be 118d 9dbe 5f9b 243e
000003b0: 727a 1bbe 3da0 24be c807 1abe c067 2d3e
000003c0: de87 1e3e df02 c93e cda9 f3be 282d a2bc
000003d0: ead2 ce3e f344 11bd 0cd0 20be ee14 2abe
000003e0: 7d58 3e3e bbdc 82bd fbf6 6e3e 8060 adbe
000003f0: 304a 303e fa98 ecbd fbe4 4bbd 7efa e83d
0.18080413 0.2578855 0.6105817 0.35483286 -0.15254253 -0.14417352 0.63871884 -0.07240351
0.24985495 0.08036792 0.14448784 0.2184026 0.1676879 0.038044617 0.0047163656 -0.6385861
0.047268696 -0.18749306 -0.086242504 -0.1630777 -0.28936824 0.046037283 0.13164501 -0.087972775
0.47219712 0.3512586 0.17823486 0.22640201 0.24629006 -0.01887887 -0.084731475 0.24512771
0.19424634 0.62746274 -0.49282128 -0.26946262 0.19822098 0.14710222 -0.55936086 -0.013646397
-0.27065465 -0.19091932 -0.1577619 0.1597241 -0.29205072 0.22310232 0.05600557 0.5209275
-0.13239534 0.4813684 -0.2127163 0.11362169 -0.09719167 -0.014507731 0.14515367 -0.40635943
-0.300458 0.28628457 -0.118365526 -0.064060256 -0.2816006 0.16573133 0.093022496 0.123392045
0.049942743 -0.08043618 0.06260017 0.1809801 -0.2062892 -0.032401375 -0.8553409 0.4252281
-0.09131602 -0.07208225 -0.012607242 0.24214162 0.053675942 -0.05463021 -0.29599977 -0.65886897
-0.01963265 0.26254413 0.14229916 -0.38212195 -0.057591528 -0.32076788 0.17411795 0.40324605
0.22649008 0.09266226 0.1356518 0.3330809 0.41528118 -0.04003511 0.21712585 0.2264089
0.04533495 -0.007693695 0.019166332 -0.18973924 0.19731268 0.2203521 0.032850314 -0.4286812
-0.11594016 -0.07746856 -0.22137216 -0.23656498 0.6784702 -0.27291492 0.035856824 -0.20006378
0.3029124 0.2023726 0.72269803 0.01627274 -0.11012777 -0.41103885 -0.06635864 0.06939878
0.15339676 -0.34676084 -0.05972084 0.05737585 -0.113753006 0.36815223 -0.06688032 0.4011573
0.08246028 -0.13407554 -0.20488133 -0.22072849 0.3789355 0.36752245 0.061837055 0.20953086
-0.26755923 -0.14240667 -0.59445363 -0.04274423 0.58702105 0.05935648 0.1287373 0.019217791
-0.19844647 -0.41630572 -0.24459714 0.46977413 -0.12740572 0.10012436 0.2713471 -0.060194336
0.30363908 0.43800262 -0.2683267 0.08449578 -0.48592007 -0.12828803 0.039134838 -0.19795324
-0.117083356 0.036763396 0.0053600343 0.6145746 0.023551194 -0.22253793 0.029792687 0.7142682
0.03160887 -0.58464384 -0.048861798 -0.2834811 -0.29085454 -0.07144068 -0.32468104 0.07520917
-0.55525714 0.30376327 0.08386076 0.16622564 -0.18810332 0.25712872 -0.003097487 -0.3177167
-0.19019336 0.3270781 -0.5647315 -0.13841403 -0.3378497 0.20582221 -0.12965149 -0.06699162
-0.03423289 -0.82434225 -0.1665135 -0.10836141 -0.64683986 -0.307232 0.19031101 0.0022762462
0.32404432 -0.4664701 0.17213406 -0.35746476 -0.016823534 0.30051044 -0.35992044 -0.06776363
-0.39263925 -0.39460415 0.65454805 -0.07771927 -0.034725472 0.007727799 0.18036713 -0.6988276
0.14608076 0.07445698 -0.34094688 -0.15092191 0.23483397 0.15331337 0.19292043 -0.07710101
0.36759654 0.35910502 0.04511977 0.21133414 0.060182173 0.3928813 0.3372678 0.22097108
0.23752688 -0.17380503 -0.30771688 0.16074894 -0.15183428 -0.16076751 -0.15042031 0.16934109
0.15481517 0.39260003 -0.47590485 -0.019796923 0.4039529 -0.035466146 -0.15704364 -0.16609547
0.18588443 -0.06389757 0.23336403 -0.33862686 0.172158 -0.115526155 -0.04977892 0.113759026

network_body.linear_encoder.seq_layers.2.bias f4 [128]
00000000: 2ba8 3c3e f712 6dbd dc1d acbc 4815 533d
00000010: 6a54 16bd f3da 3fbd d526 753c 03b2 ee3d
00000020: 9fb1 cd3d 3012 cf3d 5f35 1e3e 8039 663d
00000030: dd2a 033e c146 0cbd 4051 3e3c aedd 7abd
00000040: 5852 573d 9072 18bd a724 003d 9098 ee3d
00000050: f9ec 5bbd a782 5f3d 5be1 103c f7fe f2bd
00000060: 3a43 df3c 2c08 5e3d 37e6 ed3d 2864 573d
00000070: 769c 3e3d 5f17 8b3a 2ea3 c6bc 212b 44bd
00000080: 787d 8c3d ec43 01bb 5769 103e 86e9 0b3e
00000090: 8fef 7d3d 86d9 093b d701 a43d fff2 683d
000000a0: 0409 7c3d d047 05bd f692 0d3c 167d a0bd
000000b0: f775 f43b 5436 783d 1025 20bd d956 513d
000000c0: 520e d337 2d0a c53a 9928 cbbd 0a06 78bd
000000d0: d2f7 d63d 08f5 d83d a60a 1e3e 2f93 1cbb
000000e0: 5823 a23c 86bb 5b3d e942 5f3d 407a 1ebc
000000f0: fd81 ff3d e849 543d c0e1 e0bb 6935 273d
00000100: f62f 45bd 64ae 27bd 91e9 343e 6a2c 483d
00000110: 8c7e 92bd 6039 aa3d 9884 f43d 8dd5 b2bd
00000120: 0c93 6d3d f640 ae3b 1818 be3d cb86 063d
00000130: 50aa 413d aa2a 633d 3554 b33d 9df3 703d
00000140: 9eb9 023e 6a47 41bd 52e2 b83d 1a35 be3d
00000150: 0f2a 843d e788 203e 5231 b1bd 0d3f 3abd
00000160: 5205 ac3c 68c9 9dbc fd5d 723d 051c ca3c
00000170: bbf0 65bd 5068 f83c 4cf0 b63b 8f5a ec3d
00000180: 2d8e d7b9 144b 213d 1d7d 943d cbb3 28bc
00000190: a842 06be 52d1 0b3d f2bd 963d 61ee 213d
000001a0: 1403 db3d ad5f aabc daf6 a739 f375 313e
000001b0: d046 173e 9d55 413c eaed e43d fc39 af3c
000001c0: 6d48 9f3d 4ce8 983d 8816 0e3d bd5e df3d
000001d0: 3302 0b3e 3e1f 1c3d 30bc c13d 8ee2 d6bc
000001e0: 5a6e eb3c 6441 4c3c a955 3cbd 8889 58bd
000001f0: ca9f 99bc 9d16 e13d dcb7 0a3d 5234 0e3e
0.18423526 -0.057879414 -0.021010332 0.051533967 -0.036701597 -0.046839666 0.014962872 0.11655047
0.10043644 0.10110891 0.15450047 0.05620718 0.1280932 -0.034247164 0.011616051 -0.061246566
0.052568763 -0.03721863 0.031284954 0.11650193 -0.05369279 0.05456796 0.008842791 -0.11865037
0.027253736 0.054207012 0.116161756 0.05258575 0.04653593 0.0010611824 -0.024247732 -0.047892693
0.06859869 -0.0019724322 0.14102684 0.13663301 0.06199604 0.0021034195 0.080081634 0.056872364
0.061532035 -0.03253919 0.008640995 -0.07836358 0.0074603516 0.060598686 -0.039097846 0.051108215
2.5159829e-05 0.001503294 -0.09919853 -0.060552634 0.10496487 0.10593611 0.1543375 -0.002389144
0.019792244 0.053645633 0.05450717 -0.009672701 0.12475965 0.051828295 -0.006862849 0.04082242
-0.048141442 -0.040937796 0.17667224 0.04887048 -0.07153043 0.08311725 0.11939353 -0.08732138
0.058001563 0.0053178025 0.09281939 0.032843392 0.047281563 0.05546061 0.087562956 0.058826078
0.1276612 -0.047187246 0.09027542 0.09287472 0.064533345 0.15677224 -0.08651985 -0.045470286
0.02099863 -0.019261077 0.059171665 0.024671564 -0.05613778 0.030323178 0.005582845 0.1154071
-0.00041113925 0.03937824 0.07250426 -0.010296772 -0.13111365 0.03413517 0.07360448 0.039533976
0.106939465 -0.020797575 0.0003203664 0.1733015 0.14773107 0.011800197 0.11178191 0.021389954
0.07777486 0.07466182 0.034689456 0.10906742 0.13575058 0.038115732 0.09459722 -0.026231077
0.028739143 0.012466762 -0.04598013 -0.052865535 -0.018752951 0.10990641 0.03386675 0.13887146

network_body.linear_encoder.seq_layers.2.weight f4 [128, 128]
00000000: bced 5abd 7622 36be 3cec a63d 6ea6 003d
00000010: 531b b63c c858 0e3d 2af0 183e e99c a8bc
00000020: 5d85 9a3e 8d21 a33d ca7f 71bd bc91 0bbe
00000030: f23c 49be 9de1 1bbe 952a 71be 6bcf 5d3d
00000040: 8ca2 943d e24c 28be 6b3a 023e 0e74 86be
00000050: 2f38 b53c 1b17 8c3e c5ec 0fbe cece cc3d
00000060: d343 07be bcf9 32be 2944 65bb a07b 5dbd
00000070: 482a 73bd 2aed d13d d5bb 393e 4334 8abd
00000080: 5540 973d 02bf 0f3e 33f8 8fbd ab39 3a3e
00000090: 6328 04be 0f66 9ebe f382 803d be6c f53d
000000a0: bc0e 133d 73a9 073e c1e1 e6bd c40c e53d
000000b0: 87c2 0a3d 51be 023e 295a e93d f479 49be
000000c0: 1d02 bcbd 7d65 d5bb 24d8 86bc 8795 1bbc
000000d0: 47c2 a2bd aeeb 89be 1f9e 373e 766e 613e
000000e0: cfaa 61be 7ec0 35bc b8cc 293e 52d0 7cbe
000000f0: 0739 60be 7893 e73d 14f9 fbbd bc57 e4bd
00000100: f38a 2d3d fadd eb3c 1ba0 f93c 6373 70bd
00000110: a926 8fbc c941 43be b5b0 00bd bd76 e03d
00000120: a4be 013e 2b53 f7bd 8be5 68bd 854f f8bc
00000130: 7460 87be a497 0c3e 0ecf e03d d0de 4cbe
00000140: fc18 5fbe 294c 29bd 3a2f dc3d 3d67 763d
00000150: 3a10 963b 6e34 a23e e802 96bd 9b3e 5abc
00000160: 543c 073c 1633 e2be 9ae6 293e 216b 1ebe
00000170: 9f4d fe3d fe2d a13d 30fb 3bbe 7dc2 80bd
00000180: ff21 803e 51a5 353c d68b 14be 1c88 383d
00000190: 09ea 073e 09fb aabe c5b3 68be eb3e ea3c
000001a0: 3c16 a53d 6225 353e 1f84 22be 482d f4bb
000001b0: 54d6 fcbc 257c 9bbc 6b0d b73d 59ca 5bbe
000001c0: 073f 003e 1e10 fcbc c498 4ebe 91be d8bb
000001d0: 1f5a a13d 1412 d53b b8d7 8cbd 251d e4bc
000001e0: 8e55 13be cae5 7ebb 9bd9 773d b321 2fbe
000001f0: 2f3f 1b3d 9e0f fc3c a801 29be 33ed d3bd
00000200: 0afe 283e ecf6 2f3e 5c36 bcbd a643 273d
00000210: 15f1 f1bd 8e68 1e3d 9ddc 043e 8dbf 71bd
00000220: 4587 50be e154 843d 73e8 8fbe 4d31 26bd
00000230: 4250 57bd b689 b3bd 697d 613d eda7 f7bc
00000240: 82b6 573c 0453 243e 8766 1ebd c6d1 b03e
00000250: ad67 f13c c273 00bd fff1 07bd 6fa1 18be
00000260: 58a4 7b3d 00f5 bdbd 4038 753d 6772 9d3c
00000270: 2424 c13d 2552 c93d 9671 68bd 7252 383d
00000280: 140a 50be 7ef2 a43d 74a3 4abd 997a 4ebe
00000290: 61e4 213e 7ec6 60bd 5807 183d 4ded 313d
000002a0: 03b2 5bbe da7b 023e afc7 29be 172f 7c3d
000002b0: 4bb7 893c 4ec0 4bbd 18dc 1bbe 03a1 973c
000002c0: fed4 f73d 23a5 33be 6ab1 abbc a47b 033d
000002d0: 48f9 633e 3233 41bd e6e0 c33d 4b5f 9c3d
000002e0: c3fc 01be f490 3abe 905a 7bbd b272 0dbd
000002f0: 51e6 2e3d b5c8 88be aa6f a93e cdaf f13d
00000300: bb93 5fbd e4a6 99bd 8457 93bd 8902 98bd
00000310: 2834 3a3e bcfc 663e a7db e0bd 7258 f1bc
00000320: cd23 223e bd84 4b3e c009 293d c715 c2bc
00000330: 20d0 61bd ae69 dd3d d8dc 813d 8844 10bd
00000340: f370 223d 3078 64bd ec0f 35be 17d9 413d
00000350: 41ab 82be 3886 0f3e 521e 673e 6b7d 20be
00000360: 16d7 1dbd 8d6b e9bb 9412 18be 7595 aa3d
00000370: c44a cfbd a526 953d 39cd 44bb 889b 403e
00000380: 0928 84be b5a8 77be ff16 afbc a632 693c
00000390: f2e0 603e 60ef 3ebd 0ca2 c7bc d194 57be
000003a0: aaaa 653d 71e4 93bd 3772 573e d400 313d
000003b0: 2999 0abe 2a28 45bd e356 a0bc 9c1b 093d
000003c0: c99a 0d3d b1f1 d3bd d68e 083e a350 3ebc
000003d0: cf3b 0fbb 9bb0 c63c 279b b73b 3350 9a3d
000003e0: fd07 b23c 46b5 98bc b598 cabd eef2 763e
000003f0: 22b3 d6bc 6226 cebd 45c4 05be c5f3 8f3d
-0.053449377 -0.17786583 0.08150527 0.03140872 0.022229826 0.034752637 0.14935365 -0.020582633
0.30179873 0.07965384 -0.05895976 -0.13629812 -0.19652155 -0.15222783 -0.235514 0.054152887
0.07257566 -0.16435578 0.12717597 -0.26260418 0.022121517 0.27361378 -0.14055164 0.10000382
-0.13209467 -0.17478079 -0.0034983254 -0.054072976 -0.059366494 0.102503136 0.18138058 -0.067482494
0.07385317 0.14037707 -0.07029762 0.18186061 -0.12906031 -0.3093724 0.062749766 0.119836316
0.035902724 0.13248233 -0.11273528 0.111840755 0.033876922 0.12767912 0.1139415 -0.19675428
-0.091800906 -0.0065123425 -0.016460486 -0.009496099 -0.07947212 -0.26937622 0.17931412 0.22014794
-0.22037815 -0.011093257 0.16582 -0.24688843 -0.21896754 0.11307424 -0.12303367 -0.111495465
0.04236884 0.02879237 0.030471852 -0.05870379 -0.01747449 -0.19068064 -0.03141852 0.109601475
0.1267038 -0.1207641 -0.056859534 -0.030311355 -0.26440775 0.13729721 0.109769925 -0.20006871
-0.21786875 -0.041332398 0.10751195 0.06015705 0.004579571 0.31680626 -0.07324773 -0.01332059
0.008254129 -0.441796 0.16591874 -0.15470554 0.12417149 0.078701004 -0.18357539 -0.06287096
0.25025937 0.011086778 -0.14506468 0.04505168 0.13272871 -0.3339465 -0.22724827 0.028594455
0.080608815 0.17690042 -0.15870713 -0.007451687 -0.030863918 -0.018980095 0.08938106 -0.21463908
0.12524043 -0.030769404 -0.20175463 -0.006614514 0.07878517 0.006502399 -0.068770826 -0.027845928
-0.14388105 -0.003889429 0.06051026 -0.17102699 0.037902053 0.030769166 -0.16504538 -0.103479765
0.16503158 0.17184037 -0.09190056 0.040836 -0.11813561 0.03867393 0.12974782 -0.059020568
-0.20364101 0.06461502 -0.28107032 -0.04057436 -0.052566774 -0.08766501 0.05505124 -0.03023144
0.013166072 0.16047293 -0.038671996 0.34535044 0.029468382 -0.031360395 -0.03318977 -0.14905332
0.061436027 -0.09275246 0.059868097 0.01921959 0.094307214 0.09830121 -0.05674895 0.0450005
-0.20316344 0.08054064 -0.049472287 -0.20163955 0.15809776 -0.054876797 0.03711638 0.0434392
-0.21454625 0.12742558 -0.1658008 0.061568346 0.016811034 -0.049743943 -0.15220678 0.018509394
0.12101172 -0.17543463 -0.020958621 0.032100335 0.22263062 -0.047167964 0.0956438 0.07635363
-0.12694077 -0.18219358 -0.061365664 -0.03453321 0.042700116 -0.26715627 0.33093005 0.118011095
-0.054584246 -0.07502535 -0.07194427 -0.074223585 0.18183959 0.22557348 -0.10979395 -0.02946112
0.1583397 0.19874854 0.041269064 -0.023692025 -0.055130124 0.108111724 0.06340951 -0.035221606
0.039658498 -0.055778682 -0.17681855 0.047326174 -0.2552128 0.14016044 0.2257016 -0.15672843
-0.0385352 -0.0071234168 -0.14850837 0.08329288 -0.10121682 0.072827615 -0.0030029549 0.1880933
-0.25811794 -0.2418545 -0.02137327 0.014233267 0.2196081 -0.046615005 -0.024369262 -0.21052863
0.05607096 -0.07221306 0.21039663 0.04321368 -0.13534988 -0.048134007 -0.01957268 0.033473596
0.034571443 -0.10348833 0.13335738 -0.011615905 -0.0021855717 0.024254134 0.0056032124 0.07534828
0.021732325 -0.018641125 -0.09892408 0.24116108 -0.026208464 -0.10065915 -0.13063152 0.07028917

network_body.vector_processors.0.normalizer.running_mean f4 [19]
00000000: 8a73 6a3e 98a5 3141 29e5 94bd 7f81 1cbf
00000010: d145 e6bd 78fe 11be 95e0 173f f7f0 1d3e
00000020: 6072 27c0 3000 34bd 3ea5 10bc 139f c3bc
00000030: e1e2 93bd 1bfd 633e b5dc 7041 4403 ad3b
00000040: 5043 d83d a86a 85c0 56a4 113d
0.22895637 11.102928 -0.07270271 -0.61135095 -0.11243785 -0.14257228 0.5932706 0.15423952
-2.616356 -0.04394549 -0.008828459 -0.023879563 -0.07221008 0.22264521 15.053884 0.0052799303
0.10559714 -4.1692696 0.035557114
