Assets/ML-Agents/Experiments/AirDribble/perfectSimple.onnx (onnx, 80982 bytes, 9 tensors)

62 f4 [19]
000000 29 bc 0b 41 ed 6e 97 40 c7 14 9d 40 8e f0 50 3e
       8.733438 4.7322907 4.9087863 0.20404264
000010 1e c1 2a 3e 65 db 40 3e 82 c6 55 3e 09 bf 7a 40
       0.16675231 0.18833692 0.20876506 3.9179099
000020 36 73 20 40 3a 6f f5 3f d0 e6 23 3f 0e 61 9f 3f
       2.507032 1.9174569 0.64024067 1.2451494
000030 7c a1 3e 3f fd 36 0c 41 08 b0 94 40 63 7e 9c 40
       0.74465156 8.763425 4.646488 4.890428
000040 af 3d 75 40 d2 0d 24 40 f3 6d f2 3f
       3.8318899 2.5633435 1.8939804

action_model._continuous_distribution.log_sigma f4 [1, 4]
000000 c4 69 52 c0 69 b5 2c c0 ab 3c 34 c0 b2 6a 17 c0
       -3.2877054 -2.6985724 -2.8162029 -2.3658872

action_model._continuous_distribution.mu.bias f4 [4]
000000 a4 7b 67 bc 12 4a 2b 3d a1 b5 2e bc 99 86 56 3d
       -0.014128599 0.041818686 -0.010663421 0.052374456

action_model._continuous_distribution.mu.weight f4 [4, 128]
000000 d9 25 be 3c a0 0c a1 3d db 98 85 3d ec 8d cb bb
       0.023211407 0.07863736 0.065232955 -0.0062119868
000010 db 88 4a bd fa 86 87 bd f6 c1 40 3e 96 d0 26 bc
       -0.04944692 -0.066175416 0.1882399 -0.010181567
000020 57 1f 3e 3d ab e7 45 3d 3e f3 ef 3d 7c e9 13 bc
       0.046416607 0.04831664 0.11716317 -0.009027835
000030 a2 32 8f 3c b3 59 ad bc e3 49 86 3c 09 81 7d bc
       0.017480198 -0.021160936 0.016392654 -0.015472659
000040 d1 2a 05 bd dd dd 1a 3c 85 d8 3b 3b 74 ca f1 3d
       -0.032511536 0.00945231 0.0028662991 0.11806193
000050 e9 a7 84 bc 5c f5 05 3d f5 e0 f7 bc 55 d0 eb 3d
       -0.016193347 0.032704696 -0.030258635 0.115143456
000060 bf 39 f2 3d b9 fc 50 bc bb 54 ce bd 2b ec 3f be
       0.118274204 -0.012755566 -0.10074755 -0.18742435
000070 c1 de 2e bc 7f 96 bc bb a9 17 f6 bc 96 17 3f 3d
       -0.010673226 -0.005755245 -0.030040579 0.046653353
000080 63 5e d9 bd 1e 4d 7a 3c ba 45 05 bd c1 7b f1 bb
       -0.10613706 0.015277175 -0.0325372 -0.007369489
000090 2c 32 20 3c 10 cf a3 3d 42 8b b0 bc 39 d9 66 3c
       0.009777587 0.079984784 -0.021550778 0.014089876
0000a0 73 c3 07 bc 55 c5 0f bd 4c 08 85 bc d8 c3 2b 3d
       -0.008286345 -0.0351003 -0.016239308 0.041934818
0000b0 af 51 ab bd 71 f8 79 bb fe 94 4b bd e6 56 e6 bb
       -0.08365189 -0.0038142467 -0.049702637 -0.007029402
0000c0 61 b1 07 be 23 44 f1 3d a0 52 57 bc e9 21 ad 3d
       -0.13251258 0.11780574 -0.013142258 0.084537335
0000d0 a0 89 a5 bc 25 9b 9f 3c e3 9d 85 3c 5d 39 95 3a
       -0.020207226 0.019483158 0.016310638 0.0011384893
0000e0 cf 08 2c bd 66 8a e8 3c 95 27 71 3d 2e 4c ca 3c
       -0.042000588 0.028386306 0.05887564 0.024694528
0000f0 cc 70 eb 39 1e 8a 22 3b 96 55 d7 bc 09 d1 09 3d
       0.00044906733 0.0024801563 -0.026285928 0.033646617
000100 94 a2 32 bd e1 91 75 3d 76 66 50 3d b8 cb 17 bd
       -0.043612078 0.059953574 0.050878964 -0.037059516
000110 1b b2 35 be 80 f6 a3 bb a1 31 89 3d d8 77 39 bb
       -0.17743723 -0.0050037503 0.06698919 -0.0028300192
000120 89 55 c1 3d 2b c3 b6 bd 23 ff 5b bd 00 57 4c bd
       0.09440143 -0.08923944 -0.053710114 -0.049887657
000130 2c 70 6a 3d 6b f7 e9 bd d9 78 20 bc 60 54 84 3e
       0.05723588 -0.11424144 -0.009794437 0.25845623
000140 db ce 41 bc 67 94 92 bd 3f e5 a0 bc d9 0f b0 bc
       -0.011829103 -0.07157212 -0.019640563 -0.021491932
000150 d0 06 a9 bd 64 b6 a8 b9 c1 5c 8f bd c2 c2 99 3c
       -0.082532525 -0.0003217935 -0.07000113 0.018769626
000160 4c 06 12 bb 82 8a 1c bd 75 4a 1f 39 5f 99 15 3c
       -0.0022281585 -0.03821803 0.00015191159 0.009130805
000170 2a 8c e1 3b 1f 76 53 bd 75 96 15 be 53 d4 ae bc
       0.006883164 -0.05162632 -0.14608176 -0.021341478
000180 ad bf ee 3b d7 c7 df 3c 41 0f 3d 3c ba 61 32 3d
       0.007286033 0.02731697 0.011539281 0.04355023
000190 d3 31 ae 3a b9 22 01 3e 4a 1b 31 3c 86 1b a7 bc
       0.0013289995 0.12610902 0.010809729 -0.020398866
0001a0 fd 26 c1 bc f1 6b 32 3c 3a 8c 8f bc c1 51 83 bd
       -0.023578161 0.010889993 -0.01752292 -0.06412078
0001b0 90 52 cf 3c 54 0a ae bb 32 67 cd bd 66 e6 6a 3c
       0.025307924 -0.00531129 -0.100294486 0.014337158
0001c0 ee ef b3 3b 34 3c 88 be ea 62 26 bd de cf 9c bc
       0.0054912483 -0.2660843 -0.040621676 -0.019142088
0001d0 61 cb 29 bd 79 91 98 bd aa 5c 88 3c 66 f3 5b 3d
       -0.041453723 -0.07449622 0.016645748 0.05369892
0001e0 ff 3b 4b 3e 22 10 1e bd 66 7d 26 3e ff 1e a9 bc
       0.19847105 -0.038589604 0.16258773 -0.020644663
0001f0 c6 dd 35 bc a3 99 6a 3d da 81 57 bc 1e 55 34 3e
       -0.011100238 0.057275426 -0.013153518 0.17610595
000200 cb c0 53 3d bb fe 2e 3d b9 7c 11 3d 45 a3 b8 3c
       0.051697534 0.0427234 0.035519335 0.02253879
000210 c8 ee 18 bc 5b 21 9d 3d 80 c0 93 3a e2 80 75 bc
       -0.009334274 0.07672378 0.001127258 -0.014984341
000220 65 12 83 3c 07 69 34 be 9a 6a 23 3e f4 3f 15 bd
       0.015999982 -0.1761819 0.15958634 -0.036437944
000230 b1 66 12 bd e3 1d 9e bd 84 c8 50 3d 1f 65 bd bc
       -0.035742465 -0.07720544 0.050972477 -0.023119507
000240 d7 75 96 bd 3c 48 f8 3b 83 45 08 bd 78 0f e5 bd
       -0.07346695 0.0075769704 -0.033269417 -0.11184591
000250 e8 b1 eb bd 9f d9 7f 3d 8e 28 84 ba a4 57 02 3e
       -0.11508542 0.0624634 -0.0010082887 0.12728745
000260 20 c6 a2 bd ba dd 37 bd 9d a4 e8 be c7 03 c9 be
       -0.079479456 -0.04488919 -0.4543809 -0.39260694
000270 94 13 ac 3e 33 6d 90 bd f8 6c 86 3d f2 7a b0 bc
       0.33608687 -0.07052078 0.06563753 -0.021543
000280 e8 82 de bc 73 75 88 be 6b fb be 3c cc ee 63 bc
       -0.02716203 -0.26652107 0.023313245 -0.013911914
000290 b8 8d ea bc c6 94 f3 ba ff 62 64 bd bc e8 23 bd
       -0.02863203 -0.0018583767 -0.055758473 -0.040016875
0002a0 12 cd c8 bd 82 ba a3 3c 73 04 44 3c 90 d1 9b bd
       -0.09804739 0.019986395 0.011963951 -0.0760833
0002b0 4a 1e 55 bc 22 9e 47 3c c1 43 1e be b3 c4 10 bc
       -0.01300771 0.012183698 -0.15455534 -0.008835959
0002c0 f8 e0 bd be 32 d1 80 bd 29 ba 20 3e 64 97 0d 3c
       -0.370857 -0.06289901 0.15696014 0.008642051
0002d0 a7 f7 ba bd c2 53 79 bd 66 eb be 3d 8c 7d 84 3d
       -0.09129267 -0.060870893 0.093222424 0.06469259
0002e0 d8 60 f8 3c 3d 61 f0 bd d3 da 03 3e 94 4c 9a bd
       0.030319616 -0.11737297 0.12876444 -0.07534137
0002f0 0d c3 b9 bc dc 74 61 3b 7f 8b df 3c 6a 5e ec 3c
       -0.022676015 0.003440193 0.027288197 0.028853614
000300 36 d0 d9 bd 73 51 6a be 66 13 34 bd 90 c0 7d be
       -0.10635416 -0.22882633 -0.043963812 -0.24780488
000310 2a d9 47 3e fd c5 d9 ba 95 2c a8 bc b2 42 a3 3d
       0.19516435 -0.0016614791 -0.02052907 0.079717055
000320 29 15 9e 3e bb ca de 3b bd d5 e1 3d d5 a4 eb bc
       0.3087552 0.0067990697 0.110270955 -0.028765121
000330 3d 8a 62 3b 23 be 06 bb 64 2a 7a bd 58 ee 5a be
       0.003456726 -0.0020560108 -0.061075583 -0.21379983
000340 1b 51 d4 bc f7 2e 79 bd 01 96 21 3e bf a2 68 be
       -0.02591758 -0.060835805 0.15779878 -0.22718333
000350 54 ae 41 3d 31 d3 7b bd 44 44 13 3e 4a 19 e5 3c
       0.047285393 -0.061480705 0.1438151 0.02796616
000360 b3 2e 3c 3e 09 bf 0b 3d 55 e1 0a 3c 3b 54 04 bd
       0.1837719 0.034117732 0.008476575 -0.03230689
000370 79 71 74 bd 42 68 7b 3e 95 19 97 bd 3d ef 89 3c
       -0.05967853 0.2455149 -0.07377926 0.01683771
000380 71 49 7d 3d c3 74 77 3e ef 26 9f bc 29 61 aa 3d
       0.061837617 0.24165635 -0.019427745 0.08319313
000390 02 f1 f6 3c 75 c3 74 bc 73 cc 1f 3d ba 1d a3 bd
       0.030144218 -0.014939179 0.039013337 -0.07964654
0003a0 8a a0 a0 3b cc b3 4b bd 06 fe 0c 3c cf 22 12 be
       0.0049019502 -0.049732015 0.008605486 -0.14271091
0003b0 19 f6 52 bc e7 5c 02 3c 55 19 07 be 85 32 ac bd
       -0.012876057 0.00795672 -0.13193257 -0.08408073
0003c0 05 d8 fb bc 56 c3 9c be 23 33 4e bc 03 15 b0 bd
       -0.030742655 -0.3061778 -0.012585434 -0.08597758
0003d0 21 0d e8 3d 95 5e 3d bd e4 88 0c be 53 55 0c bf
       0.11330629 -0.04623278 -0.13724095 -0.54817694
0003e0 95 12 7c be f3 84 2c bd 40 ea 25 3d 13 89 10 be
       -0.24616463 -0.042118978 0.0405066 -0.1411479
0003f0 9f 09 ba 3c ac 97 04 3e a3 2d 00 3e 47 e7 28 bd
       0.022709666 0.12948483 0.12517409 -0.04123619

network_body.linear_encoder.seq_layers.0.bias f4 [128]
000000 55 df a5 bd e5 54 c3 bc f8 20 69 be 96 c6 8e bc
       -0.08099238 -0.023844192 -0.22766483 -0.017428678
000010 42 bf 40 bd 98 79 53 bd f4 f5 4f be da af 9f be
       -0.047057398 -0.051629633 -0.20308667 -0.31188852
000020 45 1b 6c bd ed 29 15 3e 9a ca 1b be 0c cd 0e be
       -0.057643194 0.14566775 -0.15214005 -0.13945407
000030 94 41 9f 3d 27 0b 58 bd 40 10 fd bd 59 34 79 bd
       0.0777618 -0.05274501 -0.12356615 -0.06084094
000040 50 f9 31 bd 68 f7 93 bd 75 2c a0 3d 25 9c 1c be
       -0.043450654 -0.07224923 0.078209795 -0.1529394
000050 f9 85 a1 bd 1c f7 cc 3d 33 be 1e 3e f6 d6 9c 3d
       -0.078868814 0.1000807 0.15502243 0.07658188
000060 ba c2 a9 bd 98 7f f3 bd 89 a3 d6 bd be 71 57 3d
       -0.08289094 -0.11889571 -0.104804106 0.052598707
000070 d6 3e e1 bd e7 de 38 3e e7 6d 7a 3d 3d 55 16 bd
       -0.10998313 0.1805378 0.061139967 -0.036702383
000080 c2 83 29 bd ea 0b 00 3b 27 60 ae 3d cf 79 15 3d
       -0.04138542 0.0019538351 0.08514433 0.03649312
000090 40 24 07 3e 3f 22 2e 3d 42 e0 e8 bd 6f 1b 2d 3e
       0.13197422 0.04251313 -0.11370899 0.16904996
0000a0 40 b1 c3 3c 8f af 5e 3d 1e 97 ba 3d 37 e4 1e bc
       0.02388823 0.054366644 0.091108546 -0.009697965
0000b0 91 b9 16 bd d8 c6 3a 3e fe 90 90 bd 62 32 51 be
       -0.036798064 0.18239915 -0.07058905 -0.20429376
0000c0 b6 19 68 be 04 d7 20 3e 59 df 31 3d e9 d0 90 3d
       -0.22666058 0.15707022 0.04342589 0.070710965
0000d0 99 53 a8 3d 5b 9b e0 bc 09 50 c1 bc 80 7b 02 be
       0.0821907 -0.02741783 -0.023597734 -0.12742424
0000e0 c3 e3 b3 bd 0c 39 eb 3c 31 1f b9 ba 79 c7 19 be
       -0.087836765 0.028713726 -0.0014123676 -0.15017499
0000f0 a4 62 8a 3d 17 81 35 bc bd 12 ab 3d dc 2f 43 be
       0.067570955 -0.011078141 0.083531834 -0.19061226
000100 a5 e5 85 bd 8e c7 b1 3d 4e 36 15 be 9d 5f 6b bd
       -0.06537942 0.0868064 -0.14571497 -0.05746423
000110 b3 57 af ba 76 43 45 bc 59 b7 83 bc 96 f0 95 bd
       -0.0013377577 -0.01204001 -0.016078638 -0.07321279
000120 a8 89 91 bd 8b 80 b1 3d b1 db 11 3e 16 51 c8 bd
       -0.07106334 0.08667096 0.14243962 -0.09781091
000130 7c ba c4 3d 71 a1 d2 bd b7 52 0f be c0 53 92 3c
       0.096058816 -0.10284699 -0.13996397 0.0178622
000140 f8 87 01 3e aa c1 af bc 1b 37 03 3e 82 d0 2e 3d
       0.12649524 -0.02145465 0.1281399 0.042679317
000150 76 54 e1 bd cc 7b 3d be 36 d4 04 bd 90 12 af ba
       -0.11002438 -0.18504256 -0.032428943 -0.0013356972
000160 26 0c 0b bd 6f 39 40 3d 2c c2 85 bd 95 30 80 be
       -0.033947133 0.046929773 -0.06531176 -0.25037065
000170 4e 68 f2 3b 91 2b 19 be 44 78 0e bc 5d 71 fc 3d
       0.007397688 -0.14958026 -0.008695666 0.1232631
000180 07 69 b7 bd 08 a5 e4 bd ff db 9a bc 73 c5 25 3e
       -0.08955579 -0.1116429 -0.01890373 0.16188602
000190 65 57 8d bd 97 aa e9 bc 88 93 4e be 28 f0 5b bc
       -0.06901435 -0.028523726 -0.20173466 -0.013423957
0001a0 79 98 34 3c 34 f7 eb bc ae 91 b9 3d 26 71 8f bd
       0.01102268 -0.0288044 0.09060989 -0.07004003
0001b0 9d 1d 0f be 0f 3f 07 be 8a 2b 1b 3e 0a 32 8f bd
       -0.1397614 -0.13207649 0.15153328 -0.06991966
0001c0 ed 3e 87 bd 06 ff 62 bd 09 2a c1 bd 1b da fa 3d
       -0.06603799 -0.05541899 -0.09431846 0.122486316
0001d0 de 89 47 bc 30 db d1 3d 3e 4e f8 bb e0 08 2d bd
       -0.012178866 0.10246885 -0.0075776866 -0.042244792
0001e0 a8 02 87 bd 71 09 55 3d dd 3b af 3c 56 a5 16 3e
       -0.065923035 0.052010957 0.02139085 0.14711508
0001f0 5e 0d 30 3d c3 a8 23 be 10 f8 d9 bc a0 a1 31 bd
       0.042981498 -0.15982346 -0.026607543 -0.04336703

network_body.linear_encoder.seq_layers.0.weight f4 [128, 19]
000000 4d 3c ea 3d d5 1d b0 3e aa 60 38 be c1 4b e1 3c
       0.11437283 0.3439776 -0.18005624 0.027501943
000010 27 5f d1 3e b0 bb e4 3e 75 28 2e 3c e3 b1 ba bd
       0.40892908 0.44674444 0.010629763 -0.091159604
000020 a9 e7 b6 be 15 2f 52 3e 62 92 0c be 29 84 b6 bd
       -0.35723618 0.20525773 -0.13727716 -0.08911926
000030 9f 74 f2 bd 14 2e 80 be 52 27 ec 3d 4b be c3 be
       -0.1183865 -0.25035155 0.11530937 -0.3823112
000040 f6 f1 ac be 0b 44 7f be d2 c8 66 be 6a 7d ff bd
       -0.33778352 -0.249283 -0.22537544 -0.12475093
000050 42 ca b6 3e 33 78 06 3c 53 e6 ec 3e ae f1 aa be
       0.35701185 0.008207369 0.46269473 -0.33387512
000060 27 14 11 be 14 63 f3 3d 50 3c 36 be a0 3b 3c 3f
       -0.14167844 0.11884132 -0.17796445 0.7352848
000070 9f 53 dd bd 4c 85 82 be 3b 11 90 be b2 28 66 3e
       -0.10806965 -0.25492322 -0.28138146 0.22476462
000080 2a 9d 79 3e 64 f5 ec bd 0e b7 b0 bc 91 26 22 3e
       0.2437636 -0.11570242 -0.021571662 0.15835024
000090 84 48 85 be 95 d7 5d be 47 b7 24 bd 10 7c 95 bf
       -0.26031888 -0.2166427 -0.04021385 -1.1678486
0000a0 b6 ab 5f bd ff 6b bb 3e 86 24 9a be af c9 14 be
       -0.054607116 0.36605832 -0.3010599 -0.14530061
0000b0 8b e0 4c 3d fb 63 46 be 25 d6 2a bf e3 eb 94 3d
       0.05001883 -0.19374077 -0.6673301 0.07271554
0000c0 e7 4b 1f be 4e 95 03 3d b3 12 8d bd 04 c7 09 3e
       -0.15556298 0.03212481 -0.06888332 0.13454825
0000d0 9d 9c b5 be 7a 75 1a 3e d0 21 94 be b3 5f 3c be
       -0.3547105 0.15083876 -0.28932047 -0.18395881
0000e0 04 5a 13 be 4f f0 64 3e b8 3a 32 3f 3e 7f 8b 3d
       -0.14389807 0.22357295 0.6962085 0.06811379
0000f0 1f f4 f4 be c4 90 58 bd 45 5b bb bd 9b 81 70 3e
       -0.478425 -0.052872434 -0.09148268 0.2348694
000100 05 bb 90 be 8d 48 35 3e 06 f9 10 3d b4 6b 86 be
       -0.28267685 0.17703457 0.035393737 -0.26254046
000110 74 f7 16 3e 23 fe 46 3c f8 8f a1 bd d5 26 aa 3e
       0.14742833 0.012145552 -0.07888788 0.3323275
000120 e7 81 13 be 48 57 84 be 01 83 51 3f 8e 95 92 3e
       -0.14405023 -0.2584784 0.8184052 0.28629726
000130 37 12 a6 3e 9f e7 3f be d2 b9 cf bd 4f ee 3c 3e
       0.32435772 -0.187407 -0.10142864 0.18450283
000140 bd ce 85 3e cb 46 56 3e e6 0d a3 3e bc cd 7e bd
       0.2613429 0.20925443 0.3184654 -0.062207922
000150 b9 b3 07 3f ca a3 d2 be a9 de ca 3e d4 e2 99 3c
       0.5300861 -0.41140586 0.39623 0.018784918
000160 0c 8d 37 bd ea 74 cd bd 6f d9 ad 3b 53 25 b4 3e
       -0.044812247 -0.10032065 0.005305461 0.35184726
000170 73 d9 22 3e ad 59 1a bf 58 d7 c7 3e 04 cc 12 bf
       0.15903263 -0.60293084 0.39031482 -0.57342553
000180 95 01 e4 3c 76 ed a4 3e 59 6b 53 3d bd dc 88 3e
       0.027832786 0.32212418 0.051616047 0.2673091
000190 ea 77 99 bf 35 b9 02 3d f0 2a 43 3f a1 5d 88 3e
       -1.198972 0.03191491 0.7623739 0.26633933
0001a0 c4 9b 06 be 84 f4 1f 3f 80 20 08 bd 61 12 53 be
       -0.13145357 0.62482476 -0.03323412 -0.2061248
0001b0 9d 8b 7d 3e b5 f8 30 be ef 59 60 bd af 0d d2 3e
       0.2476029 -0.17282374 -0.054773267 0.41026065
0001c0 e2 3b 05 3e 5d 71 f6 be 84 41 af 3e d3 2f 6c be
       0.13011125 -0.48133364 0.34229672 -0.23065118
0001d0 d2 ba ab be da 7f 2c be bb 0c 8a be 33 14 86 be
       -0.3354097 -0.16845647 -0.26962838 -0.26187286
0001e0 47 71 d7 3d bf b4 91 3b 6e b4 98 3e a5 a6 b2 be
       0.10519653 0.0044465954 0.29825157 -0.34892765
0001f0 62 6a 40 3f f6 86 10 be 93 15 4d 3e 20 a7 6e be
       0.7516233 -0.14113984 0.20027761 -0.2330594
000200 72 ec 04 3e 94 07 04 3d dc ff ee 3e 90 3e d7 be
       0.12980822 0.03223379 0.4667958 -0.4203992
000210 9e cb ea 3d 7e 4b d5 3e 1b cc 4a 3d a6 20 cd 3d
       0.11464618 0.41659158 0.049511056 0.10015993
000220 9e 37 e8 3e 73 00 0d 3f 5d 63 1f be 9b 60 7a b9
       0.45354933 0.5507881 -0.15565248 -0.00023877846
000230 79 02 c3 3d c2 f7 5a bf 98 c0 bc be 19 c6 63 3f
       0.09521956 -0.855343 -0.36865687 0.8897415
000240 bf 93 e6 be 54 29 ba 3d bb 50 ca 3d 0a c6 e9 3e
       -0.45034596 0.09089914 0.09878679 0.45658904
000250 de 49 81 3d d9 17 e2 3e e7 41 2a bf 22 e9 b9 3e
       0.06312917 0.4415882 -0.6650681 0.3631068
000260 de c2 22 3c 66 d2 87 3e 60 f4 6b bf 66 6a 8e 3d
       0.009934155 0.2652771 -0.9216976 0.06953888
000270 dc 89 13 bf 23 11 d7 be a9 2f 63 3d 78 a4 6a 3e
       -0.5763223 -0.42005262 0.055465374 0.22914302
000280 d8 96 d6 3e 9e 82 a0 3d f4 da 0c be 56 7c 97 be
       0.4191196 0.07837413 -0.13755399 -0.29587048
000290 af c1 e0 3e 50 7f 56 3e 45 b6 07 be 6a 3f a8 3c
       0.4389777 0.20947003 -0.13253124 0.02053805
0002a0 dd fe db be f4 48 71 be cb 54 69 3a 32 95 db bd
       -0.42967883 -0.23562986 0.000890088 -0.10721816
0002b0 29 24 89 3d 8c e6 c0 be 9b 23 6d be 09 e8 24 bf
       0.0669635 -0.37675893 -0.23158114 -0.6441656
0002c0 a9 49 35 3f f4 69 c5 3e e4 cd 26 be 74 3d f2 be
       0.7081552 0.38557398 -0.16289479 -0.4731251
0002d0 d4 28 64 bd df e6 39 be 25 3f 87 bd 95 32 7e 3f
       -0.055703 -0.18154477 -0.06603841 0.9929593
0002e0 55 b1 80 be 51 bb ad 3d 09 b0 f5 be e1 5b 3c 3e
       -0.25135294 0.084829934 -0.47985867 0.18394424
0002f0 21 0f 91 3e c9 10 73 be 3f 3f b2 bd e9 98 fe bd
       0.28331855 -0.23736872 -0.087034695 -0.12431509
000300 aa 65 72 be e2 fa 51 3e 96 ce cc 3e 72 00 64 be
       -0.23671594 0.2050586 0.40001363 -0.22265795
000310 55 20 0d be 39 1f 8a 3e 10 5d b8 3e 24 1f 59 3e
       -0.13781865 0.26976946 0.360085 0.21203285
000320 4b 5c 21 3d a1 45 ab 3e 00 96 35 3e 4a b1 8e 3d
       0.039394658 0.3345156 0.17733002 0.06967409
000330 9d 25 c1 3c 07 ab 33 b9 9c 2b 3a 3f 59 e1 e9 be
       0.023577506 -0.00017134483 0.7272279 -0.4567974
000340 06 ac 80 bd 5b 8b f9 be 25 4f 53 be da fc 04 bf
       -0.06282811 -0.48739132 -0.2063566 -0.5194832
000350 1a 92 fb 3e ff b9 05 3f 5f 5d 0a bf 82 a0 eb be
       0.49134904 0.5223693 -0.54048723 -0.46020895
000360 3e 11 22 3e f3 13 2e be 8e a1 74 3d cd 71 05 bf
       0.1582689 -0.16999798 0.059724383 -0.5212677
000370 20 b7 0b bf 2e ad 92 be b3 20 98 3e 4a 0c f7 bd
       -0.545763 -0.2864775 0.29712448 -0.12062891
000380 14 84 bc be 84 19 b4 3e c8 c5 a5 3e 9e 7d 25 3e
       -0.36819518 0.35175717 0.32377458 0.161612
000390 40 a8 8e 3d 64 ab 83 3d 1c 31 92 3d 66 11 c4 3e
       0.06965685 0.064291745 0.07138273 0.38294524
0003a0 18 9c 53 3d ee 2d 09 bc 4c e4 d6 3e 30 6f 06 3f
       0.051662534 -0.008372767 0.41971052 0.5251341
0003b0 a5 c0 37 bf 44 f4 d3 be 23 e7 17 3f 04 55 fd 3d
       -0.7177833 -0.41397297 0.5933706 0.12369731
0003c0 d0 97 95 bd 4b af 94 3a 1f 2b 92 3d ec e9 d1 3b
       -0.073043466 0.0011343745 0.07137131 0.0064060595
0003d0 c8 21 c7 bd 05 a4 20 3c 5b 88 2d 3d da 5b a9 3e
       -0.0972324 0.00980473 0.042366367 0.3307789
0003e0 85 e8 e3 bd 72 ab 97 3d 55 74 5c 3e de 32 1d bf
       -0.11128334 0.074057475 0.21528752 -0.6140574
0003f0 e6 e5 cb bd 54 9b 1e 3c 9c 84 fb 3e 83 23 23 3f
       -0.09955959 0.009680588 0.4912461 0.6372606

network_body.linear_encoder.seq_layers.2.bias f4 [128]
000000 b6 1b 76 3d e2 cd 9b bd 10 82 09 be 9a 82 93 bc
       0.06008502 -0.076076284 -0.13428521 -0.018006612
000010 b5 b6 7d be 61 5f 13 be 9c 88 b8 bc 1e 5b 13 be
       -0.24776728 -0.14391853 -0.022526078 -0.14390227
000020 2d 0d 61 3d 0e 3a 26 bd 98 9e b4 3d 05 85 bb bd
       0.054944206 -0.04058271 0.08819312 -0.09156231
000030 80 4b 3c be 6c fc 93 be 9e 88 a0 bd a8 f8 e6 bd
       -0.18388176 -0.2890352 -0.07838558 -0.11277896
000040 d8 e0 71 bd e7 a6 c8 bd d2 2a 14 be 49 47 01 be
       -0.05905232 -0.09797459 -0.1446946 -0.1262485
000050 76 bb 74 bd 4b 2a 8b 3d de 2f 8f bd f6 7f 59 3d
       -0.05974909 0.06795176 -0.06991552 0.05310055
000060 fb e4 bf bc 76 d9 0c 3c 85 33 d3 bc 18 79 c3 bd
       -0.023424616 0.008596769 -0.025781402 -0.09544581
000070 ec 82 00 3e 25 a8 ec bd 5c 54 fa bd c5 27 51 be
       0.12549943 -0.115555085 -0.122231215 -0.20425327
000080 cf 2f 4e be f9 5c 2f bb 9f 9e c2 bd 57 40 9c bd
       -0.20135425 -0.0026758297 -0.09502911 -0.07629459
000090 ee f6 a8 bd 83 53 26 be 39 a6 28 be 1a 1f a7 bd
       -0.08250223 -0.16242795 -0.16469659 -0.08160229
0000a0 34 d0 41 be 45 8b 44 3c 1f 28 f3 3d 64 33 95 be
       -0.1892708 0.011996095 0.11872887 -0.2914077
0000b0 52 d3 3a be 45 dc 8f 3d 50 96 5e be a4 88 dd bd
       -0.18244675 0.07024435 -0.21737027 -0.10817078
0000c0 47 91 ae 3b c5 ba a6 bc cc d5 f3 3d 0b ed 06 3c
       0.005327377 -0.02035273 0.11906013 0.008235226
0000d0 94 28 f6 bd 98 cf c8 bd 6e 57 49 3d e0 ac a0 3c
       -0.120194584 -0.0980522 0.049155645 0.019613683
0000e0 81 8c 31 be d3 c0 91 bc 33 ff c2 bd d5 dd bd bd
       -0.17338754 -0.017792141 -0.09521332 -0.09270827
0000f0 b1 0e 30 be b1 0a 6f 3c 2d 09 f2 bd e0 ca 21 3c
       -0.17193104 0.014589951 -0.118181564 0.009875029
000100 61 05 53 be 78 ef a0 bd f3 ff 1b bd e7 8e 82 bd
       -0.2060752 -0.07858175 -0.03808589 -0.06374913
000110 79 00 a5 bc 94 61 3d 3c 67 04 5d bc f9 03 9c 3d
       -0.020141827 0.011558909 -0.013489819 0.07617945
000120 67 86 e0 3d 1e 70 c8 bc a8 0f 68 bd c3 26 4b be
       0.10963135 -0.024467524 -0.056655556 -0.19839005
000130 39 ab 69 be 18 fe 1b 3d b8 91 1f be 8e 46 9c 3d
       -0.22819223 0.03808412 -0.15582931 0.07630645
000140 e7 f3 92 bd e5 8b ec 3d f8 20 d4 3d 09 9a 08 be
       -0.07175427 0.1155012 0.10357851 -0.1334001
000150 41 e8 bf 3c 22 86 41 bb a7 05 f8 3d 58 f2 20 bd
       0.023426177 -0.0029529412 0.12110453 -0.039293617
000160 22 6c 80 3d 1a 48 64 be 5a 85 99 3d b2 a3 f1 bd
       0.06270625 -0.2229313 0.07496138 -0.117988005
000170 cf e1 70 be 53 2a 35 3d b1 b1 b5 be b1 16 03 bd
       -0.23523639 0.044229817 -0.3548713 -0.032004062
000180 7e 11 e1 3c 69 8f e3 3d ef 58 d4 bd b5 39 c6 3d
       0.027474161 0.11111338 -0.10368525 0.096789755
000190 ba 03 00 3d 00 b4 37 3d 21 c4 0c 3c 7a 89 44 be
       0.031253554 0.044849396 0.008591683 -0.19193068
0001a0 b3 f2 3a bd 4e da 74 be ce b0 e5 3d 9b ed 17 be
       -0.045641612 -0.23911402 0.112153634 -0.14836733
0001b0 5b ec 7e bd 06 dd 59 bd 81 18 96 be b8 40 99 bc
       -0.062237125 -0.0531893 -0.2931557 -0.018707618
0001c0 b5 7d 72 bd ca 62 5a 3d df b9 93 3c 50 b9 e0 bd
       -0.059201915 0.05331687 0.018032966 -0.109728456
0001d0 4a e4 a4 bd a6 b0 56 bd f4 a2 9b bd 80 47 65 bc
       -0.08051355 -0.05241456 -0.0759944 -0.013994098
0001e0 3e bd 31 3c 54 97 ca 3d 8c 34 0f be bd 86 f5 bd
       0.0108483415 0.09892145 -0.13984889 -0.1198859
0001f0 5d c1 33 be 40 47 b8 3d e3 cc 05 be 78 af 88 3b
       -0.17554231 0.08997965 -0.1306644 0.004171308

network_body.linear_encoder.seq_layers.2.weight f4 [128, 128]
000000 e2 14 c1 3d d5 5f 86 be 87 32 63 be 18 3a 12 bf
       0.09427811 -0.2624499 -0.22187243 -0.57119894
000010 e8 c8 c1 3e ac 96 34 be 3b 7f 00 bf ce 2a 3d bc
       0.37848592 -0.17635602 -0.5019414 -0.01154585
000020 ff df dd bc 1c 94 d0 be fe 9e 39 be 4d bc 62 be
       -0.027084349 -0.40737998 -0.18127057 -0.22142144
000030 3e 46 73 3c ff e0 39 3e a0 2a f2 3e 2d 25 83 3e
       0.01484829 0.18152235 0.47298145 0.256143
000040 24 2f 6d 3e 6b 69 fd be 29 6f 41 bd 7a b1 41 be
       0.23162514 -0.4949449 -0.04722515 -0.18915358
000050 19 97 98 3d 42 71 a9 3c 58 86 03 be af 4f b8 3e
       0.074506946 0.020683888 -0.12844217 0.35998294
000060 3b 86 7e be d3 8a 32 3e e4 09 28 bf 7f 57 75 be
       -0.24855892 0.1743577 -0.6564009 -0.23959158
000070 d5 83 f6 3d 92 af 6d bc ba f5 7c 3d 54 98 dc 3e
       0.12036864 -0.014507191 0.06175778 0.43084967
000080 4a e0 48 3e 0e 88 88 bc 4c 0f c1 bd 48 d2 bf 3e
       0.1961681 -0.016666438 -0.09426746 0.3746512
000090 53 84 5e 3c 7c cd 59 be 3b eb b3 3d 22 89 87 3e
       0.013581353 -0.21269792 0.08785101 0.26471812
0000a0 0a 10 c5 be 01 9f 13 bf 2c 72 1c 3e dd 3a 46 be
       -0.384888 -0.57664496 0.15277928 -0.19358392
0000b0 24 2b 56 be c6 da 05 3e 59 9f d6 be dc 78 80 be
       -0.20914894 0.13071737 -0.41918448 -0.25092208
0000c0 c4 81 b1 bd 3d 05 92 3e 20 6e 4b be f5 f0 d3 bd
       -0.08667329 0.28519621 -0.19866228 -0.10348693
0000d0 84 90 3a 3d f1 5c 46 be 97 14 0f 3e 4b fa 2e 3d
       0.045547977 -0.19371392 0.13972698 0.042719167
0000e0 54 09 81 be 2f d8 3b 3e 1d 62 fe bd 13 89 dd be
       -0.2520243 0.18344186 -0.124210574 -0.43268642
0000f0 43 73 0b be a3 cc 9c be b4 fc 68 3d 06 72 fd be
       -0.13618188 -0.30624875 0.05688162 -0.49501055
000100 de 2c 86 3e f7 c1 42 3e 33 2b 2c be 54 ff 42 3e
       0.26206106 0.19019304 -0.16813354 0.19042712
000110 f7 82 c5 bd 5f fd a8 be f2 45 80 3e 0e be eb be
       -0.0964412 -0.33005807 0.25053364 -0.46043438
000120 79 81 8a bb f9 f8 73 ba 52 ee 78 be 27 6f 5d be
       -0.00422686 -0.0009306814 -0.24309662 -0.21624433
000130 e0 6f f7 bd 26 84 1e 3e 9d 3b cf be 23 69 87 3e
       -0.12081885 0.15480098 -0.4047517 0.264474
000140 b9 e3 2c be 6c 91 fd 3c f1 f8 28 bf 0c 87 71 be
       -0.16883744 0.030953132 -0.66004854 -0.23586673
000150 e0 03 7e bd 2d 5c 09 be b6 17 90 3c ac 1b 88 be
       -0.062015414 -0.13414069 0.017589431 -0.26583612
000160 ec 8f 23 bf 84 b9 1e 3e 4a 96 b8 3d 91 8f 11 be
       -0.6389148 0.15500456 0.0901304 -0.14214922
000170 22 0b c5 be b9 2f ad bc fb b9 96 bd b9 7c b7 3d
       -0.38485056 -0.02114092 -0.07359692 0.08959336
000180 26 19 97 bd 3f 98 9b be 2e bf 0b bd 27 da 3c bd
       -0.073778436 -0.30389592 -0.03411787 -0.046106484
000190 a2 d7 30 be 25 52 60 3e 9d 39 5d be c7 da 09 bd
       -0.17269757 0.21906336 -0.21604009 -0.033655908
0001a0 d8 a0 d4 bd 03 af 29 3e ba 99 90 be 8e 69 8f be
       -0.10382241 0.16570668 -0.28242284 -0.2801022
0001b0 a0 dc 5a be 15 fc 1f be e4 79 72 3d 96 c8 8f be
       -0.21373224 -0.15623505 0.059198275 -0.28082722
0001c0 fa be 87 bd 66 86 c1 3e 2e 1c 71 3d 11 84 7f 3e
       -0.06628223 0.3779785 0.058864765 0.24952723
0001d0 a1 2c 0d 3e a8 9b 0a 3e cb 73 88 be 8a 6e d9 3b
       0.13786556 0.1353594 -0.26650843 0.0066354917
0001e0 f8 34 0d be 0c e0 20 bd 7f 2b 0a 3e af 1a a2 be
       -0.13789737 -0.039276168 0.13493155 -0.31660983
0001f0 da e7 96 3e c3 55 e8 3d 94 2b 37 3d 49 88 d8 3d
       0.29473764 0.11344483 0.044719294 0.10572869
000200 d7 90 21 3d a9 14 0c 3d 34 aa 66 bd 22 97 31 be
       0.03944477 0.03419939 -0.056314662 -0.17342809
000210 09 50 4f be 4e e0 88 be 6e 2e e2 3d d7 a7 a2 3d
       -0.20245375 -0.2673363 0.11044012 0.07942169
000220 ea f5 81 3c ce ba 92 3e bb 07 6f 3e 83 a1 4d be
       0.015864331 0.28658146 0.23342793 -0.20081143
000230 c5 60 98 bd 74 15 c1 bd fe c6 7e be 64 b5 88 bb
       -0.07440332 -0.0942792 -0.24880597 -0.004172014
000240 4b 5a 06 bf 2b 74 95 be c9 7f 78 3d 85 b1 b3 bd
       -0.52481526 -0.29190192 0.06066874 -0.087740935
000250 c5 e3 51 3d 8c b3 f9 bd a5 8f 0a 3e 33 34 0f bf
       0.05124261 -0.12192449 0.13531359 -0.55939025
000260 f5 cd 52 3e ae 7d 92 bc 95 4e a5 3e 54 07 38 be
       0.20586379 -0.017882194 0.32286516 -0.17971545
000270 97 12 53 be 5d 4f 9e be 62 ab 2a be ff 82 7e be
       -0.2061256 -0.30919924 -0.1666694 -0.24854659
000280 d7 ac a7 bd a6 44 ba be 6a 5b 79 3d ba 76 dd be
       -0.081872635 -0.363805 0.060878195 -0.43254644
000290 8d 7a 57 bd 79 9a 4b 3d a4 41 99 3d 0b 9f 13 3e
       -0.052607108 0.049707863 0.07483223 0.14416139
0002a0 a7 5e 0f 3e 75 a7 84 be 20 d3 5b bb 1e 93 b5 be
       0.14000951 -0.2590901 -0.0033542588 -0.35463804
0002b0 26 2b b7 bd 90 80 ff be fe 2c 63 3d e9 3e 52 be
       -0.08943777 -0.49902773 0.05546283 -0.20531811
0002c0 a6 a0 cd 3d 66 9a ee 3d c8 b4 18 3d a8 ac 8e bc
       0.10040407 0.11650543 0.03728178 -0.017416313
0002d0 f5 d5 60 bd 7b 7a 13 be 3f f1 ca 3d 09 f7 b6 3c
       -0.054891545 -0.14402191 0.09909295 0.022334592
0002e0 da c2 0d be 86 fa 39 bd 54 3a 85 be 76 aa 7f bd
       -0.13843861 -0.045404933 -0.26021063 -0.062418424
0002f0 11 17 7a bd fc 44 09 3e 27 77 d5 be 8c 75 9e 3d
       -0.061057154 0.13405222 -0.4169247 0.07737264
000300 89 6c 2f be 80 8c 3b bd f8 0b 83 be fc d9 80 3e
       -0.17131247 -0.045788288 -0.2559507 0.2516631
000310 16 3a 64 be fb ab 35 3e e5 1a 2a 3d 0c d3 7c bd
       -0.22287783 0.17741387 0.041529555 -0.061724707
000320 ee 20 64 bc 09 8e 7f be eb fa d9 bd 69 ec 2c 3e
       -0.013923867 -0.24956526 -0.10643562 0.16887058
000330 b2 37 c6 bd 8e 0e f9 3d 83 37 20 bd c2 a4 58 3e
       -0.09678592 0.12160979 -0.03911544 0.211566
000340 b6 7b f6 be 2d 9d 1c be ce 65 ae 3e da 5a 16 3c
       -0.4814126 -0.15294333 0.34062046 0.009176934
000350 95 7d 6f 3d f5 b7 b9 bc f3 83 9c bb c7 21 3c bd
       0.058469374 -0.022670725 -0.0047764718 -0.04593065
000360 72 58 96 be 85 b7 ed bd 3c a9 e4 bd 8e c5 2c be
       -0.29364353 -0.11607269 -0.111650914 -0.16872236
000370 a6 c6 76 be d8 b0 9f be ff ed d5 3c 8a 7a 43 3e
       -0.24099216 -0.3118961 0.026114462 0.19089714
000380 b9 d4 08 bf 80 e3 99 bc 6c e7 22 3e e8 8d c3 3e
       -0.5344959 -0.018785238 0.15908593 0.38194203
000390 61 73 b8 be 53 df e0 3d 9a 1b 17 3e d8 24 85 3e
       -0.36025527 0.10980096 0.14756623 0.26004672
0003a0 a6 9e 65 be 1b 28 33 3e ba 2b f0 be 62 4b d2 bd
       -0.22423801 0.17495768 -0.4690836 -0.102682844
0003b0 d8 64 9c bd 14 3f 87 bd 67 2d 12 bf 08 b5 b3 bd
       -0.07636422 -0.06603828 -0.5710053 -0.08774763
0003c0 f5 b4 5a be f3 5d 8a be 46 e7 17 3e 56 ef 30 bf
       -0.21358092 -0.27024803 0.14834318 -0.691152
0003d0 1d 97 73 3e 85 e3 87 3e 82 12 5f bd 37 d1 f7 bc
       0.23788114 0.2654077 -0.05446101 -0.030251129
0003e0 ad 0d 93 3e 58 ce 96 3c 73 fe ef bd 6a b2 a2 3c
       0.2872137 0.01840894 -0.11718454 0.019860465
0003f0 f7 b3 9a be 28 3f 56 3e 8d 90 39 3e 2d 06 c7 3d
       -0.30215427 0.2092253 0.18121548 0.09717975

network_body.vector_processors.0.normalizer.running_mean f4 [19]
000000 c4 db a7 3e ec c8 3c 41 de 01 94 bd 3e 85 27 bf
       0.32784855 11.799053 -0.07226919 -0.65437686
000010 35 b4 cf 3c e8 d6 6f 3d d5 c0 25 3f 90 cb 31 bf
       0.025354484 0.05855456 0.64747363 -0.69451237
000020 ad 6b e1 bd 45 92 b4 3e 90 25 6e 3c 76 8d 0b be
       -0.11006866 0.35267845 0.014535323 -0.13628182
000030 0b 4d 97 3d 73 6b 80 3e 1f e1 54 41 c3 db 28 bd
       0.07387742 0.25081977 13.304961 -0.041225206
000040 87 2b 34 bf 0f 98 49 be 2f 8d b8 3e
       -0.7037892 -0.19686912 0.36045215
