Assets/ML-Agents/Experiments/MaxSpeedPlusConstantRoll/MaxSpeedModel.onnx (onnx, 23839 bytes, 9 tensors)

62 f4 [13]
000000 86 f0 db 41 69 17 bf 40 90 d0 d1 41 0b 34 fe 3e
       27.492443 5.9716077 26.226837 0.4964908
000010 04 1e 04 3f 7b 1f ff 3e 6e f5 f6 3e 0d 3e 92 41
       0.516083 0.49828705 0.48234123 18.280298
000020 66 86 8b 40 d2 b7 8b 41 1e 98 7b 40 6d c2 d1 3f
       4.360156 17.464756 3.9311595 1.6387459
000030 79 83 81 40
       4.047299

action_model._continuous_distribution.log_sigma f4 [1, 4]
000000 76 2f 9b bf 7c 75 8e bf ce af 6d bf 6b cb b1 bf
       -1.2123859 -1.1129603 -0.9284638 -1.3890203

action_model._continuous_distribution.mu.bias f4 [4]
000000 60 03 07 3e 97 7f 63 bd fe 77 64 bd e4 72 16 bc
       0.13184881 -0.0555416 -0.055778496 -0.0091826655

action_model._continuous_distribution.mu.weight f4 [4, 64]
000000 35 26 06 be 10 f4 9e 3d 09 41 7e bd ee 71 1f 3e
       -0.13100512 0.07761395 -0.06207374 0.15570804
000010 b0 9a a4 3c 4f d2 09 3e 29 2b ee 3d 24 19 dc bd
       0.020093292 0.13459133 0.11629326 -0.10746983
000020 86 28 3d 3d df 64 ba bc 08 ed 7c bc d5 16 dc 3c
       0.046181224 -0.022753177 -0.015437372 0.026866356
000030 ca 99 e4 3d b7 47 8b bd e7 d5 48 3d 1a 50 a2 3e
       0.111621454 -0.06800788 0.04903212 0.31701738
000040 30 78 b5 3d c7 84 88 be 76 d5 37 3e 88 d1 1c bd
       0.088608146 -0.266638 0.17952523 -0.038285762
000050 0c 8c ba be 15 15 00 3e 7f 1b cc 3c 33 47 0c 3d
       -0.36434972 0.12508042 0.024915455 0.03424759
000060 e3 c8 a5 be b4 30 84 3c 76 31 1a 3e 47 72 ba 3d
       -0.32379827 0.016136505 0.1505793 0.09103828
000070 6b b5 9e 3e cd dc 3e 3e 55 8f 0a 3e a1 b5 3f 3e
       0.30997786 0.18638916 0.1353124 0.1872163
000080 ff 02 ab be 77 03 e7 3d e2 c5 ed 3d de 34 9f 3c
       -0.33400723 0.11279958 0.11610009 0.019434389
000090 6f 54 8f be 81 cf 1c bf a6 9d 88 be c7 57 42 3e
       -0.27994105 -0.61254126 -0.26682776 0.18978797
0000a0 a6 b9 c9 be d6 f6 a3 bd 60 95 c8 bd 24 76 14 3b
       -0.3939945 -0.080060646 -0.09794116 0.0022653425
0000b0 6a 88 67 3c 92 4a ca 3d 86 b6 73 be 79 d1 43 be
       0.014131645 0.098775044 -0.23800096 -0.19122876
0000c0 42 ed fc be b8 36 ce 3c 6b 19 21 3e 7e ff dc 3d
       -0.49399763 0.025172576 0.15732352 0.10790919
0000d0 96 58 96 bc 5e 33 8b 3e d7 fd 5d be b2 22 95 3d
       -0.018352788 0.27187628 -0.21678863 0.07282008
0000e0 7d e3 83 be 9d 05 42 3e ba 43 6f be ec ba fa be
       -0.25759497 0.18947454 -0.2336568 -0.48970735
0000f0 ea e4 5b 3d 8b 25 b8 be eb 9a 17 be c4 0b 13 bd
       0.053685106 -0.35966143 -0.1480519 -0.035899892
000100 bb 91 be 3e 70 30 2a be 1f ec 6e 3e 78 95 4b 3e
       0.3722056 -0.1662004 0.2333226 0.19881237
000110 b0 f0 44 3e 38 21 b8 bd c9 6b 34 bd ea 09 9d 3e
       0.1923244 -0.08990711 -0.044048104 0.30671626
000120 5d 80 9d 3e 30 cd 1f 3d c1 92 06 bd 34 6b 86 bd
       0.30761996 0.03901404 -0.0328548 -0.06563416
000130 d9 62 a6 bd ca be 66 3e a4 28 f5 3c 6a a7 93 3d
       -0.081243224 0.22533718 0.029926606 0.07209666
000140 90 fa cf bc 9c a1 02 3e c0 54 c9 3d 59 36 b0 bd
       -0.025388032 0.12756962 0.09830618 -0.08604116
000150 ce 3b 8c 3e b0 f7 d2 bd 39 22 18 bc d9 d5 b4 3d
       0.27389377 -0.10301149 -0.009285503 0.08829851
000160 8e 17 e4 3e 51 25 81 3d bc 81 c3 bc a0 57 01 bd
       0.4454922 0.06305946 -0.023865573 -0.031577706
000170 e7 67 bf 3c 7c 4f 2e be 39 b4 bb bd bc 2d fb bd
       0.023364974 -0.17022508 -0.09165234 -0.122645825
000180 40 39 c2 bb 8f 6f ee 3d d1 9e 43 3e 71 c8 96 3e
       -0.005927235 0.11642372 0.19103552 0.294498
000190 a1 30 a5 bd ab 06 f0 3d 5c e3 51 3d 04 79 de 3d
       -0.08065916 0.11720022 0.051242217 0.10862926
0001a0 25 02 96 3e e5 0f 1b 3e fc ea e6 bd 33 94 81 bd
       0.2929851 0.15142782 -0.112752885 -0.06327095
0001b0 eb 23 d4 3d d5 0b 92 bc bf d9 4a 3e 67 8e fe 3d
       0.10358413 -0.017827908 0.19809626 0.12429505
0001c0 5d 36 2c bd 5d c4 b5 bd 95 cb d6 bd 00 65 8f bd
       -0.042044032 -0.08875344 -0.10488049 -0.07001686
0001d0 2c f5 07 be 59 60 77 bd 0c 11 c9 be d6 c8 b8 3c
       -0.1327712 -0.06039462 -0.39270818 0.022556704
0001e0 ae cf 0b 3e 58 25 3e be a6 a6 7d bd 21 8d a0 3e
       0.13653442 -0.18568933 -0.061926506 0.31357673
0001f0 ec d9 0d be a2 e4 53 3e 77 3e 51 3c 3f c0 b3 3c
       -0.13852662 0.20692685 0.01277124 0.021942256
000200 25 1b 99 bd ed 7f 00 3c e4 e3 b6 3c 96 20 b5 3d
       -0.074758805 0.007843 0.022325464 0.08844106
000210 f9 9f e3 bc 25 3e 4d bc c8 1b ec bc 8d 07 df bd
       -0.027786242 -0.012527023 -0.02882184 -0.10890112
000220 b1 ef 90 3d 9e a1 5f bc 4e df 32 bd bd 0b 37 bd
       0.070769675 -0.013649372 -0.04366999 -0.04468893
000230 f2 70 2d bd 9f 8b 0b bd 51 a9 0a bd f2 69 bf bc
       -0.04234404 -0.0340687 -0.03385288 -0.023365948
000240 56 74 fb bc 8e 3a 5f bd 22 7f b9 3c 78 f9 e2 3d
       -0.030695122 -0.0544992 0.02264363 0.11082739
000250 1f e1 bd 3d 16 cb 22 bd 52 51 67 bd 7c eb a4 bd
       0.09271454 -0.03974446 -0.056474037 -0.080527276
000260 df 13 90 3d 7a 7d b0 bd 40 5c ce 3c 35 54 06 bb
       0.0703504 -0.08617683 0.025190473 -0.0020496969
000270 5e 1e d5 3b 2a bb ed bc be b5 f9 3c b3 6c 7a 3a
       0.006503864 -0.02901991 0.03048217 0.00095529406
000280 1c fe 11 bd 92 97 0e bd 88 40 36 3c 3f 64 b0 bd
       -0.03564273 -0.034812517 0.011123784 -0.086128704
000290 e9 32 4a 3d 17 8d 88 3d a6 3e 10 bd 57 88 a2 bd
       0.049364958 0.06667536 -0.035215996 -0.07936161
0002a0 94 aa da bc 22 ad 8c bc d9 fe 5c bd d8 c9 70 bb
       -0.026692666 -0.0171724 -0.05395398 -0.0036741402
0002b0 e2 65 4c bd 5f b0 d3 bc 49 1e a0 bc 12 f2 b3 3c
       -0.04990185 -0.025840936 -0.019545691 0.021966014
0002c0 71 5b 2d 3d 25 6e 99 bd c7 38 3b 3d b4 76 99 bc
       0.042323533 -0.074917115 0.045708444 -0.01873336
0002d0 58 dc 45 bd 8b df d6 3c 1e 43 9e 3c 35 c4 c1 bc
       -0.04830584 0.02622964 0.019319113 -0.02365313
0002e0 de bb 43 bd 15 2f bb 3d f9 6c ce 3d cb 22 0a 3d
       -0.047786586 0.091398396 0.10079379 0.033724587
0002f0 0b 34 63 3d 09 cd 09 3e c4 55 5b bc b4 c2 2a bd
       0.055469554 0.13457121 -0.013387147 -0.04168959
000300 64 80 db 3d a5 fe 2a bb 8d 7e 79 bd bf 40 36 bd
       0.10717848 -0.0026091721 -0.060911704 -0.04449534
000310 9a 80 12 bd a0 7a 1b 3e c0 c2 2e 3e 2d 2c 07 bd
       -0.035767175 0.15183496 0.17066479 -0.033001114
000320 69 a1 12 bd 25 0e b5 bd 74 22 0d 3d 47 19 86 3d
       -0.035798464 -0.088405885 0.034456685 0.0654779
000330 c1 11 c3 3c 0f 3a 97 bd de 94 33 be ec 75 f5 bc
       0.023812177 -0.07384121 -0.17537257 -0.029963456
000340 dd fb 9f bd 52 7f 0d 3e 7d 1e 2e bd 19 cd 79 3e
       -0.07811711 0.138181 -0.042509545 0.24394645
000350 fb 27 20 3c 4e 38 cb 3d 5a 34 9e bd 08 a1 44 3e
       0.009775157 0.09922849 -0.07724829 0.19202054
000360 df 1d 81 bb ee fb 38 3e 9d 61 83 3e 8f 75 19 be
       -0.0039403285 0.18064854 0.2566041 -0.14986251
000370 da 3e de bc d6 ca be bd f9 aa be 3d cd da aa bc
       -0.02712958 -0.09316032 0.09309954 -0.020856285
000380 80 1d 00 bd 70 81 51 3b 48 54 7f bd b6 38 df bc
       -0.031278133 0.003196802 -0.062336236 -0.027248722
000390 fe e0 62 3e 8e db 5f 3d 31 e8 e9 3d 22 40 94 bd
       0.2215614 0.054652743 0.1142124 -0.07238795
0003a0 a2 f1 b1 3d 40 4a 5f bc cc ed 94 3d 55 3e de bd
       0.08688666 -0.013628542 0.07271919 -0.10851733
0003b0 2b 73 39 3e 4f 35 6f 3e 84 e9 82 3d b4 0e 31 bd
       0.1811034 0.2336018 0.06392196 -0.043226913
0003c0 2a d3 8e 3d 65 00 11 3e 54 78 92 bd 59 54 59 bd
       0.0697387 0.14160307 -0.07151857 -0.053058956
0003d0 ff dd dc bd b0 9d 0c be a1 60 fb bc 24 82 ed b8
       -0.1078453 -0.13732028 -0.030685725 -0.00011325281
0003e0 b8 ce 20 be 27 b1 32 bd 93 a1 a7 3d 8d 3e 28 3e
       -0.15703857 -0.043625977 0.08185115 0.16430111
0003f0 07 ee 6f bd bc 44 af 3d 1a cc b7 3e 75 10 40 be
       -0.05857661 0.08558032 0.35897905 -0.18756278

network_body.linear_encoder.seq_layers.0.bias f4 [64]
000000 48 38 04 3e 05 e4 00 3d 1e 48 17 3e 5e 58 1b 3b
       0.12912095 0.031467456 0.14773604 0.0023703794
000010 6d 03 40 3d 35 a3 7f 3e 42 e5 9d bc e9 49 95 bd
       0.046878267 0.24964602 -0.019274358 -0.07289488
000020 57 cf 59 3c 1f 94 9a 3d 43 1e dc 3d 5c 4d 95 3d
       0.013294063 0.07547783 0.107479595 0.07290146
000030 9c 2b 60 3d 94 ba 31 3e f4 0e b5 3e 8e ff e3 3d
       0.05472909 0.1735633 0.3536297 0.111327276
000040 6a df 66 3e ba c7 0d bd 6c 98 a2 bc 00 87 8d bc
       0.22546163 -0.034614302 -0.019848071 -0.017276287
000050 c7 47 e6 bc 10 2e 0c 3d 02 20 ca 3d 1e 79 d2 bd
       -0.028110398 0.034223616 0.09869386 -0.102770075
000060 1b 59 b5 3b 32 dd 55 3e 3d 06 74 3b f3 57 0d 3d
       0.005534304 0.2088516 0.0037235164 0.034507703
000070 f8 a4 68 3d 2a aa c0 bd 26 0b 7a 3e dc 38 6d 3e
       0.05679795 -0.09407456 0.24418315 0.23166221
000080 1d 4a 68 3e e4 53 5c bd 66 38 09 3e bb a5 0b 3e
       0.22684522 -0.05379094 0.1340042 0.1363744
000090 59 33 d2 3d 61 42 3e bd 6f 9e c2 3c 42 a0 c9 3d
       0.102637 -0.046450023 0.023757188 0.0984502
0000a0 4c b2 f2 3d 57 a5 65 bd a7 2e 68 37 7a 1f c1 3d
       0.11850414 -0.056065883 1.383914e-05 0.09429832
0000b0 f7 3b 90 3d 5a 30 49 3e 9c 9d 11 3e 0c 94 e5 3d
       0.070426874 0.19647351 0.1422028 0.11209878
0000c0 d3 8e 16 3e 3f 10 1f 3e 44 f8 91 3e 4c 93 ae bd
       0.1470292 0.15533541 0.28509724 -0.085241884
0000d0 2f df 0e 3e 9f 6a 7c 3e 03 63 25 3e 80 d0 03 3e
       0.13952325 0.24650048 0.16151051 0.12872505
0000e0 48 82 e6 3d 43 57 0d 3e 12 d5 c1 3d 45 c9 b3 3d
       0.11255318 0.13802819 0.09464468 0.087786235
0000f0 10 9b d5 3d 43 af f4 3d 87 61 1b bc e1 58 57 bc
       0.104299664 0.11947491 -0.009483702 -0.013143749

network_body.linear_encoder.seq_layers.0.weight f4 [64, 13]
000000 fd dc 46 bf 4c c0 3f bd d7 72 67 be 0e 2d ae 3e
       -0.7768095 -0.046814248 -0.22602402 0.3401875
000010 e8 df 2f 3f 50 7f 60 3f ce 0b 07 bf 6c 6f 95 be
       0.6870103 0.87694263 -0.5275239 -0.2918657
000020 38 36 3c bc 50 69 d6 3d 56 0d 3b bd 3c bc 38 3d
       -0.011487536 0.104693055 -0.045667015 0.04510139
000030 ec 74 a3 3d 4a 99 e5 3c 5d a4 2c 3e 07 b8 eb bd
       0.079812855 0.028027195 0.16859575 -0.1150971
000040 c1 ec 3d bf e6 bf e8 be bd 11 c1 3c cc ad db bc
       -0.7418938 -0.45458907 0.023568029 -0.026816271
000050 4c 2a 27 3f fd bd 07 bf c2 e3 4e bd 2e f7 ff 3d
       0.65298915 -0.53024274 -0.050510176 0.12498318
000060 88 d7 2e be c2 ab f8 3c 07 2b b9 bd 3f ae 41 bf
       -0.17074406 0.030355338 -0.0904141 -0.75656503
000070 e0 a6 5d bd e8 c2 52 3e 7b a4 42 3f 7c eb e5 3e
       -0.054114223 0.20582163 0.7603223 0.44906223
000080 2c 76 f4 bd 40 86 2e 3e eb 3c ed bd d1 d4 c6 3d
       -0.11936602 0.170434 -0.11583885 0.0970856
000090 ff 89 a8 be d0 d5 30 3e d5 4e a8 be 61 7b e8 be
       -0.32917783 0.17269063 -0.32872644 -0.4540663
0000a0 7b 8a d1 be 7f 33 c4 3e 34 bb 54 3e 5b 7d 01 3e
       -0.40925965 0.38320538 0.20774537 0.12645476
0000b0 aa 01 e6 3d 5b 59 7c be da 11 60 be 79 ca fd 3e
       0.11230786 -0.24643461 -0.2188181 0.49568537
0000c0 aa 42 22 3d f8 9e b5 be 13 71 4d be 0a 8e 9f 3e
       0.039614357 -0.35472846 -0.20062666 0.31163055
0000d0 92 e1 2f 3c da 19 a7 3d 19 32 3f be db 86 dc 3d
       0.0107349325 0.08159228 -0.18671454 0.10767909
0000e0 31 e7 10 3f b1 79 e4 3d 39 e8 16 3e 09 f8 c9 3d
       0.5660277 0.11156023 0.14737023 0.09861762
0000f0 0a 4b 70 bd 7e 01 06 3e f0 b6 f5 bc 61 72 96 be
       -0.058665313 0.13086507 -0.029994458 -0.2938414
000100 74 fa b5 bc ea 68 4a be ec dd ac 3e 79 41 3f 3e
       -0.022214152 -0.19766584 0.33763063 0.1867732
000110 cf 61 53 3f 7b ea fd 3e e1 2f 96 3f 7f 2f 04 be
       0.8257112 0.49592957 1.1733361 -0.12908743
000120 49 01 9f be d0 98 30 be 15 8d ef 3d 03 de 69 3e
       -0.31055668 -0.17245793 0.11696831 0.22838597
000130 5e f3 89 3d 2c 8b 11 bc af aa 23 3e 86 ce cd 3e
       0.06735872 -0.008883279 0.1598308 0.40196627
000140 24 5c b7 be 15 86 39 bd a5 82 10 3f 8f 1e f4 3e
       -0.35812485 -0.045293886 0.5644935 0.47679564
000150 a7 d0 40 3c d5 84 db 3e ce bc 69 3e a1 41 01 bd
       0.011768497 0.4287478 0.2282593 -0.03155673
000160 c1 ed d7 3d b0 12 08 3e de a5 8f be c9 00 f7 bd
       0.10543395 0.13288379 -0.28056234 -0.12060697
000170 37 80 9e 3d 79 c3 2d 3e 38 8c b2 bd 66 d2 64 3d
       0.07739299 0.16969098 -0.08718151 0.055864714
000180 c0 78 91 3d 45 19 b4 3e 98 94 40 3f 37 a7 45 3e
       0.07103109 0.3517553 0.75226736 0.19302069
000190 3f 1b 9a 3e 93 7d ae be 8c eb cc be d6 7a 02 3f
       0.30098912 -0.3408018 -0.40023458 0.5096868
0001a0 7b 64 9f 3e a1 d3 bd 3d d4 db 16 be 5c 8c 94 3c
       0.31131348 0.09268881 -0.14732295 0.018133335
0001b0 5c 5c f0 be 60 47 82 bc 3d cf 19 bf 73 72 5c bc
       -0.46945465 -0.015903175 -0.60081846 -0.013455021
0001c0 91 22 ce 3e b4 39 f1 be b3 07 09 3f 39 25 e3 be
       0.40260747 -0.47114336 0.53527373 -0.44364336
0001d0 91 b5 9e 3d a3 37 89 3e a1 d1 b3 3e c1 21 f6 3e
       0.07749475 0.2680026 0.35120872 0.48072627
0001e0 90 23 0d 3f ff d4 0a bf f3 1d c2 be 44 e8 4a be
       0.5513239 -0.54231256 -0.37913474 -0.19815165
0001f0 50 61 9b 3c 83 95 64 3e 56 a7 9f 3e 63 0d 72 3d
       0.0189673 0.22322659 0.31182355 0.059094798
000200 5a 94 9a 3e e4 a3 eb 3d b5 f7 ad 3d 38 5c 23 bc
       0.30191308 0.11505869 0.08494512 -0.009970717
000210 61 81 48 3e c5 7b 97 3d 6f 9c e3 3d 77 e6 d5 be
       0.19580604 0.07396654 0.11113822 -0.41777393
000220 8c cd 4a be 09 27 5b 3e 21 e8 06 bf 63 f9 08 3f
       -0.19804972 0.2140161 -0.5269795 0.53505534
000230 f5 bf 67 be fc 0a 92 be 9a ef 3a 3d f6 0f ce 3d
       -0.2263182 -0.28524005 0.045638658 0.10061638
000240 68 2d ab 3e cc 74 09 bf 79 e4 0a bf da 32 e4 be
       0.3343308 -0.5369384 -0.5425487 -0.44570047
000250 0c e1 c1 be 55 6e 3d 3e 4c a2 d3 be 05 2d 90 bd
       -0.3786701 0.1849912 -0.4133476 -0.07039837
000260 0e 18 67 3e 95 2f ad 3e d0 67 1b 3d cc 73 c3 be
       0.2256777 0.33825365 0.0379408 -0.38174284
000270 10 e8 9a 3e 55 3a 08 bd 14 4d 54 3e 4c 72 85 3e
       0.30255175 -0.033258755 0.20732528 0.26063764
000280 55 8d 58 be 39 10 3f bf ea 4d 9e 3e 6e 6e 29 3f
       -0.21147664 -0.7463413 0.3091882 0.6618413
000290 5a c1 db 3c d1 5c 8b be 4a 21 4d 3e 98 fa d5 be
       0.026825596 -0.2721925 0.2003223 -0.4179275
0002a0 34 62 24 3e 25 f4 fd bd a3 44 5f bd 7f fa 49 be
       0.16053087 -0.124000825 -0.054508816 -0.19724463
0002b0 2e 8c c9 3e 1d dd 17 bf 86 e4 aa be 04 e3 95 be
       0.3936476 -0.5932177 -0.33377475 -0.29274762
0002c0 ba a2 ed be c2 27 a6 3d 09 51 b5 be 3b a1 80 bd
       -0.46413213 0.08113052 -0.35413387 -0.06280752
0002d0 a2 f7 5e 3e 8f 0d 91 bd 2d 96 24 3e 14 ca 21 be
       0.21774152 -0.07082664 0.16072913 -0.15799743
0002e0 14 e0 cb bd 1e 1a 27 3f 7b 66 06 bf b2 28 21 bf
       -0.09954849 0.65274227 -0.5250012 -0.6295272
0002f0 89 cd bc be d1 2b 0c 3e 96 8e 18 3e bf c1 a8 be
       -0.3687556 0.1368859 0.14898142 -0.32960317
000300 02 cb 3e 3c 01 8a 0f 3f e3 85 85 3e 2e 41 69 be
       0.0116450805 0.5606995 0.2607871 -0.2277877
000310 43 71 60 be e3 ea 9d be 0d 3e e8 bc 34 9c f7 be
       -0.21918206 -0.30843267 -0.0283499 -0.4836136
000320 c0 4b a8 3e 0c 44 9e 3e b1 7e 84 3e e9 dc 03 3f
       0.32870293 0.3091129 0.25877908 0.5150896
000330 32 bf 3a be 1d af 2d 3e d6 bd 23 3e 27 7d f5 3e
       -0.18236998 0.16961332 0.15990385 0.47947046
000340 74 67 6a be cc c5 a7 bd 90 45 da 3e 8d 5e d1 be
       -0.22891027 -0.08192024 0.42631197 -0.4089245
000350 fd 18 bb be 5c 36 14 bf 0a 73 ed 3e 91 2b 99 3e
       -0.36542502 -0.57895446 0.4637683 0.2991605
000360 2b 30 44 3e 29 7e 5b 3e 0c 0e 53 be 74 88 6d 3e
       0.19159 0.21434845 -0.20610827 0.23196584
000370 ce 30 93 bd 60 cf 8f bd a3 95 8b 3b d1 3a 06 be
       -0.07187043 -0.070219755 0.0042597814 -0.13108374
000380 eb c5 93 3c be 9f b6 bf da f4 ef 3e 29 a6 0f be
       0.01803871 -1.42675 0.46866494 -0.14028229
000390 e3 27 53 3e 0c 2a 1b 3b 3a 1d ec 3d 34 90 0e bf
       0.20620684 0.0023676185 0.11529012 -0.55688787
0003a0 64 6a 49 be a0 0a ca be 24 15 fe 3e 64 a5 c0 be
       -0.19669491 -0.3946123 0.49625504 -0.37626183
0003b0 c7 d6 37 3f a0 a6 08 bb 2f 1f 66 3e 3f cc 30 3f
       0.718121 -0.002085127 0.22472833 0.69061655
0003c0 eb 57 42 3f ad 1a 64 3e d9 c3 9e be 22 ac 3f be
       0.759154 0.22275801 -0.31008795 -0.18718007
0003d0 8f 25 90 3e 0b a6 b1 be fd 60 f8 3e 01 8b 9c 3e
       0.28153655 -0.34696993 0.48511496 0.30574802
0003e0 3e 42 0a be db ee 89 be 9a c5 37 bf 4a 63 a9 be
       -0.13501832 -0.26940045 -0.7178589 -0.33083564
0003f0 6a 2a bb bd de ff 8d 3e 29 91 43 bf bc 76 ab 3c
       -0.09138949 0.27734274 -0.7639337 0.02093064

network_body.linear_encoder.seq_layers.2.bias f4 [64]
000000 bc cf ab 3d a3 50 f2 3d fb d3 20 bd ab a4 8e bd
       0.083892316 0.118317865 -0.03926466 -0.06965002
000010 fb be 7b bd 77 7d 2a 3e ae c1 2f 3d dc ce 08 bd
       -0.06146143 0.16649424 0.042909317 -0.0334004
000020 08 0f 9b b9 eb 45 5d bc 36 72 a6 bd 97 31 7c 3c
       -0.00029575103 -0.013505439 -0.08127253 0.0153926825
000030 4a 16 ec 3d f2 3c fc 3a d5 bb 11 3d d2 93 7e 3d
       0.11527689 0.0019244237 0.03557952 0.06215269
000040 ae b6 b5 3d db 03 46 bd 25 b7 d0 3c 2a e7 25 3b
       0.08872734 -0.04834352 0.025477955 0.0025314786
000050 f7 17 e0 bd f1 9f 30 3e 56 9f a3 3d 79 11 d3 3d
       -0.10942071 0.17248513 0.07989375 0.10306067
000060 ba 9e 20 bc 24 5c 63 3d a8 74 88 3d 52 28 ed 3c
       -0.009803468 0.055507794 0.066628754 0.02894989
000070 f2 3c 0e 3c 0b d3 28 3e 28 13 5b 3c e4 eb a6 3d
       0.008681523 0.16486757 0.013371266 0.08150461
000080 c8 da 2b bd c8 ff bb 3b 33 3e 91 bd 75 2e 69 bd
       -0.041956693 0.0057372786 -0.07091942 -0.05692907
000090 d2 d2 f2 3c 82 dc f9 3c 48 8b a5 bd 77 da 8e bc
       0.029641543 0.030500654 -0.080832064 -0.017438157
0000a0 e7 15 c5 bd 75 ef ad bc 4c ec fb bc b2 a8 ba bc
       -0.09623318 -0.021232346 -0.030752324 -0.022785518
0000b0 66 f6 ae 3d e2 06 4f 3d 3f 94 8b bc 4e f6 30 bd
       0.085430905 0.050543673 -0.017038463 -0.043203644
0000c0 0f 73 04 bd 43 a6 7e 3d e3 4f 47 3c e1 a1 63 3d
       -0.03233629 0.06217028 0.012165043 0.0555743
0000d0 01 5c 78 3d 69 f6 27 bd f2 30 77 3d a7 ab 73 3d
       0.060634617 -0.04100648 0.060349412 0.059489872
0000e0 8c c7 98 bd 9f a9 e2 3b 33 07 f6 3b 41 a0 a5 3d
       -0.074599355 0.006917193 0.0075081824 0.08087207
0000f0 0c 92 0e 3c a7 2d 7f bd 87 c6 47 3d 7b d9 6d 3d
       0.0087018125 -0.062299397 0.048773315 0.058068734

network_body.linear_encoder.seq_layers.2.weight f4 [64, 64]
000000 ea f5 09 bf f2 6e 5c be 31 3d 1c 3c 1a 64 23 be
       -0.5389086 -0.21526697 0.009536074 -0.15956154
000010 f8 30 85 3d 30 5a 1b bf 38 03 0d 3d 5b e2 ed 3c
       0.06503481 -0.6068449 0.034426898 0.029038599
000020 cc ee 96 bd d3 a6 17 3c 6c 7f 83 bb 16 f8 89 bc
       -0.07369766 0.009256083 -0.0040129926 -0.01684193
000030 33 9e 1d be 59 9c e5 3d 96 76 2d 3e fd c6 eb 3d
       -0.1539238 0.112114616 0.16939768 0.115125634
000040 dd ef 17 3e ce ff c7 3a 9d 61 10 3e 3d 79 b9 3d
       0.14837594 0.0015258731 0.14099737 0.090563275
000050 a0 4b ab 3c f5 5a b2 3e 63 98 5b be 78 90 17 be
       0.020910084 0.3483502 -0.2144485 -0.14801204
000060 1c fa 04 3e 95 09 d7 be fb 18 7a 3e f9 01 28 be
       0.12986034 -0.41999498 0.24423592 -0.16407003
000070 e8 1d ea 3c 98 06 ac 3d 04 cd 8d 3e 80 26 5e 3d
       0.028578714 0.08399695 0.27695477 0.054235935
000080 f1 9f 35 3c 3f 74 62 3d c9 a5 6d 3e ac 6a f1 3b
       0.011085496 0.055286642 0.23207773 0.0073674526
000090 67 0e 56 3e 69 f9 95 3c 7e 20 84 3e 5d 8b 4b be
       0.20903932 0.018307405 0.2580604 -0.19877382
0000a0 b4 e8 12 bf cd 83 5c be 48 da 87 be d0 4a cf bd
       -0.57386327 -0.21534653 -0.26533723 -0.10121691
0000b0 8f fa 5f bd 86 e4 0a 3e ac b0 60 3d fb 93 05 3e
       -0.05468231 0.13563737 0.054855987 0.13044731
0000c0 1a af 92 be 89 98 6c 3d af 1c 57 3e 4d 66 32 be
       -0.28649217 0.057762656 0.21007036 -0.17421837
0000d0 2f 1b 6e 3e 1e d4 2a 3e 5c 23 ab 3e 56 16 63 bc
       0.23252557 0.16682479 0.33425415 -0.013860306
0000e0 34 5a 92 be 82 83 89 3c 6d e5 40 3d c8 af d8 bd
       -0.28584445 0.01678634 0.047093797 -0.105804026
0000f0 fe 7a 9a 3d 85 7b bf bd 11 f0 87 be 98 52 c8 bd
       0.0754299 -0.09349731 -0.26550344 -0.097813785
000100 81 8c 2c 3e b7 22 1b 3e f3 08 aa bc b9 03 07 3d
       0.16850473 0.15149961 -0.02075622 0.032962535
000110 46 e4 c1 bd 3f e5 b0 3e f9 c1 38 be 44 66 fb bd
       -0.09467368 0.345499 -0.18042745 -0.12275365
000120 43 d4 26 be 06 2d f4 be a7 ef 0b be 86 19 c9 3d
       -0.16291909 -0.476906 -0.13665639 0.09819321
000130 1a d3 3f be 24 2e 1a 3e 1b 88 9e 3c a3 13 fe 3d
       -0.18732873 0.15056664 0.01935201 0.12406089
000140 4a 10 1b be 5d 38 2b 3d 6f af cc 3c d3 b2 06 3e
       -0.15142933 0.0418018 0.024985997 0.13154154
000150 c5 e3 4c 3e 11 8e 67 bc 89 be f5 bd 89 24 82 be
       0.20008762 -0.014132992 -0.11999232 -0.254185
000160 12 fe a5 3e 13 a5 71 3e 2a be 46 3e 6c ce 00 3c
       0.32420403 0.23598127 0.1940848 0.007861715
000170 56 fe a1 bd f9 36 b0 be 82 f0 12 3c 33 07 19 3e
       -0.07909839 -0.3441694 0.008968474 0.14944153
000180 52 f7 ff 3d 37 f1 1a be fb 46 ad bd b3 36 0e 3d
       0.124983445 -0.15131079 -0.08460804 0.034720134
000190 09 68 a1 3d 30 25 c6 bd 59 fc 1a 3e 1f 38 8f 3e
       0.07881171 -0.09675062 0.15135325 0.27972504
0001a0 31 81 fd bd c2 05 12 3d 7b 98 39 3e 7e 71 6e 3e
       -0.12378157 0.035650022 0.18124573 0.23285481
0001b0 cc 43 d1 bd 6d 8e ae bd d6 c4 22 be 1d bd da bc
       -0.10218009 -0.08523259 -0.158954 -0.026701504
0001c0 09 b0 f8 3d 6e 2b 55 be 37 90 8e 3e da 82 b7 bc
       0.12142951 -0.20817348 0.27844402 -0.022401262
0001d0 c1 76 b7 3e c8 f9 14 be 51 22 0b be 24 91 17 bd
       0.3583279 -0.14548409 -0.1358731 -0.03700365
0001e0 ff 00 85 3e 91 96 24 3e f9 e0 da 3b db 95 43 be
       0.25977322 0.16073062 0.006679651 -0.19100134
0001f0 a8 81 d7 3d 88 16 e1 bc dc 69 f0 3d 18 26 57 3d
       0.10522777 -0.027476564 0.11738941 0.052526563
000200 28 55 44 bd 49 02 8a 3e 3d 15 d3 be 33 1b 44 3d
       -0.047932774 0.26954868 -0.4122714 0.0478775
000210 fe 84 7f 3c 70 68 80 bd cd 19 aa 3d 6b 57 6a be
       0.015595673 -0.0626992 0.08305702 -0.2288491
000220 bc bd 47 3d 94 f9 d0 bc 5d b3 32 3e d3 bc 39 3e
       0.04876493 -0.025509633 0.17451234 0.18138437
000230 87 41 7f 3d 16 33 42 3d 25 eb 7c 3e 25 ab 72 3c
       0.06231835 0.047412 0.24699076 0.014811312
000240 19 1c dd bd 95 89 79 3d 75 a9 7e be 1c e9 42 be
       -0.10796375 0.060922224 -0.2486933 -0.19034237
000250 5e aa 82 3d c1 3b a7 bd b8 c8 86 3e c7 d0 de 3d
       0.06380151 -0.08165694 0.2632501 0.10879665
000260 79 ab 0a 3e 14 51 3a bc 59 34 3e be 70 17 c3 bd
       0.13541974 -0.01137187 -0.18574657 -0.09525955
000270 d8 f9 7b bd 52 ea 9b be b9 81 98 be 66 e1 89 bd
       -0.061517566 -0.3045221 -0.2978647 -0.067324445
000280 e3 97 c5 3d 6e 93 86 3b 00 03 95 bc e4 8f 2d 3e
       0.09648111 0.0041069305 -0.018189907 0.16949421
000290 64 fc 25 3d d3 07 bd 3d ed 84 1f 3e e7 1d 64 3c
       0.0405239 0.09230008 0.15578051 0.013923145
0002a0 2b ba 78 bd a2 de 9d bd f6 d6 96 bd 54 a3 1b be
       -0.06072442 -0.077084795 -0.07365219 -0.15199023
0002b0 92 50 d4 bd 53 db 86 be d1 8f 99 3d 13 81 1a be
       -0.1036693 -0.26339206 0.07498134 -0.150883
0002c0 da 61 98 be cd cf 96 3d 4c 72 0f bf b5 e3 43 3e
       -0.29762155 0.073638536 -0.5603378 0.19129832
0002d0 eb fb fe 3d 67 a8 26 bd e7 dd 17 be 15 b7 28 be
       0.12450393 -0.040687945 -0.14830743 -0.1647609
0002e0 90 0a b3 3e f1 5a a3 bc 1f cb 97 be 99 95 2e 3d
       0.34968996 -0.019940825 -0.29647157 0.042623136
0002f0 9a 84 50 3b 00 11 ad be 0c cf 76 be 92 86 b3 bb
       0.0031817318 -0.33802032 -0.2410242 -0.0054786885
000300 48 02 87 3e 70 05 be bc 1c 24 8e 3c 93 aa 3b 3e
       0.26368928 -0.023195952 0.017351203 0.18326788
000310 83 43 74 be ea f6 8b 3d e7 e4 0e 3e 75 5e cb 3c
       -0.23853879 0.068342045 0.13954507 0.024825314
000320 69 a1 57 3e 65 2c 10 3e e9 ef 07 bb 1e 2f 05 be
       0.21057667 0.14079435 -0.0020742363 -0.13006255
000330 f9 30 09 3e 2e 02 34 bd ad 40 66 be b0 9f a4 be
       0.13397588 -0.04394739 -0.2248561 -0.32153082
000340 57 d5 14 be cd a0 20 3e 40 ad 42 be 15 a3 82 bd
       -0.14534508 0.1568634 -0.19011402 -0.06378762
000350 c0 22 b5 3d 6a 35 2d be bf 47 76 3d 5d f8 a7 bd
       0.08844519 -0.16914907 0.060127016 -0.082016684
000360 ea 97 3f bd 98 e7 f6 3d 32 33 e3 be 1c ba 33 3d
       -0.046775736 0.12055892 -0.44374996 0.04387866
000370 9f b6 7e 3e 81 87 64 3c f7 25 bd be 12 9c c9 3d
       0.24874352 0.013948322 -0.36943027 0.09844221
000380 8e c3 64 3e 27 f1 2a 3e fe a5 21 be 17 1f b7 3d
       0.22340223 0.16693555 -0.15785977 0.08941477
000390 01 ab 0f bd c4 cb 95 3d 22 2d 7d be 71 6b f9 bc
       -0.03507519 0.07314256 -0.24724248 -0.03044674
0003a0 f7 93 fb 3c 4c 21 fb bd 0c 33 0a be 6a 2b 27 3d
       0.030710204 -0.1226221 -0.13496035 0.040812887
0003b0 81 7b cf 3d 80 24 a5 be 58 96 e6 3d f2 65 ff 3d
       0.101309784 -0.3225441 0.112591445 0.124706164
0003c0 5a 8e e3 bd 16 db e4 bd d9 5a 59 be 3d b5 26 3e
       -0.11111136 -0.111746 -0.21226062 0.16280074
0003d0 b7 10 a6 3d b0 b9 48 be c8 c3 93 3d 9e 7a ce bd
       0.08108657 -0.19602084 0.07215077 -0.10081981
0003e0 f2 d8 55 3d ad 3e 50 3d 9d 9b 93 3d e2 c9 9c 3e
       0.05220885 0.050841022 0.07207415 0.30622774
0003f0 36 51 59 be 2b 23 73 3d 3d 95 04 3d 72 21 b4 bc
       -0.21222386 0.05935971 0.032368887 -0.021988604

network_body.vector_processors.0.normalizer.running_mean f4 [13]
000000 db 22 13 40 50 26 b4 41 2e 64 41 c0 e2 da 2d 3d
       2.2990024 22.518707 -3.0217395 0.04244507
000010 87 a3 b0 bc 17 a3 21 3d c3 30 48 3d 26 de 7a 3d
       -0.02156235 0.039462175 0.048874628 0.061247014
000020 27 ce a7 3e d9 2d ef bd 2c 1d 5b be da 61 70 40
       0.3277447 -0.116786666 -0.21397847 3.7559724
000030 7f ef 64 be
       -0.22356986
