Assets/ML-Agents/Experiments/CalmHover/HoverBallAirRoll.onnx (onnx, 23839 bytes, 9 tensors)

62 f4 [13]
20.50156 6.336383 20.498257 0.4937926 0.43968165 0.43014032 0.5160674 6.5324264
3.8580627 6.3597794 1.859756 3.120606 1.7500801
00000000: 3203 a441 a6c3 ca40 6efc a341 62d2 fc3e
00000010: f41d e13e 5a3b dc3e fe1c 043f a309 d140
00000020: 80ea 7640 5083 cb40 7c0c ee3f 02b8 4740
00000030: a002 e03f

action_model._continuous_distribution.log_sigma f4 [1, 4]
-1.2402538 -1.114989 -1.1121055 -1.6237881
00000000: a3c0 9ebf f6b7 8ebf 7959 8ebf 4ad8 cfbf

action_model._continuous_distribution.mu.bias f4 [4]
-0.047647987 0.004880857 0.16112934 -0.053695045
00000000: 892a 43bd 99ef 9f3b 17ff 243e 56ef 5bbd

action_model._continuous_distribution.mu.weight f4 [4, 64]
-0.008454869 0.06490499 -0.058283456 0.021794645 -0.08353418 -0.12811534 -0.033355534 0.14416559
-0.15376003 -0.13396268 -0.076233104 -0.16429639 -0.08824909 0.059444208 0.0103434175 0.0040366445
-0.14553304 0.10180226 0.0476469 0.1914097 0.15321517 -0.1772222 0.002766027 -0.008295902
0.10129224 -0.17941602 0.14514586 -0.08795834 -0.027043223 -0.08357865 0.1858829 0.2388911
0.0480182 0.19729573 -0.23389164 -0.10165162 0.347296 -0.22891155 -0.20654443 -0.11180126
0.02231124 -0.11405517 -0.03610793 -0.18831149 -0.030853 0.16354871 -0.24197264 -0.16721493
-0.025037438 0.012483423 0.058231115 -0.13646531 0.027748452 0.11860317 0.32593024 -0.20537975
-0.13980182 -0.07260645 -0.000955837 0.38098767 0.09676503 -0.25042912 0.10088196 0.05550067
-0.010230739 0.09393753 0.0746749 -0.11454796 0.05960956 0.07104213 -0.1362243 0.039986618
0.044358972 0.004864936 -0.0076159225 0.11220587 0.15670444 0.03792242 -0.28153285 0.2660814
-0.11963603 -0.10309026 -0.1165987 0.15390342 -0.12065923 -0.1397524 -0.1388269 -0.060049705
0.12267577 -0.0859077 0.07912823 -0.04489125 -0.18795316 -0.05799015 0.115633264 -0.038444925
0.109141916 -0.022850065 0.09525869 0.0005451842 -0.15716231 -0.029979974 -0.04242339 0.05159001
-0.22323613 0.2619041 0.10535169 0.07682302 0.034517996 -0.009239835 0.06219766 -0.14971969
0.16838071 -0.1469271 -0.0039994163 0.24035516 -0.0026668806 -0.2507654 -0.08360535 0.12622528
-0.011193032 -0.01726832 0.16331409 0.060708806 0.17763297 -0.04947759 -0.06895089 0.057407882
-0.3160952 0.13728034 0.018062033 -0.23919386 -0.012541471 -0.035170566 -0.06282608 -0.16550009
-0.03380666 0.15274456 -0.029566366 0.059126094 -0.054464225 -0.10228207 -0.03493285 0.056995355
0.019185109 -0.25117728 -0.13957454 -0.14599022 0.038966127 0.08519207 0.05607494 -0.021679705
0.12769234 -0.07268462 -0.12697455 0.058967646 0.13220716 -0.050438873 -0.040572233 0.11723168
-0.055347316 0.06392756 0.110772654 0.16131063 -0.026445275 -0.033623107 0.07175442 0.048713554
0.025774814 -0.082095474 -0.020407278 0.14004207 0.1805695 -0.18489188 0.057662662 -0.0577531
-0.03535202 -0.17383301 0.0029186872 -0.049477708 -0.12032935 0.040247593 0.0790299 0.08828198
-0.030797984 -0.024722682 -0.06003933 0.025187839 0.106709324 0.1869956 0.13516244 0.07550039
0.010969876 0.04277568 -0.17763795 0.1003124 0.087067984 -0.015386947 -0.09871456 0.08569355
0.20614643 -0.1201252 0.004286819 -0.047912493 0.0062376903 -0.014538424 -0.14206389 -0.039541747
-0.08220261 0.0051290616 0.059876204 0.061293222 -0.05414028 -0.054694027 0.033014707 0.23673624
-0.120446295 0.09125711 0.10128871 -0.034996968 -0.10829482 -0.060091976 0.07772237 0.07413438
-0.05659573 0.21637288 0.024019249 -0.048140496 0.26389083 -0.0766366 -0.1246381 0.1703107
-0.11291566 -0.08801968 0.037730604 -0.12520501 -0.05593028 -0.035267383 -0.0054814136 0.057477526
-0.06812977 0.031003758 0.18326552 0.22993782 0.17342675 0.0027173606 -0.055716272 0.078226894
-0.12978525 -0.14896916 0.072782956 -0.06720222 -0.06658048 0.00036115627 0.10768263 0.033280518
00000000: 4a86 0abc e8ec 843d a2ba 6ebd af8a b23c
00000010: f813 abbd ab30 03be d09f 08bd 25a0 133e
00000020: 4573 1dbe 832d 09be 1a20 9cbd 503d 28be
00000030: f0bb b4bd c57b 733d 7077 293c d445 843b
00000040: 9d06 15be b47d d03d 6529 433d e800 443e
00000050: 70e4 1c3e bd79 35be 3c46 353b 89eb 07bc
00000060: 4e72 cf3d d5b8 37be 1ea1 143e 8123 b4bd
00000070: c089 ddbc 492b abbd 1658 3e3e de9f 743e
00000080: bbae 443d e407 4a3e 4a81 6fbe b92e d0bd
00000090: c8d0 b13e ca67 6abe 6280 53be 0ff8 e4bd
000000a0: 10c6 b63c c295 e9bd e9e5 13bd bad4 40be
000000b0: 6ebf fcbc 5079 273e adc7 77be 643a 2bbe
000000c0: 501b cdbc 4587 4c3c c083 6e3d 90bd 0bbe
000000d0: b950 e33c 38e6 f23d 54e0 a63e 124f 52be
000000e0: 3528 0fbe b1b2 94bd 2391 7aba d110 c33e
000000f0: be2c c63d 3f38 80be 339b ce3d ac54 633d
00000100: d49e 27bc 5262 c03d 27ef 983d 1f98 eabd
00000110: 2729 743d 897e 913d 627e 0bbe 02c9 233d
00000120: c1b1 353d 0b6a 9f3b fd8e f9bb 31cc e53d
00000130: 2177 203e 8a54 1b3d 1325 90be d23b 883e
00000140: bc03 f5bd fc20 d3bd 4dcb eebd dc98 1d3e
00000150: 301c f7bd 411b 0fbe a428 0ebe aef6 75bd
00000160: 6f3d fb3d 60f0 afbd fb0d a23d e3df 37bd
00000170: cb76 40be 1487 6dbd 22d1 ec3d 6d78 1dbd
00000180: cc85 df3d 0f30 bbbc fd16 c33d b1ea 0e3a
00000190: 28ef 20be 9098 f5bc 26c4 2dbd 0c50 533d
000001a0: 0398 64be 4b18 863e a0c2 d73d 6355 9d3d
000001b0: be62 0d3d ad62 17bc f9c2 7e3d 1e50 19be
000001c0: fe6b 2c3e 0f74 16be 890d 83bb aa1f 763e
000001d0: d5c6 2ebb 5364 80be 4839 abbd 3341 013e
000001e0: fb62 37bc 4b76 8dbc cf3b 273e cca9 783d
000001f0: 6be5 353e 03a9 4abd 2036 8dbd 8724 6b3d
00000200: 3bd7 a1be 3893 0c3e d4f6 933c 3cef 74be
00000210: be7a 4dbc 030f 10bd f6aa 80bd db78 29be
00000220: da78 0abd 1269 1c3e 2a35 f2bc 342e 723d
00000230: e115 5fbd 4379 d1bd c015 0fbd f673 693d
00000240: 172a 9d3c 4f9a 80be a1ec 0ebe 767e 15be
00000250: f29a 1f3d 2e79 ae3d d6ae 653d a399 b1bc
00000260: c8c1 023e addb 94bd 9e05 02be 0f88 713d
00000270: 5061 073e fe98 4ebd 122f 26bd 2a17 f03d
00000280: deb3 62bd 74ec 823d c6dc e23d 9d2e 253e
00000290: c3a3 d8bc 62b8 09bd fbf3 923d dd87 473d
000002a0: b425 d33c ac21 a8bd 2a2d a7bc 3067 0f3e
000002b0: 36e7 383e 4c54 3dbe af2f 6c3d 848e 6cbd
000002c0: 48cd 10bd 4801 32be 7247 3f3b 23a9 4abd
000002d0: 3c6f f6bd a9da 243d 6eda a13d 2fcd b43d
000002e0: 0e4c fcbc 3987 cabc cdeb 75bd ba56 ce3c
000002f0: 6b8a da3d c67b 3f3e 0668 0a3e f39f 9a3d
00000300: ffba 333c 8d35 2f3d b9e6 35be 9670 cd3d
00000310: b350 b23d 8919 7cbc dc2a cabd 1a80 af3d
00000320: 0d18 533e 3304 f6bd 7278 8c3b e43f 44bd
00000330: 8a65 cc3b 9232 6ebc 3279 11be 87f6 21bd
00000340: d859 a8bd b011 a83b c040 753d 9a0e 7b3d
00000350: 33c2 5dbd d806 60bd 6e3a 073d fc6a 723e
00000360: 8cac f6bd 02e5 ba3d 7570 cf3d fb58 0fbd
00000370: adc9 ddbd 0123 76bd e82c 9f3d c4d3 973d
00000380: edd0 67bd da90 5d3e 04c4 c43c f82e 45bd
00000390: b31c 873e a6f3 9cbd 4342 ffbd ee65 2e3e
000003a0: 5340 e7bd a943 b4bd 688b 1a3d be35 00be
000003b0: 2617 65bd 8874 10bd 6e9d b3bb 8e6d 6b3d
000003c0: 9f87 8bbd 98fb fd3c f5a9 3b3e d274 6b3e
000003d0: c896 313e bf15 323b bf36 64bd 6c35 a03d
000003e0: 6de6 04be 5f8b 18be 3b0f 953d 51a1 89bd
000003f0: 595b 88bd 9359 bd39 b688 dc3d 2751 083d

network_body.linear_encoder.seq_layers.0.bias f4 [64]
0.09166488 0.17774306 0.06766882 0.16793229 0.17987514 0.14082873 0.11708101 -0.0076985145
-0.05196924 0.08139192 0.048399083 -0.040296923 0.2015638 -0.09164247 0.16711861 0.12406164
0.09417508 -0.021972101 0.05795347 -0.004212678 -0.12303581 0.23024343 0.059443284 0.09249095
0.27031434 0.18680929 0.017711887 0.083154045 0.03083536 0.020293212 -0.024750995 0.10010461
0.12712678 -0.12023491 0.19741555 0.05412264 0.027105415 0.10957334 0.11432595 0.22583151
0.05401027 0.05471717 0.19035617 0.00739046 -0.08035364 0.012302383 0.15993394 -0.084007375
0.09888692 0.15179004 0.107165515 -0.15399824 0.24063879 0.14955802 -0.06741016 0.07804175
0.094954275 0.10770137 0.28162715 0.12235604 0.17893626 0.0954011 0.08660943 0.115988344
00000000: ccba bb3d 4702 363e f395 8a3d 71f6 2b3e
00000010: 3031 383e 6835 103e 2bc8 ef3d d243 fcbb
00000020: b3dd 54bd cfb0 a63d 1e3e 463d 630e 25bd
00000030: be66 4e3e 0caf bbbd 2421 2b3e 0714 fe3d
00000040: ddde c03d d6fe b3bc 9e60 6d3d 810a 8abb
00000050: 33fa fbbd efc4 6b3e cd7a 733d e56b bd3d
00000060: a466 8a3e ef4a 3f3e 8518 913c ab4c aa3d
00000070: 709a fc3c f33d a63c 99c2 cabc a503 cd3d
00000080: 862d 023e b83d f6bd 4d27 4a3e b4af 5d3d
00000090: 2d0c de3c fd67 e03d b923 ea3d 6040 673e
000000a0: df39 5d3d 1c1f 603d baec 423e ac2b f23b
000000b0: 7390 a4bd ef8f 493c b9c5 233e 0f0c acbd
000000c0: 3a85 ca3d d96e 1b3e 9879 db3d b7b1 1dbe
000000d0: 046a 763e bd25 193e 570e 8abd 5ad4 9f3d
000000e0: 6377 c23d 8992 dc3d 6f31 903e ce95 fa3d
000000f0: 113b 373e a761 c33d 4960 b13d 4c8b ed3d

network_body.linear_encoder.seq_layers.0.weight f4 [64, 13]
-0.19841336 0.109312214 -0.42288265 -0.07432666 0.5237616 0.37547132 -0.40400064 -0.3865743
-0.3051389 0.24714062 0.025346225 0.20497133 -0.23447059 0.4025752 0.14596726 -0.060734496
-0.5157297 0.1866609 -0.24102876 0.60699517 -0.28583676 0.5360719 0.120752916 -0.3571171
-0.41393498 0.26410836 -0.1296907 0.12376869 0.23337843 0.3199905 0.5997414 0.5217338
-0.26145342 -0.20517567 0.24338004 0.0773225 -0.077537045 0.4073283 0.33969778 -0.16051246
0.3516789 -0.50456274 -0.33046514 -0.32292816 -0.21311584 -0.3544429 -0.09118723 0.09972883
0.008322993 0.18576832 0.059223928 0.44014722 -0.20004821 -0.31679043 -0.13471082 0.52761346
0.24898279 -0.34384573 0.19829366 0.7195061 -0.30542856 0.19228482 0.14902084 0.21702784
0.16978551 -0.03468371 -0.10669044 -0.0058890213 -0.91171634 -0.07212081 -0.07929624 0.022029623
0.21285366 0.47064158 -0.8630889 -0.054998808 -0.26323715 -0.45751908 0.0050289882 -0.29802752
0.25728387 -0.006570837 0.68469614 0.18670239 0.07042768 -0.30184445 0.29812112 0.55334806
0.35004732 0.23712693 -0.23461597 0.48670712 0.03224497 0.12597968 -0.75913817 -0.07050241
-1.0625235 0.4689664 0.61771697 0.004897214 -0.26616672 0.29013255 0.061559595 0.13009693
0.21721867 0.402811 -0.34745696 0.18423216 0.47092435 -0.28331763 -0.27794665 0.33947533
0.26291665 -0.35237953 0.057825834 0.10131084 -0.27022347 -0.13780746 -0.28235868 -0.12070666
-0.6860846 0.41981554 -0.47268 0.039139956 0.3361839 -0.078164846 -0.47914565 -0.06183691
0.28761235 -0.20339295 0.12745152 -0.31856704 0.19427516 -0.2366425 -0.18213317 0.27242932
0.33923 0.09491715 -0.38255766 0.16329718 -0.067852534 -0.1267196 0.10500146 -0.2851883
0.19368207 -0.34283352 0.2852713 0.16136518 -0.053567376 0.22687946 -0.60084504 -0.58757204
-0.10898059 0.53024185 0.3143153 -0.12716717 0.15398008 0.2866753 -0.1020278 0.42838222
-0.6033156 -0.6764115 0.05327317 -0.7046729 0.10947683 -0.25588456 0.23289275 0.28945404
0.20351079 -0.21971613 0.27174354 -0.047984734 0.16403 0.2598628 0.456198 -0.3893347
-0.21355374 0.09762748 0.11272292 0.034491297 -0.12993321 -0.18435574 -0.04186693 0.0090134
-0.094069146 -0.38479495 0.36563477 0.19520026 -0.3326227 -0.010432518 -0.011187319 0.39056143
-0.26127082 0.7346739 0.27500325 0.12545404 0.065109774 0.32828087 -0.20389041 -0.24880828
0.21465121 0.33971447 -0.72066164 -0.19711012 0.21188937 0.5033705 0.3434955 0.18996193
-0.110053636 -0.5552929 -0.33812925 -0.026414728 -0.4344698 0.057615105 0.41462928 0.1499402
-0.16012698 -0.23719548 0.035500154 -0.12924644 0.030353444 -0.47960755 -0.30325958 0.08468525
-0.100222245 -0.067382865 -0.46241784 -0.03282236 0.23278256 0.14794783 0.038409352 0.13419944
0.581747 -0.081006765 -0.33402842 0.37613472 -0.010816953 -0.65964544 -0.2917462 -0.40033183
-0.03979396 0.020448035 0.0990602 -0.6220133 -0.5102235 -0.012300427 0.075400576 0.28187317
-0.1750303 0.07221718 0.19982435 0.66128415 -0.18040718 0.14400981 -0.3906654 -0.024181265
00000000: df2c 4bbe 15df df3d 1384 d8be 9338 98bd
00000010: 3d15 063f c73d c03e 2cd9 cebe 11ed c5be
00000020: 2a3b 9cbe 6e12 7d3e e3a2 cf3c 01e4 513e
00000030: 0f19 70be 561e ce3e 7178 153e bcc4 78bd
00000040: dd06 04bf 0924 3f3e 3ed0 76be 0964 1b3f
00000050: 3259 92be 023c 093f 4e4d f73d 0dd8 b6be
00000060: 49ef d3be 3639 873e a4cd 04be 707a fd3d
00000070: c1fa 6e3e cbd5 a33e a788 193f 5990 053f
00000080: 39dd 85be 9219 52be 9e38 793e 425b 9e3d
00000090: becb 9ebd 568d d03e deec ad3e 615d 24be
000000a0: 420f b43e 062b 01bf ba32 a9be d756 a5be
000000b0: 0a3b 5abe 8a79 b5be 5fc0 babd a13e cc3d
000000c0: 2a5d 083c 0d3a 3e3e ca94 723d fa5a e13e
000000d0: 70d9 4cbe 5b32 a2be a2f1 09be ad11 073f
000000e0: 58f5 7e3e 8c0c b0be 7e0d 4b3e 8d31 383f
000000f0: 2261 9cbe 50e6 443e eb98 183e 8c3c 5e3e
00000100: 41dc 2d3e 8210 0ebd 8480 dabd b1f8 c0bb
00000110: 3e66 69bf 13b4 93bd 1166 a2bd 7877 b43c
00000120: 4ff6 593e eff7 f03e 65f3 5cbf 6e46 61bd
00000130: 05c7 86be f13f eabe 36ca a43b 1097 98be
00000140: b6ba 833e 2d50 d7bb 3f48 2f3f e92e 3f3e
00000150: 633c 903d 5b8b 9abe 55a3 983e 38a8 0d3f
00000160: 6739 b33e 67d1 723e 2b3f 70be ad31 f93e
00000170: 4d13 043d d100 013e e156 42bf 9163 90bd
00000180: c500 88bf 5d1c f03e b322 1e3f cf78 a03b
00000190: 0147 88be 418c 943e ea25 7c3d 2138 053e
000001a0: 926e 5e3e 3e3d ce3e e1e5 b1be 5ba7 3c3e
000001b0: ff1c f13e 020f 91be 064f 8ebe b6cf ad3e
000001c0: 039d 863e 176b b4be c8da 6c3d 0f7c cf3d
000001d0: bb5a 8abe 661d 0dbe 5191 90be 0e35 f7bd
000001e0: 3ea3 2fbf 10f2 d63e 1d03 f2be 3851 203d
000001f0: 4c20 ac3e e414 a0bd 9452 f5be b348 7dbd
00000200: ed41 933e 3e46 50be a782 023e 381b a3be
00000210: 11f0 463e 6952 72be 1e81 3abe db7b 8b3e
00000220: 8eaf ad3e ec63 c23d 99de c3be 6037 273e
00000230: 45f6 8abd c8c2 01be 010b d73d 3304 92be
00000240: 9854 463e e087 afbe 140f 923e ea3c 253e
00000250: 7769 5bbd 1753 683e fbd0 19bf 1f6b 16bf
00000260: 3731 dfbd eebd 073f efed a03e 1c38 02be
00000270: f4ac 1d3e 1bc7 923e f4f3 d0bd ea54 db3e
00000280: e472 1abf 4e29 2dbf f834 5a3d 7165 34bf
00000290: 6335 e03d 4d03 83be 707b 6e3e 5233 943e
000002a0: 2265 503e 44fd 60be f821 8b3e a48b 44bd
000002b0: 7bf7 273e bd0c 853e c992 e93e e156 c7be
000002c0: d5ad 5abe ebf0 c73d 46db e63d bf46 0d3d
000002d0: 360d 05be c0c7 3cbe a87c 2bbd f1ac 133c
000002e0: 53a7 c0bd d803 c5be 7b34 bb3e 94e2 473e
000002f0: 864d aabe 27ed 2abc 044b 37bc abf7 c73e
00000300: 4ac5 85be 9713 3c3f 3acd 8c3e 0677 003e
00000310: 4658 853d 6e14 a83e a6c8 50be 99c7 7ebe
00000320: 87cd 5b3e 0eef ad3e 487d 38bf 3cd7 49be
00000330: 87f9 583e e4dc 003f a4de af3e 6185 423e
00000340: cd63 e1bd ad27 0ebf 471f adbe b363 d8bc
00000350: d372 debe d1fd 6b3d 4a4a d43e ec89 193e
00000360: 54f8 23be 5fe3 72be 9c68 113d 2e59 04be
00000370: c9a7 f83c 1f8f f5be d744 9bbe 766f ad3d
00000380: 5241 cdbd 0700 8abd 08c2 ecbe bd70 06bd
00000390: 8d5e 6e3e a37f 173e 2053 1d3d 946b 093e
000003a0: 5fed 143f e0e6 a5bd c605 abbe bb94 c03e
000003b0: 9739 31bc 86de 28bf c25f 95be 4bf8 ccbe
000003c0: fefe 22bd a382 a73c 13e0 ca3d 433c 1fbf
000003d0: 029e 02bf bb87 49bc 9e6b 9a3d ae51 903e
000003e0: 253b 33be 9ae6 933d c19e 4c3e eb49 293f
000003f0: a9bc 38be 4f77 133e 4c05 c8be ca17 c6bc

network_body.linear_encoder.seq_layers.2.bias f4 [64]
0.009499983 0.22758043 0.13110776 0.004198912 0.060640864 0.13637798 0.113007724 0.011819287
0.08479622 0.19277517 -0.000951764 0.10027774 -0.050157946 0.047509596 0.09290855 0.16485572
0.1108664 0.045060568 0.019052584 0.011483552 -0.0072321664 0.11890149 0.06809837 -0.026727384
0.14319366 0.0660259 -0.031254016 0.11778454 0.14440648 0.048031364 0.031701658 0.018906582
0.018112794 0.11765583 0.16206604 0.17057714 0.040390365 0.048350062 0.19973798 -0.00061757106
0.030299274 0.06583207 0.047967263 0.21165521 0.22732137 -0.0089430325 0.15962385 0.045311227
-0.006594089 -0.026274098 -0.055718783 0.035936873 0.046619013 0.10705115 0.11073243 0.09223462
0.101627916 0.11506143 -0.028284598 0.14796357 0.14358187 0.11342834 0.12298533 0.071903706
00000000: d1a5 1b3c d80a 693e 1d41 063e 0797 893b
00000010: 8e62 783d aba6 0b3e 9870 e73d afa5 413c
00000020: a4a9 ad3d db66 453e cd7f 79ba 6a5e cd3d
00000030: 6b72 4dbd 6c99 423d d646 be3d f0cf 283e
00000040: ec0d e33d 6e91 383d 2a14 9c3c 8225 3c3c
00000050: cffb ecbb a082 f33d 2977 8b3d 63f3 dabc
00000060: 5ca1 123e 9638 873d 3604 00bd 0539 f13d
00000070: 4bdf 133e 89bc 443d 99d9 013d fae1 9a3c
00000080: 4861 943c 8af5 f03d a4f4 253e c6ab 2e3e
00000090: 5e70 253d b70a 463d 1d88 4c3e 7ee4 21ba
000000a0: 2f36 f83c f7d2 863d 5279 443d 25bc 583e
000000b0: efc6 683e cc85 12bc 6f74 233e 4498 393d
000000c0: 3a13 d8bb c73c d7bc 6139 64bd 8b32 133d
000000d0: 94f3 3e3d a23d db3d afc7 e23d 81e5 bc3d
000000e0: 4c22 d03d 54a5 eb3d 1ab5 e7bc c383 173e
000000f0: 2007 133e 1e4d e83d bcdf fb3d 4042 933d

network_body.linear_encoder.seq_layers.2.weight f4 [64, 64]
0.27614364 -0.12204651 0.008099553 0.09217009 -0.057541925 0.06441698 0.41393024 -0.2375694
0.018862026 0.26953065 -0.2392226 -0.042799354 -0.26098663 0.21155305 0.032029644 -0.10116396
-0.14985092 -0.023298122 -0.06576223 0.121074915 -0.046113282 0.1293114 0.060061775 -0.33071214
-0.47213283 0.012609289 0.27250868 -0.119698875 0.19836392 -0.021472158 -0.35524425 -0.19444312
0.27218893 -0.037225444 0.079159506 -0.029038943 0.05042541 0.15658091 -0.08254185 0.08612281
0.16121636 0.09631239 0.41703364 -0.12578407 -0.13498317 -0.5204658 -0.41924617 -0.3466495
-0.22410995 -0.6392881 0.30221337 0.048692595 -0.04981822 -0.037287742 -0.16023223 0.3384408
0.0009527066 0.04287756 -0.33363655 -0.24859983 -0.3247755 -0.026802957 -0.18388423 -0.28378922
0.09439446 0.40398747 -0.054309163 0.2804113 -0.021704955 -0.1816027 0.11468444 0.054930482
-0.22758572 -0.010152202 0.104390085 0.17040077 0.10293625 -0.1908929 0.07973546 -0.058394287
0.26326475 -0.10546022 0.06806546 -0.007425689 -0.020970074 -0.009349351 0.18865483 -0.1521809
0.21932654 0.32537302 0.2424267 -0.0036326374 0.254862 0.07145499 -0.040800218 0.0106568625
-0.070836626 0.03201829 -0.16972923 -0.13279079 0.10000524 0.41283283 0.22974741 -0.031791016
0.17603034 -0.23938015 -0.09256195 0.14951992 -0.17321737 0.10719408 -0.024792358 0.13866651
0.16367419 0.26248989 0.26910716 -0.025261324 -0.022598838 0.16315481 0.03170444 -0.054956615
-0.0981614 0.07907212 0.363275 0.06494766 0.019854365 0.15840164 0.117815174 -0.06990938
-0.2745758 0.17343263 0.10466786 0.051182896 0.00635642 -0.071044214 0.14194532 0.26185083
0.04176927 0.1380224 -0.07488191 0.029788068 0.03472258 0.3603884 0.101392634 -0.11555657
-0.009431282 -0.18869376 -0.10236057 -0.23665215 -0.15500073 0.0033088522 -0.3862903 -0.069784634
-0.059730876 0.01611293 -0.2095266 -0.17686152 0.029096538 -0.48355824 -0.18277162 0.06249672
0.20589505 -0.12548178 0.0061629526 0.0759176 -0.07366466 -0.032402694 -0.22661266 -0.14709382
-0.0070402143 -0.08314238 -0.07513491 -0.08347483 -0.04263831 0.025335366 0.07689688 -0.05861598
0.072578914 0.12097344 -0.016465645 0.28485033 -0.26971644 -0.08131453 -0.14005555 0.08304012
-0.27350572 -0.26094306 0.14123261 0.17237258 -0.03038381 0.06745659 0.16105673 0.32088774
0.09848624 -0.2053671 0.34653395 -0.027523922 -0.13891962 -0.090812095 0.09278919 -0.20655605
-0.17908257 0.20435253 -0.046428725 0.17647688 0.013321948 -0.06623533 0.07380373 0.19758123
-0.0045951726 0.20720206 -0.029054506 0.20294623 -0.09269307 -0.0024442698 0.0317522 -0.15784547
-0.5317822 -0.12243493 0.049380083 0.20786114 -0.039588794 0.09891245 -0.110651076 -0.083240904
0.15821546 -0.110755056 0.15313849 -0.15520586 -0.13461572 -0.021768592 0.21908316 0.09118745
0.0075760027 0.19574572 0.23161487 0.15582174 -0.028150683 0.12632027 0.09350008 -0.18019114
-0.2760591 -0.33057088 0.3008243 -0.009444323 0.20845383 -0.19434027 -0.044441443 -0.012356622
0.06614609 -0.2462092 -0.3006777 -0.15366986 -0.13613726 -0.07106471 -0.14316942 -0.28899446
00000000: b362 8d3e 85f3 f9bd fdb3 043c acc3 bc3d
00000010: 15b1 6bbd 0ded 833d aaee d33e 6545 73be
00000020: 8984 9a3c ecff 893e c5f6 74be 604e 2fbd
00000030: 0aa0 85be 5da1 583e 8431 033d 0d2f cfbd
00000040: 8572 19be b4db bebc 59ae 86bd 20f6 f73d
00000050: 48e1 3cbd 356a 043e 5603 763d 1a53 a9be
00000060: 65bb f1be 3197 4e3c 4286 8b3e af24 f5bd
00000070: e91f 4b3e 61e6 afbc 93e2 b5be 191c 47be
00000080: 595c 8b3e b579 18bd 611e a23d 14e3 edbc
00000090: e08a 4e3d bf56 203e b40b a9bd 2861 b03d
000000a0: e715 253e 6e3f c53d 6f85 d53e 8acd 00be
000000b0: 0739 0abe 3f3d 05bf 6fa7 d6be 0b7c b1be
000000c0: 147d 65be 63a8 23bf b6bb 9a3e e371 473d
000000d0: 310e 4cbd 08bb 18bd eb13 24be 1d48 ad3e
000000e0: 0fbf 793a 61a0 2f3d 69d2 aabe f490 7ebe
000000f0: f948 a6be e091 dbbc 264c 3cbe d24c 91be
00000100: e251 c13d 72d7 ce3e 4973 5ebd 1292 8f3e
00000110: 97ce b1bc 0ff6 39be addf ea3d c9fe 603d
00000120: 3b0c 69be 6c55 26bc 78ca d53d 8a7d 2e3e
00000130: 3ed0 d23d 6e79 43be 584c a33d d92e 6fbd
00000140: a3ca 863e 87fb d7bd e765 8b3d 3253 f3bb
00000150: 6fc9 abbc 052e 19bc bb2e 413e 4fd5 1bbe
00000160: 2397 603e 4b97 a63e b43e 783e 8b11 6ebb
00000170: 467d 823e fe56 923d 211e 27bd 1f9a 2e3c
00000180: cb12 91bd 9c25 033d 80cd 2dbe 4ffa 07be
00000190: 8ccf cc3d d35e d33e e842 6b3e 4c37 02bd
000001a0: 4c41 343e 1220 75be 1f91 bdbd c01b 193e
000001b0: e55f 31be 9288 db3d 5819 cbbc 98fe 0d3e
000001c0: 359a 273e 1365 863e 6ac8 893e d6f0 cebc
000001d0: 3321 b9bc 0e12 273e 84dc 013d 301a 61bd
000001e0: d808 c9bd 90f0 a13d 2eff b93e 4703 853d
000001f0: 9fa5 a23c 0a34 223e 1549 f13d a62c 8fbd
00000200: 3395 8cbe 5398 313e 1a5c d63d 28a5 513d
00000210: 8449 d03b a17f 91bd 1d5a 113e 5011 863e
00000220: 4116 2b3d be55 0d3e b05b 99bd 1b06 f43c
00000230: 4439 0e3d d484 b83e f1a6 cf3d eca8 ecbd
00000240: aa85 1abc f038 41be 6ba2 d1bd f154 72be
00000250: 83b8 1ebe 54d9 583b d8c7 c5be 3feb 8ebd
00000260: 5da8 74bd 43ff 833c 248e 56be 301b 35be
00000270: dd5b ee3c f294 f7be 7c28 3bbe 90fc 7f3d
00000280: 27d6 523e 4c7e 00be 98f2 c93b b07a 9b3d
00000290: 7fdd 96bd b0b8 04bd 260d 68be c39f 16be
000002a0: 99b1 e6bb 8d46 aabd 55e0 99bd daf4 aabd
000002b0: 82a5 2ebd 1d8c cf3c 1d7c 9d3d 4f17 70bd
000002c0: 41a4 943d ecc0 f73d f6e2 86bc e7d7 913e
000002d0: 4618 8abe 3b88 a6bd b96a 0fbe f010 aa3d
000002e0: f108 8cbe 549a 85be 489f 103e 7082 303e
000002f0: 78e7 f8bc ae26 8a3d 0eec 243e 664b a43e
00000300: 27b3 c93d c14b 52be e66c b13e d979 e1bc
00000310: f240 0ebe b1fb b9bd 4208 be3d 6e83 53be
00000320: 6c61 37be ca41 513e 0c2c 3ebd 5bb6 343e
00000330: 4d44 5a3c 64a6 87bd 6926 973d bc52 4a3e
00000340: 1a93 96bb c72c 543e b703 eebc 23d1 4f3e
00000350: ddd5 bdbd 0b30 20bb 980e 023d 3ea2 21be
00000360: e122 08bf 2abf fabd c542 4a3d 8dd9 543e
00000370: dc27 22bd 9c92 ca3d 089d e2bd 357a aabd
00000380: 3c03 223e 8cd3 e2bd 56d0 1c3e 49ee 1ebe
00000390: b4d8 09be 0c54 b2bc 5657 603e 7cc0 ba3d
000003a0: 1e40 f83b 9171 483e 732c 6d3e bc8f 1f3e
000003b0: 439c e6bc 1a5a 013e f87c bf3d 0784 38be
000003c0: 9e57 8dbe 9640 a9be a505 9a3e 5dbc 1abc
000003d0: ec74 553e 2301 47be 3b08 36bd 6e73 4abc
000003e0: 9a77 873d 441e 7cbe 6df2 99be a25b 1dbe
000003f0: 9167 0bbe 608a 91bd 019b 12be 15f7 93be

network_body.vector_processors.0.normalizer.running_mean f4 [13]
1.9929583 14.142328 1.6691821 -0.23289391 -0.022536427 0.08476275 0.22264898 0.17367332
0.2886449 0.05411023 0.6606518 4.166276 0.10299072
00000000: 4219 ff3f fa46 6241 c2a7 d53f be7b 6ebe
00000010: 509e b8bc 1898 ad3d 18fe 633e 6bd7 313e
00000020: 44c9 933e b0a2 5d3d 7a20 293f 2252 8540
00000030: ccec d23d
