Assets/ML-Agents/Experiments/CalmHover/HoverWithBallNoRoll.onnx (onnx, 23839 bytes, 9 tensors)

62 f4 [13]
00000000: ee81 7e41 fac5 c540 9e83 7841 3232 2d3e
00000010: 4d1e 283e d87d 4e3e 3e50 3f3e 7a90 8640
00000020: 3496 5e40 37d3 9140 41b2 833f a14f b33f
00000030: aee4 823f
15.906721 6.180417 15.532133 0.16913679 0.16417809 0.20165193 0.18682954 4.2051363
3.4779177 4.557033 1.0288774 1.4008676 1.0226038

action_model._continuous_distribution.log_sigma f4 [1, 4]
00000000: c528 f5be 70fb 97be dbf8 c2be d4bf 24bf
-0.47882667 -0.2968402 -0.38080487 -0.64355206

action_model._continuous_distribution.mu.bias f4 [4]
00000000: 92dd 89bb 4c17 de3b bb3a 643d 9234 1bbd
-0.0042073214 0.0067776795 0.055720072 -0.03789193

action_model._continuous_distribution.mu.weight f4 [4, 64]
00000000: cc6f 823a d9da 323d 608b db3b 3d53 413d
00000010: d168 d9bd 1d73 0ebe 9107 28bb ac56 f93d
00000020: 8500 e8bd 4e5f b5bd 0bfc 96bd 69ca 24be
00000030: b6c7 49bd 3538 c43d c491 813d bb84 cf3c
00000040: 4d44 dcbd 3c1b b63d 57fa 383d 3980 243e
00000050: bf69 e43d 2b91 72bd 04f0 5c3d 4e33 bebd
00000060: 80ba a73d 8c53 f9bd 798d 703c 775c c2bd
00000070: 2dd4 e1bb 7142 8f3d 8ccd 133e 01e1 ed3d
00000080: 6c79 c83c 1dc8 273e 8810 bcbd e2ce a7bc
00000090: b484 023e bbaa 32be e5b1 11be 2f55 7fbd
000000a0: e777 8a3d d574 7bbd 7f59 51bd fdb7 15be
000000b0: 3921 cf3b 698d fc3d bea4 eabd 86dd 0cbe
000000c0: 78fa 4dbc be84 0a3d 8ed2 5a3d 3e2f acbd
000000d0: 8962 1aba 42c7 153d 608a 003e ad1b 89bc
000000e0: eb5b c7bd 089e 9fbc d589 86bb 8113 873e
000000f0: 77b3 a43d 7eb2 16be 6c39 8b3d 254d fa3c
00000100: 1b4d 923c 25fe 163d fd38 cd3d 1a21 8ebd
00000110: cc81 9d3d cc43 453d c210 0dbe 8ce8 183d
00000120: e5e2 193d d43d 4f3c 5068 acbc 9117 013e
00000130: af98 143e 2a04 b23d e37b 4fbe 6974 943e
00000140: 9e83 03be b651 3cbd e73d 1cbe 9b03 3a3e
00000150: 4c02 edbd d171 3bbd b28b e1bd e73f a7bd
00000160: 1867 863d fe39 b8bd 1a8a 803d d2fc 05bd
00000170: 18c7 d9bd 5f90 bebc 06e7 493e a39d a3bd
00000180: 7df6 0abb 3945 b83d 1cf8 db3c 85f4 e4bb
00000190: 00d5 17bd 6f86 d6bc 4ed9 8abd 8f08 663c
000001a0: 21af 1fbe af1e 253e 6d33 fd3d c85d 983d
000001b0: 63e5 043d 191b 8abb 731a 123c 3de6 0bbe
000001c0: e4c2 0f3e c409 05be 6484 5bbd 5073 c63d
000001d0: 8c79 d33c 2f65 05be 57e4 7cbd 7ff4 9c3d
000001e0: d479 46bd bd78 72bc 180d 133e b59f 973d
000001f0: 3781 c43d 0df7 29bd 1562 03be 22fb eabb
00000200: 5219 59be 6f21 d63d d609 113d 8ab7 20be
00000210: 1e4b abb9 b385 a3bc e9da 87bd 829a 03be
00000220: e3f5 1bbd c008 083d 16b1 78bd e6ec 2fbc
00000230: 695a 74bd 21db a4bd 0656 76bd 228c c93c
00000240: e0fe 42bc beef 2abe b045 b0bd 8fc1 1abe
00000250: cbf4 8e3d 4668 8b3d eb49 5dbc 7405 c8ba
00000260: 45de de3d 4784 8fbd 4955 ecbc 81f2 00bc
00000270: 8559 f73d 10ae 03bd 067f cdbd 27ad 6b3d
00000280: 6fb7 8fbb 538f 18bc c536 103e bbd1 943d
00000290: 31c2 433d 28c7 dfbc a25a 2c3d 0f78 3b3d
000002a0: 20e3 fabb dfb3 89bd 3241 59bd 7ad5 c83d
000002b0: 8904 f03d 6425 d6bd e9cb 383d ecb1 67bd
000002c0: 301d 96bd 6342 c3bd 1825 aebc 1c0d b1bd
000002d0: 8df9 8bbd 2621 ac3d 8c75 ef3d af2f 083e
000002e0: 2be8 c6bc 5eb8 16ba 8d2f 85bd 370c 5cba
000002f0: c2b3 7d3d 1cc1 f53d 868f c03d 269e 223d
00000300: 9522 103c a433 5d3d a003 29be 6d7e c23d
00000310: 0feb 113d 14e9 80bd 288c d9bd d3e0 a83d
00000320: e1f7 2c3e 3a3e f3bd ced8 f8bb 1bfc a6bd
00000330: 05c0 023d 442e ccbd b3d0 47be 77c3 97bd
00000340: d0fc 93bd b8d1 c43c 3e7e ba3d 92ad 503c
00000350: fa6f 1fbd 0d74 04bd 2b76 da3b 50ad 4e3e
00000360: bd39 12be dc21 c23d 9950 d53d 26b9 2cbd
00000370: a9f7 babd b8dd 0ebe 4821 b13c 714c 213e
00000380: b134 0abe f6e1 5c3e 68dd 5b3d 3423 10bd
00000390: 9bd7 6d3e 658c 6cbd a865 2bbe 2455 343e
000003a0: f683 06be a897 c1bd 2410 16bc d6f7 1bbe
000003b0: 375e b2bd 1773 8abb 38b6 adbc f593 fc3b
000003c0: e9d2 c3bc 848f 393d be4e 0c3e 3ede 413e
000003d0: fbeb 2e3e 75ee 0ebd c18a a5bd cde1 163e
000003e0: fade ccbd 6fa9 20be cbc4 cf3d bc10 2fbe
000003f0: 5be0 b0bd 660d db3b e0e3 b33d 9bde 9b3b
0.0009951531 0.04366574 0.0066999644 0.047198523 -0.10615695 -0.139111 -0.0025639276 0.121747345
-0.11328224 -0.088560686 -0.07372292 -0.16092838 -0.049262725 0.09581033 0.06326631 0.025331846
-0.10755215 0.08891913 0.045160618 0.16064538 0.11152982 -0.059220474 0.053939834 -0.09287129
0.08189869 -0.121741384 0.014682167 -0.094902925 -0.0068917484 0.069950946 0.14433879 0.11615182
0.024471961 0.16384931 -0.091828406 -0.020484392 0.12745935 -0.17447941 -0.14228018 -0.062337097
0.06761151 -0.061390717 -0.05111074 -0.14620967 0.006321099 0.12331659 -0.11457203 -0.1375638
-0.012571923 0.033818 0.053423457 -0.08407448 -0.00058893167 0.03656698 0.12552786 -0.01673683
-0.09734329 -0.019484535 -0.0041057863 0.26382068 0.08042043 -0.14716527 0.06798062 0.030554364
0.017859032 0.036863465 0.10020635 -0.06939907 0.076907724 0.04816036 -0.13775924 0.03733115
0.0375699 0.012649018 -0.021045834 0.12606646 0.14511369 0.086922005 -0.20262103 0.28995064
-0.12843177 -0.045976363 -0.15257989 0.18165438 -0.11572704 -0.04576284 -0.11012973 -0.08166485
0.06562632 -0.08995436 0.06276341 -0.03271181 -0.10633677 -0.0232622 0.19717035 -0.07989051
-0.0021204047 0.08997578 0.026851706 -0.006987157 -0.037068367 -0.02618715 -0.06779729 0.014040126
-0.1559415 0.16124986 0.12363324 0.07439762 0.032445323 -0.004214656 0.008917439 -0.13662048
0.14039189 -0.12992007 -0.053593054 0.09689963 0.025814794 -0.1302688 -0.0617412 0.076638214
-0.048456028 -0.014799294 0.14360464 0.074035086 0.09594958 -0.04149537 -0.12830384 -0.0071710506
-0.21201065 0.10455596 0.03540977 -0.15695015 -0.00032671628 -0.019961214 -0.06633551 -0.12851909
-0.038076293 0.03321147 -0.060715757 -0.010737633 -0.059656534 -0.08049608 -0.060140632 0.024602953
-0.011901587 -0.16693017 -0.08607042 -0.15112899 0.06980284 0.06806998 -0.013506393 -0.0015260414
0.10882238 -0.07007652 -0.02884926 -0.007870317 0.12077621 -0.03214842 -0.100339934 0.057538178
-0.0043858807 -0.009311515 0.14083393 0.072665654 0.047792617 -0.027316645 0.04207862 0.045768794
-0.00765647 -0.06723761 -0.05304069 0.098063424 0.11719615 -0.104563504 0.04511634 -0.056566164
-0.07329786 -0.09534147 -0.021257922 -0.086450785 -0.068347074 0.0840476 0.11692342 0.1329944
-0.024280628 -0.0005749519 -0.0650321 -0.0008394154 0.06193901 0.11999723 0.09402375 0.039701603
0.0087973075 0.054004326 -0.16505289 0.0949677 0.03562456 -0.06294456 -0.10622436 0.08246007
0.16891433 -0.11877103 -0.0075942045 -0.08153554 0.031921405 -0.09969762 -0.19513206 -0.07410329
-0.072259545 0.024025783 0.0910611 0.012736695 -0.03892515 -0.032337237 0.0066669188 0.20183301
-0.14279838 0.094791144 0.104157634 -0.04216876 -0.09129269 -0.13951766 0.021622315 0.15751816
-0.13496663 0.21570572 0.053677946 -0.035189822 0.23226778 -0.05775108 -0.16737998 0.17610604
-0.13136277 -0.09452754 -0.009159122 -0.1523126 -0.08709376 -0.0042251456 -0.021205053 0.0077080675
-0.02390428 0.045302883 0.13701913 0.18932435 0.17082207 -0.03489538 -0.08083106 0.14734574
-0.10003467 -0.15689634 0.10144957 -0.17096227 -0.086365424 0.006684947 0.08783698 0.0047567612

network_body.linear_encoder.seq_layers.0.bias f4 [64]
00000000: af7b 9a3d 6040 773e 8027 3d3d cca8 303e
00000010: e25b 1f3e cfa1 3a3e e4b8 d33d 76b4 983c
00000020: b4cd a3bd 20cf 263e 87c5 3f3d 3a94 13bd
00000030: cf57 eb3d f2df d4bd b983 243e 0ce2 173e
00000040: 6f73 953d 98ec e2bc 20c8 113e ee70 c6ba
00000050: e214 0cbe d91a 0e3e 06a9 553c 7c7c 763d
00000060: 2595 593e 5141 453e af54 c8bb 9838 193e
00000070: 24e9 943d 0261 bb3d e2bd e0bc 1bce 363e
00000080: 8355 f23d c174 aabd 4bde dd3d 9221 c83d
00000090: 2e5d 173d 083a e53d 4a73 6c3d 1998 5b3e
000000a0: 61de 6b3d 5d4a b53c fc58 173e c0ea 263c
000000b0: 3805 11be d10a aabc 3e9b 603d 60f2 a9bd
000000c0: 346c 353d 2ca1 9a3d a1f6 d33d ac71 2abe
000000d0: d40e 783e bbdd ed3d 2e6d eabc 358f 0c3e
000000e0: aa7b f23d 5844 043e a7a4 5a3e b8b3 423d
000000f0: 213a d73d 0089 7b3d d750 1a3e 3f8f a03d
0.07543122 0.24145651 0.04618025 0.17251891 0.15562394 0.18225788 0.103379995 0.018640738
-0.07998219 0.1628995 0.046819236 -0.03603003 0.114913575 -0.10394277 0.16065873 0.14832324
0.07297408 -0.027700707 0.14236498 -0.0015139857 -0.13679841 0.13877429 0.013040787 0.06017731
0.212483 0.19263197 -0.0061136107 0.14962995 0.072710305 0.09149362 -0.027434293 0.1785206
0.11832716 -0.0832305 0.10833415 0.09772028 0.036954097 0.11192709 0.057727136 0.2144474
0.057585124 0.022130186 0.14780039 0.010187805 -0.14162147 -0.02075711 0.05483555 -0.082981825
0.044292644 0.07550272 0.10349775 -0.16644925 0.24224406 0.11614557 -0.028616514 0.13726504
0.11839993 0.12916696 0.21351872 0.047534674 0.10509134 0.06140995 0.150699 0.07839822

network_body.linear_encoder.seq_layers.0.weight f4 [64, 13]
00000000: b393 e5bd 2e4e be3d 3971 ebbe e21e 54bd
00000010: 8529 d63e 21c0 b03e 0b35 ddbe e842 82be
00000020: b851 a9be 12d8 623e 770d 983d 1fd3 423e
00000030: 1a8d 73be b65e bf3e abbd 4e3e f13e efbd
00000040: 77ae d3be e90d 9f3e fc0a 0dbe 0373 fb3e
00000050: e689 a2be 24ed 1e3f a184 cc3c 6a50 b5be
00000060: bc6a adbe 0144 af3e e052 f1bd 0b07 f03d
00000070: 9828 7a3e c3ae ab3e 74df d03e ea55 cb3e
00000080: fec5 8bbe 8e5f 2cbe c0ab 813e 0984 b9bc
00000090: 649e 183c 5fa7 ba3e 2ebf 933e d7ff 39be
000000a0: 209a b53e 55e2 ffbe d668 8ebe 176c 94be
000000b0: c744 1fbe d306 94be ee9d 25be aeb1 f33d
000000c0: 1b8b 9a3c 9990 5a3e 0c4d 8f3d 82bd e63e
000000d0: e691 38be fed4 97be 2c33 debd b4fe 033f
000000e0: ef5c 823e cb10 bebe 8b57 1c3e 15fd 473f
000000f0: f5b4 8dbe dd83 7a3e 93a2 063e 4f9d 373e
00000100: 2320 183e 1f9d 0c3d 5d05 30bd 2f4b 933d
00000110: 3098 47bf 4962 3e3d 64ca 953d a624 08bd
00000120: a647 8e3e 4786 0a3f 71d1 64bf 9555 a7bd
00000130: a459 81be 3b80 e8be fd99 143d c174 a8be
00000140: 12ec 673e 0f88 853d 53e2 0f3f 18ed ff3d
00000150: dcbc 963d 6def a6be 430f 753e 60f0 1d3f
00000160: da98 c13e 14d3 4b3e 8e2f 83be 1ecf df3e
00000170: 8cf5 d53c f7ad 8e3e 88e8 2cbf 5e7a c43d
00000180: 3593 6bbf 9796 e93e 071e 1e3f e32b a43d
00000190: b27c 5bbe 9c33 953e 35df 963d c4c7 843d
000001a0: 3a11 6d3e 18db ec3e effa b7be f955 cd3c
000001b0: f4c8 003f 937d 96be 0e9a 27be 5fc8 973e
000001c0: c47a 6d3e 3f35 a0be 8a8a 97bd 3468 2c3d
000001d0: 7240 8cbe 4caa c4bd 6f74 9abe a0da 02be
000001e0: 9e22 06bf 902f e63e 8a7a edbe fd2d da3c
000001f0: f8d1 f33e 80e6 d6bd cf45 0bbf d503 b53c
00000200: d13b 9e3e 388e 3ebe 5a6d c63d 6d45 b0be
00000210: 64cf 3c3e 6eb9 3bbe 71fb 3dbe f3c8 a43e
00000220: bdbc 443e 6692 f23a 9894 d9be 0f3a f43d
00000230: 2297 46bd 61ed c5bd ef6b 923d 4991 3fbe
00000240: bc69 733e 8256 9dbe 82d2 a43e 2a57 3b3e
00000250: 636c 6abd f5f0 533e 0ca3 03bf 95e9 0ebf
00000260: 30c2 dabd a414 023f cb89 ac3e 1ca7 1bbe
00000270: 3743 993e 61aa 953e 5155 95bd 1ee5 823e
00000280: e69f fcbe 45c7 1ebf b874 693e 6b5a 12bf
00000290: 7965 ad3d 7cc9 c8be ab35 8b3e 23a7 6b3e
000002a0: dbcf 6b3e 8b76 9dbe 94d9 9d3e 27d7 78bd
000002b0: 37a8 fa3d cb09 503e 3173 ec3e 615e b1be
000002c0: 1b49 8abe 9e07 cf3d ebcb 093e eee5 1f3d
000002d0: a6ae 3bbe f450 4dbe d29f 4e3b bccb 0dbd
000002e0: 3139 debd 1aed 98be 5166 593e 43c7 123e
000002f0: 0514 c4be d76a 8ebc 57b3 92bd 8e83 d63e
00000300: dc9b 63be 3981 343f 32a6 603e 938a 273e
00000310: dbbe 1e3d b366 933e 7634 3ebe 8cde 56be
00000320: 9f99 963e bed0 ac3e bfb4 43bf 5fdf 70be
00000330: 302c 7b3e 655b 0a3f b386 be3e 50b6 6f3e
00000340: bcee f2bd d512 02bf 4fcd 8fbe 34ab b6bd
00000350: 5355 c0be 769c c93d e20c db3e ddcf 0c3e
00000360: 6ffe 69be 0ed8 7cbe 84e9 203d 0e87 c1bd
00000370: 7f5f 523d e6a7 f4be 6cb9 bdbe 884d f73d
00000380: 6ff2 8dbd 565a cbbd a5b7 01bf e8f9 4abd
00000390: b969 893e 827b 083e a04d f43b f5cf a33d
000003a0: 80f3 0b3f 7f8e 9abd 94cd 89be 788a cc3e
000003b0: edab 183d 5f2e f5be cc90 83be 2d74 c0be
000003c0: de8d 29bd b08c c63d 5ca7 033e 822a 22bf
000003d0: 0271 02bf 5605 473d 0bec 093e e27f a93e
000003e0: 0be1 2cbe 6d58 603d 0168 8c3e e166 183f
000003f0: 4751 82be b8d5 af3d 8df9 c0be 8d43 893c
-0.11209812 0.09292255 -0.4598482 -0.051787265 0.41828552 0.34521583 -0.4320453 -0.2544167
-0.3307016 0.22152737 0.07424443 0.19025849 -0.23784295 0.37376946 0.2018954 -0.11681927
-0.41344044 0.310653 -0.13773721 0.49111184 -0.31745833 0.620806 0.024965586 -0.35412914
-0.33870494 0.3423157 -0.11783385 0.11720093 0.24429548 0.3353177 0.4079548 0.39713985
-0.27299494 -0.16833326 0.25326347 -0.022645967 0.009315107 0.3645582 0.28856796 -0.18164001
0.3546915 -0.49977365 -0.27814358 -0.28988716 -0.1555358 -0.28911456 -0.16173527 0.11899124
0.018865159 0.21344222 0.069971174 0.45066458 -0.18024406 -0.29654688 -0.10849604 0.5156052
0.25461528 -0.37122187 0.1526777 0.7812055 -0.27677122 0.24464364 0.13147955 0.17931102
0.14856009 0.03432953 -0.042973865 0.071920745 -0.77966595 0.04648045 0.073139936 -0.033238076
0.27789038 0.5411114 -0.8938208 -0.0817062 -0.25263703 -0.45410332 0.036279667 -0.32901576
0.22648647 0.06520092 0.5620472 0.12496394 0.07360241 -0.32604542 0.23931603 0.6169491
0.3781193 0.19904739 -0.2562222 0.43712705 0.026118062 0.278671 -0.67542315 0.09593652
-0.92021495 0.45622703 0.6176457 0.08016183 -0.21434286 0.29140937 0.07366792 0.06483415
0.23151103 0.46260905 -0.35933635 0.025065409 0.5030663 -0.2939268 -0.16367361 0.2964506
0.23191363 -0.31290624 -0.07399471 0.042091563 -0.27392918 -0.09602794 -0.30166957 -0.12778711
-0.5239657 0.44958162 -0.46382552 0.026633257 0.4762113 -0.10493183 -0.54403394 0.022096554
0.3090501 -0.1860894 0.09688826 -0.34427968 0.18438488 -0.18332455 -0.18552949 0.32184562
0.19212623 0.0018506765 -0.4249618 0.11925136 -0.048483975 -0.09664417 0.07149493 -0.18707766
0.23770803 -0.30730063 0.32191855 0.18294969 -0.057232272 0.20697387 -0.51420665 -0.5582517
-0.106815696 0.50812745 0.33698878 -0.15200466 0.29934093 0.2923155 -0.072916634 0.25565428
-0.49340743 -0.6202281 0.22798431 -0.57169217 0.0846662 -0.3921622 0.27189383 0.23012976
0.2302851 -0.30754504 0.3083006 -0.06075206 0.12239116 0.20316236 0.46181634 -0.34642318
-0.270089 0.10108875 0.13456695 0.039037637 -0.18328342 -0.20050412 0.0031528366 -0.034618124
-0.10850752 -0.29868394 0.21230437 0.14333825 -0.38296524 -0.01738493 -0.071631126 0.41897243
-0.22227424 0.7050968 0.21938398 0.16361456 0.038756233 0.2878929 -0.185747 -0.20983332
0.2941408 0.33753008 -0.7644767 -0.2352271 0.24528575 0.54045707 0.37212142 0.2340939
-0.11861941 -0.50809985 -0.28086326 -0.08919373 -0.37565097 0.09844296 0.42783266 0.13751169
-0.22850965 -0.24691793 0.039285198 -0.09449588 0.051360603 -0.47784346 -0.37055528 0.12075335
-0.06931006 -0.099293396 -0.50670844 -0.049554735 0.26838472 0.13328364 0.0074555427 0.07998649
0.54668427 -0.0754671 -0.26914656 0.39949393 0.037273336 -0.4788694 -0.2569641 -0.37588635
-0.04139506 0.09694803 0.12856811 -0.6334611 -0.50953686 0.048589073 0.1346895 0.3310538
-0.16882722 0.05477183 0.274231 0.5953198 -0.25452635 0.085856855 -0.37690392 0.016755844

network_body.linear_encoder.seq_layers.2.bias f4 [64]
00000000: 73b2 463d a75b 0a3e 3e01 d53d 4724 c63b
00000010: 7e90 153d 1c4e f93d 7494 ed3d f2b4 503c
00000020: fbef 613d eb77 f53d 8f87 0e3c 3b17 ab3d
00000030: c5da 8dbc aff9 d63d 17e0 fd3d a958 313e
00000040: c0f4 953d 13a5 623d 2ab9 103c 2895 323d
00000050: e259 673d 9a82 9e3d 937b 8b3d e153 d6b9
00000060: 1be8 0c3e 0258 a93d 7fbf 16bd 636c 8b3d
00000070: baa1 fb3d a571 ee3d 26cf cd3d 2044 a63c
00000080: 8a2f 563d d075 113e 2e7c e73d dc19 853d
00000090: b5ec a23c 14e6 153d 1a26 1d3e 3017 f8bc
000000a0: eac0 e43d d97e 073e b9d8 b63d e7ec 403e
000000b0: 517a eb3d 709a 99bc e5e7 a53d 2cc5 793d
000000c0: be0f 15bc 5202 163a ca6f 53bc 5dbb aa3c
000000d0: e86a af3d 3b33 153e 36de 173e 6632 7c3d
000000e0: f554 9b3d 30c6 bc3d 4c2b 8e3c d680 413e
000000f0: 7ddd b93d b407 b93c 2662 f63d f202 b93c
0.048510026 0.13511525 0.104006276 0.006046805 0.03651475 0.12173101 0.11600581 0.012738453
0.055160504 0.11985763 0.008699312 0.0835404 -0.017316232 0.10496842 0.12396257 0.17318977
0.07322073 0.05533321 0.008833209 0.043599278 0.056482203 0.07739754 0.06810679 -0.00040879755
0.13760416 0.08268739 -0.03680372 0.068077825 0.12286706 0.1164277 0.10049276 0.020296156
0.05229143 0.14205098 0.11302982 0.06499073 0.019888261 0.036596373 0.15346566 -0.030284494
0.11169608 0.13231982 0.08928055 0.18840371 0.114979394 -0.0187504 0.08100871 0.060979053
-0.0090979915 0.00057223917 -0.012905071 0.020841295 0.085653126 0.14570324 0.1483086 0.0615715
0.07584564 0.09217489 0.01735463 0.18896803 0.09075449 0.022586681 0.12030439 0.022584412

network_body.linear_encoder.seq_layers.2.weight f4 [64, 64]
00000000: d4a5 563e ea75 43bd 819b 61bd 059f 153e
00000010: 4c71 efbc 76e1 1e3e 9a33 bd3e cbd7 0cbe
00000020: 9c61 d13c b19a 9c3e 8ce5 4fbe 5675 3ebd
00000030: 6631 edbc e8b8 2d3e 15a5 02bc f9a7 bdbd
00000040: fba3 eabc 68a0 483d 2c48 693c f232 8f3d
00000050: 1e14 89bd 73f1 143e 1384 233d 56c5 26be
00000060: 1e80 9cbe 82f5 f43d 111b 9d3e bb32 efbc
00000070: 1209 863e 6b5a 24bd 08db b9be 7d8b 55be
00000080: ee9b 893e 8050 c13c 46ec 403d 4fb2 3fbd
00000090: a4aa 5b3d 6135 043e b65b bdbd d595 983d
000000a0: 86df 1f3e b761 4f3d 3988 b63e 6699 fabd
000000b0: ae6e dabd 1a19 04bf 2f85 5bbe 5bd1 64be
000000c0: ca64 3abe 6ef7 e1be ad61 883e 0551 bb3c
000000d0: a657 02bd c625 543d 8406 ebbd b09a 933e
000000e0: d4d0 273d 0a06 c43d 028f 69be 2d51 15bd
000000f0: 657a 5dbe 6ea2 d83d ab65 bcbd 4943 10be
00000100: da07 e83d 92d7 8a3e c59c 9bbd 17a2 753e
00000110: aab6 a8bd d335 80be 9dc5 a83d 4660 c83d
00000120: c816 5cbe 9145 a5bd ffff b93d 2cdd 213e
00000130: 9f40 9f3d 723d 35be b981 c53b c4fc 96bd
00000140: 33a8 343e 1de7 30be 8174 6e3d 5822 183d
00000150: 1f43 3f3c 1be4 59bd dcf7 0b3e 5f74 25be
00000160: 7f6b 493e ce2a 5f3e 917d 593e e92a 65bd
00000170: 6ab8 6d3e d8c9 203c 9549 523d f1ed 933c
00000180: cfcf f5bd 238e acbd 50ea e8bd b10d 09be
00000190: 527c 0b3e 0035 d63e 8d4f 783e 411f e8bd
000001a0: 729a 203e 64cd 40be 59f0 0abe aade 393e
000001b0: 3ee2 55be f8fa 013e fcde 99bc f423 b03d
000001c0: e919 6c3e 1952 493e 6935 183e 3969 c5bc
000001d0: 8049 97bc 70c1 0f3e 55cd 0cbc acbf 95bd
000001e0: ac2c 49be 52f4 903d 4459 b63e cd6e 553d
000001f0: 9687 aa3b e505 cf3d 59df f43d cd7b f0bd
00000200: 5469 7abe b98a 783e d5bd 883d 6449 813d
00000210: 8f67 00bd 6ed5 fcbc 4448 413e 9d31 983e
00000220: 2a40 66bd cd0f 273e 14f8 91bd 3626 b73d
00000230: 1b13 0b3d 8da9 c43e dc15 853d 373c 54bd
00000240: 6a3e ccbc 40c8 53be 9e9f 11be effb 92be
00000250: ebdb 9abd 987a bdbc ae6e bebe b87a 36bd
00000260: 679e d3bc 637a 003d 60e2 73be 23e0 20be
00000270: 878f 7c3d 8739 d8be 3add 0fbe 2d4c 763e
00000280: 7d76 373e 50c3 2fbe 7dd0 bbbc 20b4 ef3d
00000290: 32e2 e9bd 8feb c4bd b271 21be 97ad c3bd
000002a0: 980f a5bd 6916 edbd 4d16 a13b 02f5 b7bb
000002b0: a82b 42bd 4fe7 303d 6409 bd3c f17d 1bbd
000002c0: 621e a13d c10d dd3d 9a4d 0d3e 7255 963e
000002d0: 8119 17be 7b4f e4ba f62b fbbd 6a78 013e
000002e0: 749c 83be 18d3 60be 8cd3 ea3c a97d 0b3e
000002f0: 289c 72bb 6589 6c3d a133 cd3d 11f7 933e
00000300: cdc1 003d 74c4 8fbe ec0f 993e 4a9a 0bbd
00000310: d699 bbbd 5993 8bbc 3863 183d e7f8 62bd
00000320: 2dc9 0abe a050 9b3e dc73 863c 3c24 0e3e
00000330: a31d 9e3d 1441 ecbd aa78 093d 0400 273e
00000340: 04b1 773d ad9d 893e a347 09bc 3004 5a3e
00000350: 55e4 b4bd 2b36 ccbc f725 1bba 3504 5dbd
00000360: b753 cabe fc3b debd e6c1 8a3c dd51 533e
00000370: 34b9 19bd dc36 e53d ac3c 34be 145f cabd
00000380: af16 c43d 4381 a5bd dbdc f13d 3e4c 44be
00000390: 07cd 2dbe 2f2f 96bd cc37 283e df0a d43c
000003a0: 6a12 99bc ca3b 143e c721 383e defc e83d
000003b0: 5baf 11bc 585b 0b3e bafe 0f3e 15c0 21be
000003c0: 12cd 7ebe 8c2b 33be 89a0 173e 6eba 18bd
000003d0: e8ac 983e 777b 1fbe 9bea 2abd bf46 ddbd
000003e0: 93f0 733d f94b 2ebe bada fdbd 6bf0 42bd
000003f0: 68de 6ebd 8eea 6d3c 6e50 0dbe bdbe 7bbe
0.20961696 -0.047719873 -0.05507994 0.14611442 -0.029228829 0.15515694 0.3695343 -0.13754193
0.02555924 0.3058677 -0.20302409 -0.04649862 -0.02895422 0.16965067 -0.007973929 -0.09260554
-0.028642645 0.0489811 0.0142383985 0.06992139 -0.0669329 0.1454523 0.039920878 -0.16286215
-0.30566496 0.119608894 0.30684713 -0.029198995 0.26178795 -0.04012529 -0.3629992 -0.20853992
0.26876777 0.023597956 0.047100328 -0.046800908 0.053629532 0.12910987 -0.09246008 0.07450453
0.15612611 0.050630298 0.35650805 -0.1223629 -0.10665642 -0.516008 -0.21437524 -0.22345488
-0.1820251 -0.44134086 0.2663702 0.022865782 -0.03182187 0.051793836 -0.11475852 0.28828955
0.04097064 0.09571464 -0.2280846 -0.03645437 -0.21628721 0.10577856 -0.09199079 -0.14088167
0.113296226 0.27117592 -0.07598261 0.23987614 -0.082379654 -0.25041065 0.08240817 0.09783988
-0.21493065 -0.08069909 0.090820305 0.15807027 0.07775997 -0.17699221 0.006027427 -0.0737243
0.17642288 -0.17275663 0.058216576 0.037142128 0.011673718 -0.053196054 0.1366877 -0.16157673
0.19669913 0.21793672 0.21239306 -0.055949125 0.2321488 0.009813748 0.051339705 0.018057795
-0.12002527 -0.08425548 -0.113728166 -0.13384129 0.13621643 0.4183731 0.24249096 -0.11334086
0.15683916 -0.1882835 -0.13568248 0.18151346 -0.20887086 0.12693393 -0.018783085 0.086006075
0.23056759 0.19660224 0.14864124 -0.024098026 -0.018467665 0.14038634 -0.008593877 -0.07311949
-0.19645947 0.070778504 0.3561498 0.05210762 0.0052041514 0.10108546 0.11956663 -0.11742363
-0.24454242 0.24271668 0.066768326 0.06312826 -0.03134876 -0.03086349 0.18875223 0.29725352
-0.056213535 0.16314621 -0.07127395 0.08942835 0.033953767 0.38410607 0.0649831 -0.051815238
-0.024932105 -0.20681858 -0.14221045 -0.28707835 -0.07561477 -0.023129746 -0.37193817 -0.044550627
-0.025832368 0.031366717 -0.23816824 -0.15710501 0.061660316 -0.4223139 -0.14049235 0.24052496
0.17916293 -0.1716435 -0.022926563 0.11704278 -0.114200965 -0.09615242 -0.15766028 -0.09554594
-0.08059615 -0.1157654 0.0049159885 -0.005613924 -0.047404915 0.043189343 0.023075767 -0.037961904
0.07867123 0.10793639 0.13799134 0.29362065 -0.14755823 -0.0017418707 -0.12264244 0.1264359
-0.25705302 -0.21955526 0.028665327 0.13622154 -0.0037019346 0.057748217 0.10019613 0.28899434
0.031434823 -0.2807957 0.2989496 -0.03408269 -0.09160201 -0.017038034 0.037203997 -0.055413153
-0.13553305 0.3033495 0.016412668 0.1388101 0.077204965 -0.1153585 0.03356234 0.163086
0.06047155 0.2687811 -0.008378896 0.2129066 -0.088326134 -0.024928173 -0.0005918438 -0.05395909
-0.39516994 -0.10851285 0.016938161 0.20636697 -0.03753014 0.11192104 -0.1760127 -0.09881416
0.09574639 -0.08081295 0.11809703 -0.19169709 -0.16972743 -0.07333218 0.16427535 0.02588409
-0.018685538 0.14475933 0.17981635 0.113763556 -0.008891906 0.13609064 0.14062014 -0.1579593
-0.24882916 -0.1749708 0.14807333 -0.03728717 0.29819417 -0.15574442 -0.041727643 -0.10804509
0.0595556 -0.17021169 -0.123952344 -0.04759256 -0.058317572 0.014521254 -0.13800213 -0.2458448

network_body.vector_processors.0.normalizer.running_mean f4 [13]
00000000: 3cb6 6d40 3169 5641 9348 4940 6c22 2abf
00000010: f509 9f3d a971 ab3d 8fbf 243f 76fb f83d
00000020: 540c 263d c15d b53d ff12 91ba 092c 67bd
00000030: d883 233d
3.7142477 13.4006815 3.1450546 -0.66458774 0.07765571 0.08371288 0.64354795 0.12157337
0.0405391 0.08855773 -0.0011068283 -0.05643848 0.039920658
