Assets/ML-Agents/Experiments/CalmHover/HoverNoBall.onnx (onnx, 23839 bytes, 9 tensors)

62 f4 [13]
00000000: 4b05 2441 7463 c540 db84 5c41 42d6 f63d
00000010: d895 1f3e 52f5 1c3e 4d1e 063e f81c 1e40
00000020: a483 0240 ed0b 3240 ebca 713f 20fd d73f
00000030: 8124 7b3f
10.251292 6.1683903 13.782435 0.12052585 0.15584505 0.15327957 0.13097496 2.470518
2.0392847 2.781978 0.94450253 1.6874123 0.98102576

action_model._continuous_distribution.log_sigma f4 [1, 4]
00000000: 7af5 8abf d09a 63bf feb8 1cbf f703 81bf
-1.0856164 -0.889081 -0.61219776 -1.0079335

action_model._continuous_distribution.mu.bias f4 [4]
00000000: 9ef3 95bd ce3b a13b a514 9d3b 61c3 f8bd
-0.07321857 0.0049204594 0.004793721 -0.121466406

action_model._continuous_distribution.mu.weight f4 [4, 64]
00000000: ace6 f7be e1d9 3bbe 883c 1c3d 2d67 673e
00000010: e80b f1bc 8f3f be3d e5bb 51be 6164 393d
00000020: 3e2f 263e 0a94 503b 4095 a23d 01cd 71bd
00000030: 9961 3bbe d269 ab3d 7231 353e 487d 5a3e
00000040: a15c 863e d8ec adbd acd7 53be 0481 863d
00000050: 89e8 77be b57d 853c 7496 68bd af9f 1fbe
00000060: ef75 0bbe ebbb 64bd 151d 47be c163 c5bd
00000070: 13c9 e63d 65c7 0d3e f7e9 ecbb f5ad 61bd
00000080: b286 fc3d c8c9 3dbe cb94 e7bc 736b 5cbe
00000090: a096 143e b4b6 0f3e 50d9 38bd 66cc d33d
000000a0: 23df 18bd abba bebb 9651 3b3e a015 283e
000000b0: 1aa8 11bd 42f1 81be a3cb 89bc c3a3 fd3d
000000c0: d6ff f7bd c92c e03d bc13 833d a9a9 853e
000000d0: 5603 d9bd a1aa e83d 6667 dfbc 2b2c 3f3e
000000e0: 9a09 0f3e a218 473e 862e 253e a328 1fbe
000000f0: 0ba3 20be ece4 9b3d c968 4b3e 8951 3a3e
00000100: 653a 033e 4045 4dbd 820b 96bd 41d4 40bb
00000110: fc76 5bbb 7cd5 8e3c bf76 bcbe 84ca 113e
00000120: 7d98 3c3e e918 73be 5d3e 8abd 24da 0bbe
00000130: 2607 33be 2d27 efbd 4772 703d bb20 2d3e
00000140: 00e8 43be f6d9 ce3c b61b 213e 252d 12be
00000150: 85ec ddbd 0bf8 7ebd 7745 793e 37a4 3a3e
00000160: d885 a13d ad95 73bd c3ac 713e 4bff 593e
00000170: bb2e 31be 2c75 93be 3e23 c3be 8087 afbc
00000180: 0c8a 55bd e238 323e f52e fdbd a9a9 2cbd
00000190: 438c 943e cd64 66be 4150 23be 9471 25bd
000001a0: f1d7 8ebc bbc1 98be a8e3 87bd b78c fb3d
000001b0: 7996 4d3e ee3f 88be 95ed 453d 8033 85be
000001c0: f604 99be 9a56 4e3c 68ec 48bd a903 fb3d
000001d0: 12b7 8ebe 6ba6 4d3e 6dec 193d 5f5a 3b3d
000001e0: ee33 16be 0d78 e5bd cd15 17bb 84e4 76be
000001f0: e2e1 09bd f6be c73d 6ac7 a33d 9751 fa3d
00000200: ad10 9fbd 0f98 b73d a20c 413c 4af7 e73c
00000210: a9b5 ea3c e3f1 2cbd 5f0a ba3c c034 bc3d
00000220: 7296 113e 4ce3 1b3b 8b99 22bc 9c76 353d
00000230: d409 5bbd 8e62 dd3d 280d 56bd 38ca 06ba
00000240: 4f3f 85bd b851 fabc 7ed2 1f3b 1df4 8cbd
00000250: 3b79 54bc 42ad a7bd d75f 3ebd ddc3 813d
00000260: 8221 9f3c 80fa 18bc 8fa3 bdbd a0c0 cd3d
00000270: 544b a8bd 43c5 ba3b b358 09bb ddae 27be
00000280: d565 15be 2ad9 dcbd 6b89 cbbd a50f 973d
00000290: baf8 94bc 45f0 833c cb27 bebc e590 05bd
000002a0: 5029 163e 7cce 23bd 7d55 7c3b 4347 743c
000002b0: 88e3 a2bd 40c4 15bd e904 b43d f9ae 863d
000002c0: 5695 d43d 80ca edbd ff1f 1d3e 5bc1 cebc
000002d0: 7f7e b23d 9d21 7ebd b026 abbc a4fc 343d
000002e0: bff4 babd 4bba efbd cd06 81ba 92a6 a43d
000002f0: 8fc5 3b3d 258d 263c e445 b6bc 0032 ff3c
00000300: 586b c3bc 3498 babd ab83 833c 5d05 1e3d
00000310: 97ff a83e 09c0 22be 99e9 a9bd 92fb c3bd
00000320: 1c98 8c3d 015f 72bb 8784 bb3e 01b1 d7bd
00000330: 0140 e4bd ce40 1abe 49c6 06be c1ac 18be
00000340: 0e5c 95bc f9e2 f5bd 67a5 7ebd 6f56 e1bd
00000350: fdeb 17be cfad 983e 20fd be3d 73e9 473e
00000360: fd6b 27be 7aa7 0a3e aade 2bbd 53a4 043e
00000370: 080b ffbd 08f9 8e3d f6f5 963d bff4 a93d
00000380: 0b82 253e 4e00 e2bd fcb8 123e d127 14bd
00000390: b9de bfbd a6e0 09bd 9fdc 48bc c6f8 cf3d
000003a0: ab22 87bb 4936 9dbd 9e3b 42be a063 ea3d
000003b0: 1d4f 37bd 973d 383e b96d 8fbd ea54 84bc
000003c0: 0033 a1bb 3a17 0c3e 7950 b73c 98cd 07be
000003d0: f45d e53d 5e02 9a3b 7010 e5bd 3882 653e
000003e0: bf05 81bd 4fbd 1b3e 34fd 07be 2148 0abd
000003f0: 3007 0cbe 8f62 9abd fb6f 07be 3576 953e
-0.48418176 -0.18344833 0.038143665 0.22597952 -0.029424623 0.092894666 -0.20481832 0.045261744
0.16228959 0.003182652 0.079386234 -0.059033398 -0.1829895 0.08369793 0.17694643 0.21336854
0.26242545 -0.0849244 -0.20687741 0.065675765 -0.24209799 0.016295293 -0.05678411 -0.15588258
-0.13619207 -0.055843275 -0.19444688 -0.09638167 0.112688206 0.13845594 -0.007230039 -0.05509754
0.123303786 -0.18534005 -0.028269192 -0.21525364 0.14510584 0.1403454 -0.04512912 0.1034172
-0.037322175 -0.0058205924 0.18292841 0.164145 -0.035560705 -0.25379378 -0.016820734 0.12384751
-0.12109344 0.10946042 0.064002484 0.26106003 -0.105963394 0.1136067 -0.027270984 0.18669192
0.13968506 0.1944299 0.16131029 -0.15542845 -0.15687196 0.07612023 0.19864191 0.18195166
0.12815244 -0.05011487 -0.07326414 -0.0029423388 -0.0033487668 0.017435782 -0.36809346 0.1423741
0.18417545 -0.23739971 -0.06750176 -0.13657433 -0.17483196 -0.11677394 0.058702733 0.16907017
-0.1913147 0.025250416 0.15733227 -0.14275034 -0.10836128 -0.06224827 0.24342905 0.18226705
0.07886857 -0.059468914 0.2360106 0.21288793 -0.17302983 -0.28800333 -0.38112825 -0.021426916
-0.052133605 0.17404512 -0.12362472 -0.042153988 0.2901326 -0.2249939 -0.15948583 -0.04039152
-0.017436953 -0.29835305 -0.06635219 0.122826986 0.20076932 -0.26611274 0.04832228 -0.26015854
-0.29886597 0.01259389 -0.04905358 0.122565575 -0.27874047 0.20083015 0.03757899 0.04574048
-0.14668247 -0.112045385 -0.0023053766 -0.2411061 -0.033662684 0.0975322 0.079970196 0.12222593
-0.077668525 0.0896455 0.011782797 0.028316159 0.028651075 -0.04222287 0.022710023 0.09189749
0.14217547 0.0023786603 -0.009924303 0.044302568 -0.05347617 0.108098134 -0.05225864 -0.0005141827
-0.06506216 -0.030556545 0.0024386938 -0.068824984 -0.012968357 -0.08187343 -0.04647812 0.06336186
0.019425157 -0.009337068 -0.09259712 0.10046506 -0.08217493 0.005699785 -0.002095741 -0.16375299
-0.14589627 -0.10783608 -0.0993832 0.07376031 -0.018185008 0.01610578 -0.023212334 -0.032608885
0.14664197 -0.03999184 0.0038503103 0.014909568 -0.079535544 -0.03656411 0.08789999 0.06576342
0.10380046 -0.116108894 0.15344237 -0.025238683 0.087155335 -0.062043775 -0.020892471 0.04418625
-0.09128713 -0.117054544 -0.0009843946 0.08039583 0.045842703 0.010165487 -0.022250123 0.031151772
-0.023854896 -0.09111062 0.016053995 0.038579334 0.330075 -0.15893568 -0.08296508 -0.095694676
0.0686495 -0.0036982896 0.36624548 -0.10531808 -0.1114502 -0.15063784 -0.13161577 -0.1490965
-0.018232372 -0.12006182 -0.06216946 -0.11002814 -0.14836116 0.29820105 0.093256235 0.19522648
-0.16349788 0.1354045 -0.041960396 0.1295331 -0.12453276 0.06981093 0.07371132 0.08298635
0.16162889 -0.11035214 0.14328378 -0.036170784 -0.09368653 -0.033661507 -0.012259631 0.10154872
-0.004124006 -0.0767637 -0.18968055 0.11444783 -0.044753183 0.17992245 -0.0700335 -0.016153771
-0.0049194098 0.13680735 0.02237724 -0.13262022 0.11199561 0.004699989 -0.11184776 0.22412956
-0.06299924 0.15208934 -0.13280183 -0.033760194 -0.13674617 -0.0753833 -0.13226311 0.29191747

network_body.linear_encoder.seq_layers.0.bias f4 [64]
00000000: b04f 7a3e faf2 0f3e 138f 0b3e 376d 9c3d
00000010: 937d 2cbd baef 6f3e 9057 983e ba30 553e
00000020: 3535 ad3d c952 d53d aa44 c33d 654a 8e3e
00000030: bb8e d6bd 9b51 8c3e b85c 443e 1f5b 903d
00000040: 423b d6bd f58d 233e 75b6 223d 7404 983e
00000050: d3d0 053e 0bc4 e93c d585 803e e483 403e
00000060: a94d 4f3d 6bea 593e f1c5 d0bc 7671 f03d
00000070: c76a 053e c86a 4d3e 6588 28bc 3048 823e
00000080: 96a9 013e cf84 14bb 7caf 5a3e bf2c 2d3c
00000090: d661 77be 123b 453e ee22 f33d 2099 523e
000000a0: 55f2 f83b a753 a9bd 6c7b 343e 2c38 d3bd
000000b0: 7ba0 423e 8f8b a43c bc3c 5e3e cca7 a9bd
000000c0: cc5e bf3d 519e 893e 032a 3abd 74f7 80bd
000000d0: 6178 033e 3f6d 733d 3c18 393e 5991 6b3e
000000e0: bac2 633e df71 1f3e e454 fb3d 7b3c 63bd
000000f0: c77d e23d ccf9 223d fe15 4d3e 3a63 873e
0.24444461 0.14057532 0.13628797 0.076380186 -0.042111944 0.23431292 0.29754305 0.20819369
0.08457414 0.10416181 0.09534581 0.27791134 -0.104764424 0.2740601 0.19175994 0.0704863
-0.10460521 0.15972121 0.039724786 0.29690897 0.13067941 0.028535863 0.25102106 0.18800312
0.050611172 0.2128083 -0.02548501 0.11740391 0.13029014 0.20060265 -0.010286425 0.254457
0.12662348 -0.0022662168 0.21356004 0.01056975 -0.24158415 0.19260815 0.11871897 0.20566225
0.0075972476 -0.082679085 0.17625207 -0.10313448 0.19006531 0.020086078 0.21702856 -0.08283958
0.09344253 0.26878598 -0.04545022 -0.06297198 0.1283889 0.059430357 0.18075651 0.23004664
0.22242251 0.15570782 0.12272051 -0.0554776 0.110591464 0.039789006 0.2002792 0.2644289

network_body.linear_encoder.seq_layers.0.weight f4 [64, 13]
00000000: 3ab0 703e 1dc5 0bbf b7ea a03e 28cf 0bbf
00000010: 4cf4 5bbd 2bbc fc3d d666 1a3f 8173 8cbd
00000020: cca6 2b3f aef0 2b3e 1e04 db3e 4b71 f5be
00000030: eeb8 603e 6ce9 97be 2c25 753e 75c3 613e
00000040: 580f 2e3d 6d61 55bf 64ea c2be 1696 d23e
00000050: c7ff aebd 8b32 0ebe 65e4 f2bd ea3a a93c
00000060: 1ca3 83bd f12f 90be 8e0d 30bf 6ce7 003d
00000070: 51bd 373e 071d 333e 2199 113f 8b93 bbbe
00000080: 2ade 053d 060b d43e f9e4 17bf 505b f13e
00000090: 32e6 cebc 63e4 03bd 28e7 7f3c b476 123e
000000a0: ba0c 883c d804 44be 1b93 6b3e 23d1 d73d
000000b0: 0973 0f3e 7568 f53e c669 c73e 98c5 2d3e
000000c0: d9a0 603e 5fe8 02bf 32ee 863e 6ad9 15bd
000000d0: 636b 01be aabd c93d 1b10 f73d 3784 84be
000000e0: c87b 23bf f52e 2f3e 41a0 e5be 544c e7bd
000000f0: 185c 963e a189 3fba bb0d a4be 5285 8e3e
00000100: 7212 dbbe 1f89 843e 2a6f 623e 8fcf 2ebe
00000110: 0bae 0ebf 8d7f 863e e0fa de3b 2d08 29be
00000120: 9d1c f33e a3ab 093f cb6f 29bf fd8c 00be
00000130: 6f47 33bf 277f 173d 95b0 d13d c52a 093e
00000140: 80e0 a23b 1fca 1cbf a0ac b33e 9769 89be
00000150: 5bd9 fa3e aa10 aa3d aaf9 ed3e 7aaf 1b3e
00000160: 3d45 473e b755 723e 8864 153f 79d3 46be
00000170: d2eb fb3d 6373 033f 1763 6c3e 018f c03e
00000180: 033d 033f 9e4d 9a3e bb45 7b3e d45a f63e
00000190: be05 a63d a2d0 bd3e 4683 2ebd 87f2 1abf
000001a0: 46d8 553e 167f 303e a872 42bd 83c5 e53e
000001b0: c876 e43d a7b4 12bf 64aa 22bd e7b2 523c
000001c0: 232d 66be 7dea 143d 48db c33d 0fed 82be
000001d0: b7ef a7bd 0354 c63c 6fb7 7abd cb22 7a3d
000001e0: 1854 88be e9b2 a43e f554 e9bc 3343 02bf
000001f0: 7fcb a63e 1b22 33bc e2eb 1bbf 3e59 d8be
00000200: 1e49 b2be 6841 de3d 4a9c df3e 9abb 403e
00000210: cb4b 153f 31f6 5c3e 7c89 843e 36e5 c6be
00000220: df34 83bc d96d 67be d5ee 573e 145a df3e
00000230: ee91 eb3e a1b7 e93d 119a 643d b155 57be
00000240: 7287 de3d 465d 39bd fe8a 01be dcbc e9be
00000250: 010d b93d 0938 2f3f 7d4b cdbe 2a02 ef3e
00000260: 6d63 173f 077d f2bd e069 80bd e715 c3bd
00000270: 6275 663d c487 afbd 3c97 c0be c486 c03d
00000280: 2cb5 cdbe cf28 b93e 08b1 b0bd a529 bbbd
00000290: 5cb7 22be b83b 863d b013 6a3e d57a 85bd
000002a0: 47f3 203e 2b59 153e 46f9 e6ba 1f6d 8abe
000002b0: 6ec1 27bc 19a4 c03d 7082 d3be 82ea 6f3e
000002c0: 2a26 7a3e ee0a 233f 130a 963e 405e bb3c
000002d0: fc1b ab3e 77a0 3dbd db7f ba3e f4dd a3be
000002e0: 61d0 e0be 503c f93d 8ff1 343d 610d c23d
000002f0: 6ad7 fc3e 7771 0a3f 1cc9 86bf 1296 88bd
00000300: 5732 003f 7f84 d83d 961a 953e 26e5 053e
00000310: 7f43 debe 3a60 c9bd 647c 453d d6c7 49bd
00000320: 45c8 0ebe db16 883e 4d37 853e cbba fb3e
00000330: 7bf7 e6be 8f48 46be 2483 8a3e 761a 12bf
00000340: b0f3 b53d c348 0bbe 75be 7f3d 88c3 533c
00000350: 25b2 4b3c b311 98bd b1e8 73bf bf69 aebe
00000360: afa7 523e ec7b 1ebe e3ac 723e 936e cf3e
00000370: 55ee bc3e a804 35be 469c 88be 6123 943e
00000380: e208 4bbf 7570 743d 0d70 c3bc 707c aebe
00000390: f64e 7c3d a53d 0f3f 8d69 c73d 37bc 57be
000003a0: 953c 053f 418f 1a3e 2fb3 4dbd d106 9a3d
000003b0: 3f40 ab3e 8e2b 133e 5730 08be cbd9 d73e
000003c0: 8d45 fcbe 4069 a1be 13bc a8be df58 d53e
000003d0: 829d 1e3e 5079 193e f965 1abe 778c e8be
000003e0: b280 4a3c 41f5 febc 18e5 90bd 0677 15bf
000003f0: cd7d acbe 3a5f 743f 4055 2f3f a923 afbd
0.23504725 -0.54597646 0.31429073 -0.5461297 -0.053699777 0.12340578 0.60313165 -0.06857968
0.67051387 0.16791031 0.4277658 -0.47937998 0.21945545 -0.29670274 0.23939961 0.22047217
0.0424951 -0.83351785 -0.3806945 0.4113013 -0.085448794 -0.13886468 -0.11859969 0.020657975
-0.06427595 -0.28161576 -0.6877068 0.0314707 0.17943312 0.17491542 0.5687428 -0.36636004
0.032682575 0.4141466 -0.5933376 0.47139978 -0.02525625 -0.03220023 0.015619077 0.14303094
0.016607631 -0.19142473 0.23005335 0.105379365 0.14008726 0.47931257 0.38947886 0.16969907
0.21936359 -0.5113582 0.26353604 -0.036584295 -0.12638621 0.09850629 0.12063619 -0.25882122
-0.6386075 0.17107756 -0.44848827 -0.11293855 0.29367137 -0.000730658 -0.32041726 0.2783609
-0.4278751 0.25885865 0.22112718 -0.17071365 -0.5573432 0.2626919 0.006804809 -0.16507025
0.47482768 0.5377752 -0.6618621 -0.12553783 -0.70030874 0.036986496 0.102387585 0.13395222
0.00497061 -0.6124591 0.3509264 -0.2683837 0.48993954 0.0830396 0.4647954 0.15203658
0.19460006 0.2366551 0.58356524 -0.19416608 0.123008385 0.5134794 0.23084675 0.37609103
0.5126497 0.30137342 0.24538319 0.4811617 0.08106564 0.37073237 -0.04260566 -0.6052632
0.20883283 0.1723598 -0.047472626 0.44877252 0.11155468 -0.57306904 -0.03971328 0.012860036
-0.22478156 0.036356438 0.09563309 -0.25571486 -0.08200019 0.024209982 -0.061210092 0.061068337
-0.26626658 0.32167748 -0.028482893 -0.5088379 0.3257713 -0.010933424 -0.60906804 -0.42255586
-0.3482141 0.10852319 0.43673927 0.18821564 0.58318776 0.2157829 0.25886142 -0.3884675
-0.016016422 -0.22600497 0.21087201 0.43623412 0.46009773 0.114119776 0.05581099 -0.21028782
0.10865678 -0.045254968 -0.12650678 -0.456519 0.090356834 0.6844488 -0.40096655 0.4668134
0.59136087 -0.11840253 -0.06270194 -0.09525662 0.05626429 -0.08570817 -0.37615383 0.094007045
-0.40177286 0.36163947 -0.08627516 -0.091388024 -0.15890259 0.06554359 0.22859073 -0.06517569
0.15717803 0.14584796 -0.0017621897 -0.27036378 -0.010238988 0.09406299 -0.41310453 0.23429301
0.24428621 0.6368855 0.2930456 0.02287209 0.33419788 -0.04629561 0.3642567 -0.32005274
-0.4390898 0.12169707 0.04417568 0.09475208 0.49383098 0.54079384 -1.0530124 -0.06669249
0.5007681 0.105721466 0.29121846 0.13075694 -0.4341087 -0.09832807 0.04821433 -0.049262844
-0.13943584 0.26579937 0.26018754 0.4916595 -0.45110688 -0.19363616 0.27053177 -0.57071626
0.0888437 -0.13601975 0.062437493 0.012925036 0.01243261 -0.07425251 -0.95276934 -0.34065053
0.20571779 -0.1547696 0.23698764 0.4051405 0.36900583 -0.17677557 -0.26681727 0.28933242
-0.7931043 0.05967756 -0.02385714 -0.34079313 0.06159874 0.5595344 0.09736929 -0.21067892
0.52045566 0.1509371 -0.05021971 0.075208314 0.33447453 0.14372084 -0.1329969 0.4215835
-0.49271813 -0.31525612 -0.3295599 0.41669366 0.15489772 0.14987683 -0.15077962 -0.45419666
0.012359785 -0.031122806 -0.07074946 -0.5838474 -0.33689728 0.95457804 0.68489456 -0.085517235

network_body.linear_encoder.seq_layers.2.bias f4 [64]
00000000: d183 743e 31ee 493e 9dac 3b3d 254c 653d
00000010: 29c9 65bd 0eb8 183e f4ed 6e3e 9614 0d3e
00000020: 907a 06bd fcb3 3b3d f112 53bd 7ea1 703d
00000030: 6443 2d3e da1a 833d 1fd7 e43d 12f3 1f3e
00000040: 7d54 223d 4c96 1d3e 5f6e 603e ca6e 1f3e
00000050: 31e7 6a3e 8cb7 653c 1626 ac3c d15d 953b
00000060: b6d0 623e 3c0e f9bd 1fd4 6f3e 8ce2 863d
00000070: cf32 143e 0bf4 193d 38d5 f53d 4a03 843d
00000080: d33c e0bd c5e6 763e f980 dbbd 34d5 183e
00000090: 7a4a 393e 9bad 0e3e 12be 043e 697f 3dbe
000000a0: 3798 e8bb becc 4b3d 98ff 873d fbad 37bc
000000b0: 1a6a 153e 4108 343d 6338 f23d e6d0 d93b
000000c0: 073c dc3d 2535 66bd da5e 1c3c ea0d e73d
000000d0: 714c 3e3d c78a d23d be55 403e 3542 6f3d
000000e0: 821b 273b 0e78 e0bd 376c 143e c5b9 273e
000000f0: 052a 3f3e 7212 f03d 7dd7 223d 78d7 05bd
0.23878409 0.19719769 0.045818914 0.05598082 -0.056100044 0.14913961 0.2333296 0.13777384
-0.03283173 0.045825943 -0.051531736 0.05874776 0.16920239 0.06401606 0.111738436 0.15620068
0.039631356 0.15389365 0.21917103 0.15569606 0.22939755 0.014020812 0.021014255 0.004558303
0.2214993 -0.12160918 0.23420762 0.06586179 0.14472507 0.037586253 0.12003559 0.0644594
-0.10949101 0.24111469 -0.10717959 0.1492508 0.18094817 0.13933413 0.12963131 -0.18505634
-0.0070982235 0.049755804 0.066405475 -0.011210914 0.14591256 0.043953184 0.11827161 0.006647217
0.10753637 -0.056203026 0.009544099 0.11281951 0.04645962 0.10280376 0.18782708 0.05841275
0.0025498574 -0.109603986 0.14494406 0.16379459 0.18668373 0.11722268 0.039756287 -0.03267619

network_body.linear_encoder.seq_layers.2.weight f4 [64, 64]
00000000: 2bbe cc3e 3ad7 bd3d f773 303c 991c e4bc
00000010: bfba 4d3c ddf6 5bbe b1d9 253b 94ae 803d
00000020: 45d6 983d c9ee 15bf dc62 7a3d 434b 643e
00000030: 3e4c 723d 7a9a f2bd 4dad 193e 5211 78be
00000040: 8995 dcbd 9c86 21bd 3826 68bd 5ea2 453e
00000050: 9121 bb3e 6f31 473c 2110 91be 1bb2 643e
00000060: 51ff 8bbe 74ef 6cbe f61b 5e3a 647d 233d
00000070: 1c5a 50be ba91 1f3d 35f5 13be 0405 6b3e
00000080: a9b3 7f3e 7cb2 173d 6f73 eebe e7a8 1c3e
00000090: 3ac4 9fbe b324 1d3e 20b9 fc3d 0de1 6e3e
000000a0: ce9f 39be 67a0 aebe 612b c43d 07dd f93c
000000b0: 9026 923d beb2 4d3e 8858 543e 4edb 6dbe
000000c0: 3d57 b2be f081 003d d59b f83d 0a19 8bbe
000000d0: 28bc 06bf 7a74 d3be 4bea 3abd 1a56 aa3d
000000e0: 1e0f 043e 0c2b 8e3c f326 17ba 82e2 36be
000000f0: c9f1 513e 664c aa3d c2df e23e 330b 353e
00000100: 3dd8 163e 65ca 2432 be2b 35be f6d8 29bd
00000110: 7dc6 b1be a1f5 a83d f716 14bd 6b40 ac3d
00000120: f9d1 003e b271 22bd 6a97 1e3e 4e48 9f3e
00000130: ae35 cfbd 0926 903d a25b 5a3d 7e9a 1dbe
00000140: bb92 42be efbc 72be b9a0 42bc 1e6a 3f3e
00000150: 193f 0c3d 0814 da3d bad6 11be 93b5 273e
00000160: 5663 b43d 7f7f c63e 6a46 e93c 3121 60bd
00000170: 35a0 9fbd 5b06 0ebe 7914 bebd 971e 753d
00000180: 7029 64be 4ad8 283e 54e3 923d e03b 1c3b
00000190: f386 343d 9c6a 1a3e f15c 1d3e 62cb c93d
000001a0: 5ce4 f0bd a250 863d b2df 00be e333 c3bd
000001b0: 4a70 3f3d 7425 2abd 16be 29be 9e70 e1bd
000001c0: 13f2 aabd 79ea c8bd 9e01 8bbd 2cbc 70bd
000001d0: 3387 2abc a865 9dbe b124 b9bb d43b 353e
000001e0: d60c 783d 1698 293c 722e 8abe c97e 50be
000001f0: 8ea0 0a3e 0ae0 e4bc 0476 a93d 8a1b 3ebd
00000200: 0f65 f73d e65d 213e 330d 2b3e 6524 8c3d
00000210: 67bf 51be 50cf 7ebe cf21 aabd 1396 98bd
00000220: fe91 273e 2b2b 7f3d ec5f 0b3e 8823 ccbd
00000230: 477b e93d b866 823e d7e9 aebc 487b ae3e
00000240: bb1a 823e 209e f0bd f35f 68be 9496 023e
00000250: c481 86bd d8bb 1ebe b5b5 3c3d f38a c6bd
00000260: 5d7b 51be 0b15 663e 23f1 8e3e f2cb 9f3d
00000270: 945c 053e 0b4d f33d c70d 053d 0cea da3d
00000280: 720b dc3c fb64 8b3d 8ba1 f53d e1c4 75be
00000290: 8029 393e 309f 86bc a0ec 953d 07ca 88bd
000002a0: 0be8 033d 34f6 673d be9e 3fbc 9dec 1ebd
000002b0: db51 cabc 6b37 99bc 5c02 bd3e 1b26 403d
000002c0: 81e8 9c3e d27e d23d e99f febb 997e 793e
000002d0: 9984 cd3d 3b80 d93a 9d2c acbc 3afd 9e3e
000002e0: 9081 2f3e a4af 2c3d a5bd 5ebd be66 573e
000002f0: b62d 853e eed4 9b3d 5131 d33d 8dc8 81be
00000300: c372 0dbe 4b72 57bd d17c 263e 7d56 a43c
00000310: 2957 e03d 3566 4f3e 9e34 0ebe eb9f 9abe
00000320: 3d5d 5d3e 5d13 053e 948b f23c e82f f9bd
00000330: 7694 64bd 1538 373e 8ebc bf3d 8365 723d
00000340: 27cf d0bd a92d e03d 84a3 83be beb5 9ebd
00000350: 513a 71bd a830 18bc 4580 d23d 6d15 ca3d
00000360: 766f aebe 9c01 973d 41d4 703e 2f6e 6d3e
00000370: 8ea6 f33e aebe d33e 5eba 0b3e b1fb 13bf
00000380: 573e 253e e246 dc3d 38f5 ab3e c01d 79bd
00000390: f62d 28be b07c c4bd d8f5 26bd b0d1 273e
000003a0: 6c3a 74bd 157e d93c 5711 323e 48ea 153d
000003b0: 379e 093e c8c0 71bd b775 01be da82 e23d
000003c0: cd08 553e c297 8c3e 8806 4a3e f9db 7f3e
000003d0: 09cf 1dbe b986 9fbd 6df0 383d 90ac 69be
000003e0: f71b d6bc ad8a 183e 0009 853c 0cc2 15bd
000003f0: f97c 0a3e 74db 603d 41f6 acbd a31b 10bd
0.39988837 0.09269567 0.010769836 -0.027845668 0.012556731 -0.2148089 0.0025306756 0.06283298
0.07462744 -0.5856748 0.061129436 0.22294335 0.05915474 -0.1184587 0.15007515 -0.24225357
-0.10770709 -0.039435014 -0.056677073 0.1930022 0.36549047 0.012157782 -0.28332618 0.22333567
-0.27343228 -0.23138219 0.00084727944 0.039914504 -0.20346874 0.038957335 -0.14449008 0.22951132
0.24970879 0.03703545 -0.46572444 0.15298806 -0.31204396 0.15346031 0.12339997 0.23328038
-0.18127367 -0.34106752 0.09578586 0.030500902 0.071362615 0.20087716 0.20736897 -0.2322819
-0.34832183 0.031373918 0.121390976 -0.2716754 -0.52630854 -0.41299802 -0.045633595 0.08317204
0.12896392 0.01735451 -0.0005765997 -0.17859843 0.2050239 0.08315353 0.4431134 0.17680053
0.14730926 9.592076e-09 -0.17692468 -0.041466676 -0.34721747 0.08249975 -0.036154713 0.08410724
0.12580098 -0.03965921 0.15487447 0.31109852 -0.101176605 0.07038505 0.053310044 -0.15390965
-0.19001286 -0.23704885 -0.01187914 0.18692824 0.034239862 0.10648352 -0.14242068 0.16377859
0.08808009 0.38769147 0.028475959 -0.054719154 -0.07794229 -0.13869612 -0.092812486 0.059843626
-0.22281432 0.16488758 0.07172266 0.00238394 0.04407401 0.15079731 0.15367486 0.09853245
-0.11762306 0.06558348 -0.12585333 -0.09531381 0.046737947 -0.041539624 -0.16576418 -0.11007808
-0.08346953 -0.09810347 -0.06787418 -0.058773205 -0.010408211 -0.3074162 -0.005650126 0.17698604
0.060559116 0.0103512015 -0.2698856 -0.20360865 0.13537809 -0.027938861 0.08274463 -0.046412982
0.12079822 0.15758476 0.16704254 0.06842879 -0.2048317 -0.24883771 -0.0830723 -0.074504994
0.16364285 0.062297028 0.1361081 -0.099677145 0.114004664 0.25468993 -0.021351738 0.3407843
0.2541102 -0.1174891 -0.22692852 0.12752753 -0.065677196 -0.15501344 0.046071727 -0.09694471
-0.20457216 0.22468965 0.27918348 0.07802571 0.13023597 0.11879929 0.032483842 0.10689172
0.026860926 0.0680637 0.119937025 -0.24000885 0.18082237 -0.016433328 0.07320523 -0.06679159
0.032203715 0.056631282 -0.011695562 -0.03879987 -0.024697235 -0.018703183 0.36915863 0.04691134
0.30646136 0.10278095 -0.0077705276 0.243647 0.100350566 0.0016594002 -0.021017367 0.31052572
0.17139268 0.04215969 -0.054380078 0.21035287 0.26011437 0.076089725 0.10312141 -0.2534832
-0.1381331 -0.052599233 0.16258551 0.020060772 0.109541245 0.20253833 -0.1388726 -0.30200133
0.21617599 0.12995668 0.029607572 -0.121673405 -0.055805646 0.17892487 0.09362136 0.05917884
-0.10195761 0.10946209 -0.2571069 -0.07749508 -0.058893505 -0.009288944 0.10278372 0.09867368
-0.34069413 0.07373354 0.23518468 0.23186563 0.4758801 0.41356415 0.13645312 -0.57805926
0.16137062 0.10755707 0.33585525 -0.060819387 -0.16423783 -0.09594095 -0.0407618 0.16388583
-0.059626028 0.026549378 0.17389427 0.03660038 0.1343926 -0.05902174 -0.12642561 0.11060114
0.20804138 0.27459532 0.19729054 0.24986257 -0.15411009 -0.07789368 0.045151163 -0.22819734
-0.026136382 0.1489665 0.016239643 -0.03656201 0.13524236 0.054896787 -0.08445407 -0.035182606

network_body.vector_processors.0.normalizer.running_mean f4 [13]
00000000: 3a4a d4be fa2e 4541 c187 0941 b730 2cbf
00000010: 69b1 23be 1538 2bbe 83d6 243f 325d efbd
00000020: d4a5 6e3d e34f eb3e 801d 41bc 44c8 553c
00000030: ad0d 383d
-0.4146288 12.323969 8.595643 -0.6726183 -0.15985645 -0.16720612 0.6438982 -0.116876975
0.058263615 0.45959386 -0.0117868185 0.013048235 0.044934917
