Assets/Brains/40M BallDodge.onnx (onnx, 144260 bytes, 11 tensors)

69 f4 [13]
00000000: 9ccd 9841 26ca be40 8759 b841 47a7 8d3e
00000010: 10a2 ef3e 7c91 c13e 9570 c43e f504 4e41
00000020: 84c1 d540 fc4b 8041 770a 9f3f 91f0 933f
00000030: 4eba 9b3f
19.100395 5.9621763 23.043715 0.27666685 0.4680333 0.37806308 0.38367143 12.87621
6.6798725 16.037102 1.2425069 1.155779 1.2166231

action_model._continuous_distribution.log_sigma f4 [1, 4]
00000000: f9bd ddbf 1774 f7bf ffd4 14c0 e3c9 1ec0
-1.73236 -1.9332303 -2.3255002 -2.4810722

action_model._continuous_distribution.mu.bias f4 [4]
00000000: a292 bdbb bbf6 70bb 835d 21bd 07c8 793c
-0.0057853023 -0.0036768157 -0.03939582 0.015245444

action_model._continuous_distribution.mu.weight f4 [4, 128]
00000000: 08ce 753d ab4d 873d 737f 38bd 654f ca3d
00000010: 8efc 36bd 3fe7 243d ef3b cabd ce3d 263c
00000020: 6282 6fbd edd4 f33c 4169 333e 7b87 23be
00000030: 0faf 91bd 2bc8 003d f118 bc3c 8f28 073e
00000040: 33da fa3c 33aa 8a3d e292 513d 9e26 a8bc
00000050: b791 5d3c 0638 233e 83e9 7dbc bb0a f13c
00000060: 9f3b 003d 39f0 d83d 814f 293c a984 75bd
00000070: 466c 5bbc fe02 fc3d 421b 103d a360 753d
00000080: fc43 b8bd 5c47 e9bd 8a03 8dbd f625 b5bd
00000090: a48b 7abd 0213 9a3c 500f 793d cfa8 233d
000000a0: 23ab d9bd 59d9 db3a 3f85 aebd f350 8fbb
000000b0: 2d82 bf3c f299 573d 9324 0abe b7ef 69bd
000000c0: 18dc d73d f20a 63bd 727c 6ebc 1381 3bbe
000000d0: 0447 1fbd 3f54 e0bc a54b 223c 4edf b9bd
000000e0: 0e1e bab9 80f6 343d 4eea ed3c 6a72 a13d
000000f0: 819b 91bd 31e2 5b3d 7f0a d23d c7d0 843d
00000100: 4631 c43d 1a05 20bd e04b 483d dd7c 703d
00000110: 111b 113e 9a29 5d3c 8c38 013d 170c 8b3d
00000120: 3251 443d 7f9f 543c f9bf 073e e72a 93ba
00000130: caac b73d 6364 0c3d ed2f ac3d 5d3b 38bd
00000140: 3b64 f23c b988 5e3d b5ff a6bd 22c7 833d
00000150: b3f6 1a3d 7d84 d2bd 1db9 003e c005 9c3d
00000160: 07df 0e3d 8557 85bd de70 0dbe a70f 183e
00000170: 31ea 67bd 59df 273d 874f ec3b c211 f03d
00000180: 905a 2f3d 3bf1 343d 0984 fe3c 8efc 253d
00000190: 15ce d03d e118 7d3d 2017 893d 02fa 113e
000001a0: 3e26 053d 43cb 063d 4396 223e 58f0 4abd
000001b0: ef24 31bd af39 813d 0232 16bc 6cb1 583d
000001c0: 8b5c 93bd 5bd3 753d 7f03 f0bd df14 2fbc
000001d0: 59fe 06bd 359a 5dbe 8df4 ea3c 8b2c 843d
000001e0: 91b3 d63c 0cde 9b3d 732c f83c c163 99bd
000001f0: c7bc 66be 332e 973d 73b5 e3bd 82d9 083e
00000200: 4ef8 073c 19ec f93c c597 f6bd 015c 48bc
00000210: 5319 9c3c 79ee bdbb 36d1 c5bc 8816 71bc
00000220: e086 5bbd 6446 9abc 7d97 c73c df4c 4c3d
00000230: ff08 1abc c90f b5bd 3815 a3bd 7767 9f3d
00000240: 6fe1 1dbd 8b47 063d 549d 2ebc 080d cebd
00000250: 33d1 68bd f770 d2bb e51f 333d 37ad 403c
00000260: 77cb 90bd 766e 46bd e774 a23c 8485 103e
00000270: a223 193c c039 2e3d 16b6 b7bc 6f3d 9fbd
00000280: dfce f33d 8cf0 513d 53f7 db3d 7c9c cabd
00000290: dea9 333c 064f 1e3e d0be 983c 5bd2 1dbd
000002a0: 8460 6dbd c6f0 d83d 15a0 3e3d 5b2b 9d3d
000002b0: 272d 06be ad10 78bd b8d7 07bc 5838 4d3d
000002c0: 76af 45bd 7db9 16be f2e3 a9bb 9cbf 8cbc
000002d0: 23ab 703d 1ed1 e7bd 71bc bfbc 7a13 913d
000002e0: a852 13bb ea9a bdbc b430 3ebd 6c7f 50bd
000002f0: f34b e43d cfa9 c53d 4193 92bc 162b 3f3c
00000300: 9f37 b1bc 1a7f 80bd 86d8 7cbc b7f1 55bc
00000310: 2460 6ebd d8c0 5b3c 054e 823c 7cd4 023e
00000320: 98f2 223d 500f 25bd ef8f 213d 190b 92bc
00000330: 36de 2dbc bcad 1abd 9a5e 613c 603c 113c
00000340: 549e 573b da87 29bd 0f9f 07be 8e17 a2bb
00000350: c187 f53c 613a 1abd 975c a9bd 1cd6 35be
00000360: fae2 9bbc 2c70 17bd c10c cabd faea 523d
00000370: 8dad 413d 3ad3 a0bd e87e 1cbc 178f 8b3d
00000380: 9a0e c43d 4627 1b3d 6889 3abd f999 f8bc
00000390: 6d28 8b3d 36e2 223d 3683 e5bd 1fd2 b83d
000003a0: 09cf e1bb 4e96 0b3d 28cd 433d fe68 afbc
000003b0: 63bf abbd 5af8 bbbd ff70 2abd 6360 83bd
000003c0: 0345 10be d4df f0bc 8a0b 7f3d 01ba 9abd
000003d0: e371 9a3c 4154 a33d 2a7c 513d 09a6 b83d
000003e0: 5c75 2dbd e71e 1ebe 6279 253d 8a19 49bd
000003f0: b254 ef3d 89cf a93d 0993 af3c 79cc 68bd
0.06001094 0.06606611 -0.04504342 0.098784246 -0.04467445 0.040259596 -0.09874713 0.010146571
-0.058473952 0.029764617 0.1752062 -0.1596965 -0.07113468 0.031440895 0.022961112 0.13199066
0.030621624 0.06770744 0.05116547 -0.020526227 0.013523511 0.1593934 -0.015497568 0.029424062
0.03130686 0.10592694 0.010333897 -0.059940968 -0.013392514 0.12305258 0.035182245 0.059906613
-0.08997342 -0.11390564 -0.06885441 -0.08845131 -0.061168328 0.018807892 0.06080562 0.03995591
-0.10628345 0.0016773149 -0.085215084 -0.0043736636 0.023377502 0.052637048 -0.13490514 -0.057113376
0.105400264 -0.05543036 -0.014556037 -0.18310957 -0.038886085 -0.027383922 0.00990573 -0.09075795
-0.00035499077 0.044180393 0.02904239 0.07883151 -0.07109738 0.05368251 0.10255908 0.064851336
0.09579711 -0.039067365 0.048900485 0.05871283 0.14170481 0.013498688 0.031548068 0.06789415
0.047928996 0.01297748 0.13256826 -0.0011227996 0.08968504 0.034275424 0.084075786 -0.04497849
0.02958881 0.054329608 -0.08154241 0.06434466 0.037832927 -0.102791764 0.12570615 0.07618284
0.034880664 -0.06510834 -0.13812587 0.14849721 -0.056619827 0.040984485 0.007211629 0.11722137
0.042810977 0.044175368 0.031068819 0.040524058 0.10195557 0.061791304 0.06693864 0.14255527
0.032507174 0.03290869 0.15877633 -0.049545616 -0.043248113 0.063098304 -0.009167196 0.052903578
-0.071953855 0.060016017 -0.11719417 -0.010686128 -0.03295741 -0.21640857 0.028681064 0.064538084
0.02620867 0.076107115 0.030294633 -0.0748973 -0.2253295 0.07381859 -0.11118593 0.13364223
0.008298947 0.030508088 -0.120406665 -0.012228967 0.019055044 -0.0057962504 -0.024147611 -0.0147148445
-0.053595424 -0.018832393 0.024364227 0.049877997 -0.009401559 -0.088409014 -0.079630315 0.07783406
-0.03854507 0.032783072 -0.010657627 -0.10061079 -0.056840133 -0.006422158 0.04373159 0.011760048
-0.07070058 -0.048445188 0.019831134 0.14113432 0.009346874 0.042535543 -0.022425693 -0.077753894
0.11904692 0.051254794 0.10740533 -0.09893128 0.010965792 0.15459833 0.018645674 -0.03853069
-0.057953373 0.10592799 0.046539385 0.07674285 -0.13103162 -0.06056278 -0.008291177 0.05010256
-0.048263036 -0.14719196 -0.005184644 -0.01718121 0.05875696 -0.11319183 -0.023405286 0.07083793
-0.0022479687 -0.023145158 -0.046433166 -0.05090277 0.11147299 0.09651529 -0.017892482 0.011667987
-0.021632968 -0.06274243 -0.015432483 -0.013058118 -0.058197156 0.013412677 0.015906343 0.12776369
0.039782137 -0.040297806 0.039443906 -0.017827557 -0.010612061 -0.037763342 0.013755465 0.008864492
0.0032900767 -0.041389324 -0.1324427 -0.0049466556 0.02997196 -0.03765333 -0.08269613 -0.17757457
-0.01902913 -0.03697221 -0.09865714 0.051493622 0.04728465 -0.07852788 -0.009551741 0.068144016
0.095730975 0.03787925 -0.045541197 -0.030346857 0.0679482 0.039766513 -0.11206667 0.090244524
-0.0068911356 0.03407889 0.047803074 -0.021412369 -0.083861135 -0.09178229 -0.041611668 -0.06414869
-0.14088826 -0.029403605 0.062266864 -0.07555009 0.018853134 0.079750545 0.051143803 0.09016044
-0.04234825 -0.15441476 0.040398963 -0.04909662 0.11686076 0.08291537 0.021432417 -0.056835625

network_body.linear_encoder.seq_layers.0.bias f4 [128]
00000000: b032 aabe 574c e1bd cd48 abbe 76a2 dbbe
00000010: 7713 12bd 4959 763d 8122 e0bd 6f13 a8be
00000020: e951 0dbe c8d7 15bd a9dc c9bd 2989 3bbe
00000030: 156a 34bd b6da ef3c aad4 433e 6648 903d
00000040: 1fc8 50be 2181 10be bd4a a33d 1ef9 e1bd
00000050: 1893 05be 653c 43be a327 bcbb 7568 84bd
00000060: db56 69bd ac5e 78be fe4b 0abe e668 50be
00000070: 3e7e debd 25a8 0ebd ee78 87bd db24 92be
00000080: 3670 8fbd c468 11bd 9c56 31bd 3704 b1bd
00000090: 68d8 fabd b91e 3cbe 01fd 11bc 5d88 30bd
000000a0: 4d03 a2be 3f38 2bbe 2b6d bdbe dbc3 0f3e
000000b0: 8049 b5bd b344 72be d66e 1dbe 0792 63be
000000c0: ef6a dabd d0fb 13be a685 eebc e6f3 283c
000000d0: a06f 0cbe ddc3 e6bd 2f53 85bd 038f 63be
000000e0: 3e69 03be 7a65 dbbd 7244 f2be 201a 7b3b
000000f0: 3cc6 203e 6b43 59be 383f a9bb de7b 813d
00000100: dcdf dabd 8b12 19be 868f d0bd 7293 02be
00000110: e4ef 35be baff e53c cedb 29be c3ff 1bbe
00000120: a74d 9bbd b457 93be 5de5 2fbd c2e5 93be
00000130: 75ab a4bc af2d a9bd 849d 72bc 6b7f 26be
00000140: 827e d9bc e96d 22bd bf9b 85be fa90 04be
00000150: 5dfd cdbd 207a 693c 628f 4d3d 4d98 b5be
00000160: f784 5abd ad6c 8fbd beb6 aa3b 72eb f7bd
00000170: 828d a0be b113 f3bd 58bb 67bd 889e 25be
00000180: e3dd f93d 5565 d6bd 331b 3dbe 2d5a ac3c
00000190: ad63 ccbd 676a 00be 599c b9bd a335 58bc
000001a0: d2c2 8abe 5acf 823d 577e a2be f00f 643d
000001b0: 296b fdbd c4af 9cbe 51a5 15bd dde6 d1bd
000001c0: 6cf4 9a3d 655f 20bd 434e c1be 9270 58be
000001d0: 5a00 85bd 85f8 08be b5c4 5fbe a736 4dbd
000001e0: 72b9 4a3b 28fd 2d3d da2e a0be 4408 09be
000001f0: 2ce4 32be abfe 3ebe a8ac eabd 5d9f 0abe
-0.33241796 -0.11000889 -0.3345398 -0.42897385 -0.035663094 0.060143743 -0.10944081 -0.32827327
-0.13800777 -0.03658274 -0.09856541 -0.18314041 -0.04404648 0.029279094 0.19124094 0.07045059
-0.2038884 -0.14111759 0.079732396 -0.110338435 -0.13044393 -0.19066007 -0.0057420298 -0.06465236
-0.056967597 -0.24254864 -0.13505551 -0.20352516 -0.108639225 -0.034828324 -0.066148624 -0.28543743
-0.070038244 -0.035500303 -0.043295488 -0.08643382 -0.122483075 -0.18371095 -0.0089104185 -0.043098796
-0.31643143 -0.16720675 -0.3699735 0.14039557 -0.0885191 -0.23659019 -0.15374312 -0.22223674
-0.10664927 -0.14451528 -0.029116463 0.010312056 -0.13714457 -0.11267827 -0.06510007 -0.22222523
-0.12833115 -0.107127145 -0.47317845 0.0038315132 0.1570062 -0.21217124 -0.005165007 0.06322454
-0.10687229 -0.1494848 -0.10183625 -0.12751558 -0.17767292 0.028076041 -0.16587755 -0.15234284
-0.075831704 -0.2877785 -0.042943347 -0.2888623 -0.020101288 -0.082606666 -0.014808062 -0.16259544
-0.026549581 -0.0396556 -0.26095387 -0.12945929 -0.10058091 0.014250308 0.05018557 -0.3546776
-0.05334946 -0.0700315 0.005209773 -0.121054545 -0.31357962 -0.1186899 -0.05657515 -0.16173756
0.12200525 -0.10468546 -0.18467407 0.021039093 -0.09979949 -0.1254059 -0.09063024 -0.013196382
-0.2710176 0.063872054 -0.31737015 0.05567926 -0.12373955 -0.3060285 -0.03653461 -0.10249112
0.07566151 -0.039153475 -0.3775502 -0.21136692 -0.06494208 -0.13376053 -0.21852382 -0.05010095
0.0030933288 0.042477757 -0.31285745 -0.1338206 -0.17469853 -0.18651836 -0.11458713 -0.13537355

network_body.linear_encoder.seq_layers.0.weight f4 [128, 13]
00000000: f4f6 a73d f47c 0b3e a0a2 0ebf 9031 073e
00000010: b754 423e 3f0c 9cbd 384d 0abe 14fe 7fbe
00000020: 4f64 3dbe 0ae4 80be 4ae5 f9bd c163 d63d
00000030: ab0f f43e 5d29 6f3e 39ea c8be aa37 93bd
00000040: 9441 393e 31ba e5be 7eec e03e a34d bbbe
00000050: c96d a43e 7797 833e bdc2 863d e71a d3bd
00000060: 2ae0 c4bd 6326 7b3e 0c6f 62bd 1e8a 793e
00000070: 37ab 0a3f bb8b 8ebe a34d 68be 2acc b0bc
00000080: 5d51 e3bd b8b8 113e 8217 24bd 40b1 223f
00000090: be9c a83e e8ba 513b 9e7e 113e 0bd3 9d3b
000000a0: be85 59be 7bf5 d73c c3d6 11be 31ea e1bd
000000b0: 3c46 b93d 6634 59be a2b6 8e3e 9b63 9abe
000000c0: 11bb e93d 385b 8cbe 1d22 973d 4d2d 813e
000000d0: 4071 2cbe f513 cabd 2562 1ebf afd5 03bf
000000e0: e9ed 48be f8b2 b53e 5f93 58bd dc87 903d
000000f0: 9d02 22bd a163 76be d632 413e bab1 02be
00000100: 1fcd 323e 4536 a83c da10 e33c 6492 aebd
00000110: 5eff 5f3e 5192 56be 8f6b 143f fd42 a5bd
00000120: e893 9a3e 38a3 5ebe 73e5 d73c 8daa 0d3e
00000130: 57af 173f e5bf 003f 7310 5a3e 89a8 c1be
00000140: 678c 173e c389 72be 34a8 a2be b1ef f0be
00000150: 3d40 2fbe 4bc5 c9bd 63a1 bebe 6896 d2be
00000160: 8688 f03d 02c7 db3e fdc3 81be ce82 babd
00000170: b8c2 8c3d da9b 97be 0a1f c6bd 8453 76be
00000180: fed7 2fbf ff7c 313e d7c3 9dbd b27a b83e
00000190: 288f 9bbd 035f bcbe 41bc 383e 0509 48bd
000001a0: c103 abbb 583d 8ebe 6f07 6b3e 52e1 f23d
000001b0: 1171 063d 1ea3 e6be 8618 2dbf ccd5 b3be
000001c0: 9a4e 853e e32e ac3b 882e 5f3e 0bf8 643e
000001d0: 20b4 313d bbe2 063e 57e5 ba3d af7f 8abd
000001e0: 7a62 a9be f00b 0a3e 6e81 443e ee7f 453e
000001f0: 8a6d 823b 4a49 ee3e 78cd 6abe 9194 2f3e
00000200: d341 bdbe bbf7 66be 7efb d23c 5559 373e
00000210: 1e75 b43e fb0b 4dbd 93d7 513e 4d0f 8a3d
00000220: f40b 923c 3f11 cfbe 46c5 3f3e 9840 cc3d
00000230: 1ef9 433e d57b bf3d 043b 123e 983a 7ebe
00000240: 74f5 0abf dccd 583e 3b1e 4fbd 711c f4bd
00000250: eebf 293f ca64 54bd 2a28 9a3d 16b2 16bf
00000260: 07a4 063f 7684 58bc 40da 1abe ba85 a7bd
00000270: ef64 493d 6421 c83e f5ab 02bf 7f6d 58bf
00000280: ce46 79be 569d 7bbe cf6a 6e3e b76a abbe
00000290: a2d9 68be a007 6ebe d98d 6cbc 1a84 05be
000002a0: 7e4d e83e 4a46 96bd e63d 0dbe f763 583d
000002b0: 8e18 10bf 9120 8a3f 6bb3 df3d 50a5 0ebe
000002c0: a72b 4c3c afff 7f3e aeae 31be 0f1e 8c3e
000002d0: 69fb dd3d ad2a 4d3c d3f2 10be 762d ea3c
000002e0: 8388 82bd c5c0 53be ca09 5abb 7e7f bd3d
000002f0: d6ab bf3e 0906 d83c 092d 433d 452b a7be
00000300: d373 aabc 9e3a 073d d5cb 883d c599 033d
00000310: 5f47 933e bd14 833e 95c0 04bf 630d b2be
00000320: f6b5 fabe 6347 4f3f b6e5 c63e de1c d9bd
00000330: e6a4 29be 2936 fc3d c29a 023d bae7 f0bd
00000340: fa1e c83b 8507 91be 1dbb 0e3e d398 6cbe
00000350: f625 54bd fb71 5bbf e6e4 543e cab6 ea3e
00000360: 31a6 1bbf 8cee c13d 583c e3bd 7611 73be
00000370: 09f7 9ebb 607e 5b3e a94c b0bd 7b8f 46bc
00000380: 6565 b5bd 0d1b f3be ae61 183e d09a 5abf
00000390: f61b a03e 8274 bebe ef4b 733e a9ec 1abe
000003a0: 4e9c e6ba 3f10 bb3e 675d 01bf e6d7 ebbe
000003b0: d738 c0bd 9097 40be 18b6 cc3e 7ccb b1bc
000003c0: 0b81 21bd d0f0 a9be 3ef4 c93d 319b 24be
000003d0: d18d 50bd 17ed 1c3e 370f d03c 33de 863e
000003e0: ce5f 2e3e d50e 7d3e f0ba e1be cdd2 e3be
000003f0: 24c4 aebd 665c 663e 83a7 debe 51b6 9f3e
0.082013994 0.13621885 -0.55716896 0.132025 0.18977629 -0.07619523 -0.13506019 -0.24999267
-0.18495296 -0.2517398 -0.122019365 0.10468245 0.47668204 0.23355623 -0.39241198 -0.071883515
0.18091422 -0.44868615 0.4393043 -0.3658267 0.3211501 0.25701496 0.06580112 -0.103078656
-0.096130684 0.24526362 -0.055281684 0.24369094 0.54167503 -0.2784098 -0.22685866 -0.021581728
-0.11099503 0.14230621 -0.04006148 0.6355171 0.32932085 0.0032002274 0.14208457 0.004816418
-0.21242425 0.026362171 -0.14242081 -0.110309966 0.09046599 -0.21211395 0.27873713 -0.30154118
0.11412633 -0.27413344 0.073795535 0.25229874 -0.16840076 -0.09867088 -0.61868507 -0.5149793
-0.19622006 0.35488105 -0.05287492 0.07057163 -0.039553273 -0.24061443 0.18867049 -0.1276311
0.1746106 0.02053369 0.027717996 -0.085240155 0.21874759 -0.20954253 0.5797662 -0.080694176
0.3019097 -0.2174195 0.026354527 0.13834591 0.5925192 0.5029281 0.21295337 -0.37823895
0.14799653 -0.23685364 -0.31768954 -0.4705787 -0.17114349 -0.09852084 -0.37232503 -0.41130376
0.1174479 0.42925268 -0.2534484 -0.0910698 0.06873077 -0.29611093 -0.09673889 -0.24055296
-0.6868895 0.17332838 -0.07703369 0.3603111 -0.07595664 -0.36791238 0.18040563 -0.048836727
-0.0052189534 -0.27781177 0.22952054 0.11859383 0.032822672 -0.45046324 -0.67615545 -0.35124052
0.2603653 0.005254613 0.21795094 0.22360246 0.04338467 0.13172428 0.09125774 -0.06762635
-0.33082944 0.13481116 0.19189999 0.19287083 0.003980343 0.4654029 -0.22929943 0.17146517
-0.36964282 -0.22555439 0.025754686 0.17905171 0.35245603 -0.050060254 0.20492391 0.067412
0.017827965 -0.40442845 0.18727598 0.09973258 0.19138 0.09349791 0.14280325 -0.24827039
-0.5428078 0.21172279 -0.05056594 -0.11919487 0.66308486 -0.051853932 0.07527192 -0.5886549
0.52594036 -0.013215175 -0.15122318 -0.08179803 0.049168523 0.39087975 -0.51043636 -0.8454208
-0.24343416 -0.24571738 0.23282932 -0.33479854 -0.2273927 -0.23245096 -0.014438116 -0.13038674
0.45371622 -0.07337625 -0.13793144 0.05282971 -0.5628747 1.0791188 0.10922893 -0.13930249
0.012461579 0.2499988 -0.17351791 0.27366683 0.10838968 0.012522382 -0.1415513 0.02858613
-0.06373694 -0.20679004 -0.0033269995 0.09252833 0.37435788 0.026370065 0.04765037 -0.326502
-0.020807182 0.033014886 0.06679503 0.032129068 0.2876539 0.2560176 -0.51856357 -0.34775838
-0.4896695 0.809683 0.3884713 -0.10601209 -0.1656681 0.12315018 0.03188587 -0.11762948
0.0061072083 -0.2832605 0.13938566 -0.23105173 -0.051794015 -0.85720795 0.20790443 0.45842582
-0.6080046 0.09469327 -0.11095494 -0.2373713 -0.004851226 0.21434927 -0.08608372 -0.012119169
-0.0885723 -0.47481576 0.14881012 -0.85392475 0.31271333 -0.37198263 0.23759435 -0.15129341
-0.001759419 0.36535832 -0.50533146 -0.46063155 -0.09385841 -0.18807817 0.39982677 -0.021703474
-0.039429706 -0.33191538 0.098610386 -0.16074826 -0.050916497 0.15324818 0.02539788 0.263414
0.17028734 0.24712689 -0.44087934 -0.44496766 -0.085335046 0.22496185 -0.43487176 0.31193784

network_body.linear_encoder.seq_layers.2.bias f4 [128]
00000000: 6b0f 8e3c 9f14 f0bc d6d0 9bbd dfe9 4bbe
00000010: 6a32 94be 1813 a8be 9028 c1be 4e47 47be
00000020: c317 c6bd cc41 a4be 3e62 6fbd 73f7 473d
00000030: 4a50 503e 349b 65bd 3e6d 56be b488 11be
00000040: 72bb 84be be71 fbbd c929 73bc 0dfe 153e
00000050: 0ac8 abbd 3661 2fbe d063 9ebe 86e0 d3bd
00000060: bb2e 8dbe 8d4f edbd c3b3 1bbe a126 8fbe
00000070: 5eb4 8dbe 2e12 a6bd a8dc 1bbe 674a 88be
00000080: ac2f 03be ec5f e4bd 1be5 e0bd a10b 98be
00000090: f6bd 29be cea5 1bbd 533f 3fbe 343a d2bd
000000a0: 9db3 ddbe a920 31bd ce12 76bd aa85 c5bc
000000b0: d312 d3bd f069 71be dc4f dd3d 63d3 86be
000000c0: 57cc 08be c891 6bbe 5c51 83b9 31dc 2fbe
000000d0: 224a 19be 37df 27be 55b7 7cbd 47da 5ebe
000000e0: e1ba 2dbe 9835 4bbe db11 b5bc bf92 25be
000000f0: 563a 8bbe b400 d8bb b626 84be 095a 8abd
00000100: 0eb0 a1be e676 91bd e5d4 ecbd 97d4 e8bd
00000110: 6a7d 4bbe ec14 54be 5473 4bbe ccf8 61bd
00000120: 26f1 36bd c38f 67be a148 4c3d 5ccd e8bd
00000130: 9147 8fbd 0ed3 a0bd d078 1bbe c206 06bd
00000140: e159 eebc a899 84be 296b f0bd 8eb3 89be
00000150: dcd4 2bbe 4d95 3dbe b086 93bd 797d febd
00000160: bb24 47be 483e 9dbd a7a7 61be 891a 79be
00000170: a171 b9bd 6c7d 3bbe 431e 05be fcda 1bbe
00000180: 7cf8 51bd 9c41 62be 9789 45be e553 8b3d
00000190: 7430 a9bd 6f8e 5fbe 8953 b6be e97c 1abe
000001a0: 45d8 b9bd 2566 f4bd 3075 b4bd ffc6 9bbe
000001b0: 33dc b2be e150 993c c84a ecbd b303 ffbd
000001c0: 0454 84be f72c 67be 60f8 a4be 21d1 78be
000001d0: 334a f0bd 04d4 a73c 2fcc 4ebe 117d dfbd
000001e0: dbd4 9ebe 60cf fdbd 43c3 d43d 5d98 933d
000001f0: b23f 2fbd f398 05be a719 28be 6673 8fbe
0.017341336 -0.029306708 -0.07608192 -0.19913433 -0.28944713 -0.32827067 -0.3772626 -0.19460794
-0.09672501 -0.3208145 -0.0584433 0.04881997 0.20343128 -0.056056216 -0.2094011 -0.14212304
-0.2592426 -0.12277554 -0.014841505 0.14647694 -0.08387764 -0.17126927 -0.30935526 -0.10345559
-0.27574715 -0.11587439 -0.15205292 -0.2795916 -0.27676672 -0.08108936 -0.15220892 -0.26619264
-0.12811154 -0.11151108 -0.109811984 -0.29696372 -0.1657637 -0.03799992 -0.186765 -0.102650076
-0.43301097 -0.043244038 -0.060076527 -0.024111588 -0.10306325 -0.23575568 0.108062476 -0.2633315
-0.133592 -0.2300483 -0.00025046885 -0.1717384 -0.14969686 -0.16393743 -0.061698277 -0.21762954
-0.1696582 -0.19844663 -0.02210324 -0.1616926 -0.27192944 -0.0065918807 -0.25810784 -0.06755454
-0.31579632 -0.07102756 -0.11564044 -0.11368673 -0.1987206 -0.20711106 -0.19868213 -0.05516891
-0.04466357 -0.22613434 0.04987395 -0.11367294 -0.06996072 -0.078527555 -0.15182805 -0.03272129
-0.029095592 -0.2589848 -0.11739189 -0.26894802 -0.16780418 -0.18513985 -0.07203424 -0.12426276
-0.19447605 -0.07677895 -0.2203661 -0.24326529 -0.09054876 -0.18309563 -0.12999825 -0.15220255
-0.051262364 -0.2209534 -0.19290768 0.06803111 -0.08261195 -0.21831678 -0.35610607 -0.15086712
-0.09074453 -0.11933545 -0.08811414 -0.3042526 -0.34933624 0.018715324 -0.11537701 -0.124518774
-0.2584535 -0.22575746 -0.32220745 -0.24298526 -0.117329024 0.02048684 -0.20195077 -0.109125264
-0.3102177 -0.12393069 0.10388806 0.07206795 -0.042785354 -0.13046627 -0.16416036 -0.2801773

network_body.linear_encoder.seq_layers.2.weight f4 [128, 128]
00000000: 8794 2e3e ca27 143d 55ca 5dbd e397 24bd
00000010: c905 38be b023 5b3e 908a 4cbe 508f e83d
00000020: a218 2cbe 7171 3ebe 7784 17bd 0709 953e
00000030: c47f d0bc 780f 703d 7735 1dbd 6d79 39be
00000040: 4c53 9e3b 8d77 97bd de66 8abe 2ad6 493c
00000050: 34c0 0dbe 79b4 633e 33d3 1bbe 1105 023e
00000060: 7cd6 5ebd 06d5 60be 3fa2 07be aee0 78be
00000070: 78b3 f33d a4ec 3fbe ff43 06be 42d5 c4b9
00000080: 4240 4d3e 1070 233e f813 783d ede4 81bd
00000090: 96f4 4c3e 3d78 953d ae30 0a3e 84ae 14bd
000000a0: b88c 513d c145 523d 96ca bc3c afa3 d33d
000000b0: b1ac 2f3e 4828 05be a587 ccbc 22fb 1abe
000000c0: 21a0 8bbd 9d62 adbe 647a 033d 9ce8 0e3e
000000d0: c7d9 253e c80b b5bc e84c 0c3e de97 d5bd
000000e0: 5c37 d23d b72d fd3d 71e8 8abe 2268 18bc
000000f0: 611a 463d 060c a43d ae8c b13d b6d7 5dbe
00000100: 1bce 30bd fc32 173d 447c 5bbd a0ec aebe
00000110: a2bf 263d f6c4 253e 3151 103d 2af9 01bc
00000120: fe45 fdbd a67a 903d f69d 393d 2363 ef3a
00000130: 51ac 673d f105 2ebd 4c32 3d3e 9f17 003d
00000140: 56d7 02be 3661 47be 34b0 00be 2876 1f3e
00000150: 2cdc 41bd 0813 563d 828b f63c a46f 36be
00000160: 36f1 253c 5478 c33d aaae 52be 1669 f3bd
00000170: 20e9 b6bd e7f2 473d f13b 133e 2e93 15be
00000180: dde0 103f c537 05bd 5ead 7e3d e518 25bd
00000190: 5763 88be ef37 493e 7cd0 1dbe 3a01 c3bd
000001a0: a296 db3d 9992 9c3d 8cf4 953c 542b 7dbd
000001b0: 2c33 50bd 5587 1bbe 3e29 b5bd 103e 243e
000001c0: b097 3bbe 52f8 01be 71f7 e7bd e80d 283d
000001d0: ae1f 493e 303c 5dbe 3114 363d e69d 233b
000001e0: 1c08 3d3d 5a4c fdbd a749 02be 3bfa 213d
000001f0: b637 8bbe a78b d8bd a6f5 c73d e15c c5bd
00000200: 0971 f9bc f561 cfbe 7c8b 59be 1b11 11be
00000210: 3cb9 27be a04d a33d 0364 593d 79fa 9a3c
00000220: 2e0d 003e 42d7 be3d 16f4 debd 307f 513d
00000230: 0658 ae3c 5830 cfbd d82b dc3d a3f4 fa3c
00000240: 48ad b43c 8a61 8fbe a64a e53d a3cf c9bd
00000250: 4f5e 593d fa51 8dbe 57ad 8cbe 5f3b a1be
00000260: a8cb 91bc 6da6 b0bd b1f9 5fbd 92db b83c
00000270: b7d8 c6be fa56 98bd f815 97bd f9a1 75bd
00000280: b910 33be 9405 5e3b 474b 5e3c facf 7a3d
00000290: ec5d 8ebe 5e55 1fbe 7b1e 89be d680 013e
000002a0: d474 8a3d 1b59 e43d 7cee 31bd bbda ad3d
000002b0: f34e 37bd 6ca7 6abd 334f 4fbe 1686 dabe
000002c0: f47f 20be a225 74be f2bb d23d c40d 3d3e
000002d0: 3af9 babe 87dc 70bb fbbd 84be 5c8a 143d
000002e0: b6cf 1c3e b140 d23d 7d74 0e3e 1386 39be
000002f0: 5645 b1be 08ca 34be 170a 4f3e 10f8 603e
00000300: bac3 d4bc f262 c3be fce0 9fbe 5dcc 783c
00000310: 2cf5 f63d 1db8 193e 244c 20be e361 793d
00000320: a633 c9be e3ae f63c 7457 a33d caa6 babc
00000330: 8f6c 82bd 8564 c9bc b1b0 14bd f92f ed3d
00000340: d398 86bd 0939 db3d b047 afbd ed92 6e3e
00000350: 897d 413e 0590 80be 760b 0fbe 6ee9 213e
00000360: 3de7 453d ea8a 80be 83cb f2be 4ec4 56be
00000370: d412 cb3d 4c79 a1be a231 4f3d e978 0d3e
00000380: a863 e3bd f046 a53d 4653 5a3e 03d3 8c3d
00000390: 32b0 af3c 5c7b e43d 53e5 3d3e d40c d83c
000003a0: 99ef 43be 1dd8 49be 83ab 6cbd 08f2 75bd
000003b0: e54e 57be 6a4a a53d c8ff 0a3e dbeb 3bbd
000003c0: 4c6f 05bd ac75 e1bd 1bb9 933e 7f38 efbc
000003d0: c2db 1cbe e348 a6bd 9276 253e 7292 f03c
000003e0: 0cf3 e23d 5377 053e 9271 0f3e 6bf3 8abe
000003f0: 05e9 9e3d ec1f 863d e500 913a f119 aebe
0.17048846 0.03617076 -0.054148037 -0.040183913 -0.17970957 0.21400332 -0.19974732 0.1135546
-0.16806272 -0.18597962 -0.036991563 0.2910845 -0.025451548 0.058608502 -0.038381066 -0.18112727
0.004831707 -0.073958494 -0.27031606 0.012319127 -0.13842851 0.22236814 -0.15217285 0.12697245
-0.054403767 -0.21956262 -0.13245486 -0.24304458 0.11899465 -0.18742615 -0.13111876 -0.00037542923
0.20044044 0.15960717 0.06056592 -0.06342492 0.20015177 0.07298324 0.13495132 -0.036299244
0.05115959 0.051336054 0.02304582 0.103339545 0.1715572 -0.13003647 -0.024967024 -0.15134862
-0.068176515 -0.33864298 0.032099143 0.13955921 0.16196357 -0.022100344 0.13701212 -0.10429357
0.10264465 0.12362235 -0.27130464 -0.009302171 0.048365 0.08010106 0.08669411 -0.21664318
-0.043165307 0.036913857 -0.053585306 -0.34164906 0.0407101 0.16188416 0.03523368 -0.0079329405
-0.123668656 0.07054643 0.04531666 0.0018263798 0.056560818 -0.042486135 0.18476218 0.031272527
-0.12777457 -0.19470677 -0.12567216 0.15572417 -0.047329113 0.052264243 0.03009582 -0.17816025
0.01012831 0.09544435 -0.20574442 -0.11885278 -0.08931184 0.048815634 0.14378335 -0.14606926
0.56593114 -0.03252389 0.062177055 -0.040306944 -0.2663829 0.19650243 -0.15411562 -0.09521718
0.1072209 0.07645149 0.018305086 -0.0618089 -0.05083005 -0.15188344 -0.08845757 0.160393
-0.18319583 -0.12692383 -0.113264926 0.041028887 0.19640991 -0.21604991 0.04445285 0.002496594
0.04615031 -0.123680785 -0.12723409 0.03954528 -0.27190942 -0.105735116 0.097636506 -0.09636856
-0.030449407 -0.40504423 -0.21244615 -0.14166681 -0.16379255 0.0797379 0.053073894 0.018918263
0.12505028 0.09318401 -0.108863994 0.051146686 0.021282207 -0.10116643 0.1075055 0.03063423
0.022055283 -0.28004104 0.11195879 -0.09854057 0.053068455 -0.27601606 -0.27475998 -0.3149061
-0.017797306 -0.08625493 -0.054681484 0.022565637 -0.38837215 -0.074384645 -0.07377237 -0.059968922
-0.17486848 0.0033877837 0.013567752 0.0612335 -0.27806032 -0.15559909 -0.26781067 0.12646803
0.067605644 0.11149808 -0.043440327 0.08488985 -0.044753026 -0.057288572 -0.20245056 -0.42680424
-0.1567381 -0.23842481 0.10289754 0.18462282 -0.3651827 -0.0036752538 -0.25926194 0.036264762
0.1531361 0.10266245 0.13911624 -0.18117552 -0.34623212 -0.17655194 0.20218693 0.21969628
-0.025972236 -0.38161427 -0.31226337 0.015185443 0.120584816 0.1501164 -0.15654045 0.060884368
-0.39297217 0.03011269 0.07975665 -0.02278461 -0.06368362 -0.024584064 -0.03630132 0.11581416
-0.06572118 0.10704238 -0.08558595 0.23298235 0.18895544 -0.25109878 -0.13969216 0.15811703
0.04831623 -0.25105983 -0.47420892 -0.20973322 0.099157006 -0.31537855 0.050584443 0.13815655
-0.11102992 0.08070171 0.21320829 0.06876185 0.021446321 0.111563414 0.18544511 0.026373304
-0.19134368 -0.19711347 -0.057780754 -0.060045272 -0.2102619 0.08070834 0.13574135 -0.045879226
-0.032576844 -0.11008772 0.28852162 -0.029201744 -0.15318206 -0.08119371 0.16158512 0.029366706
0.11081514 0.130338 0.14008167 -0.27138838 0.07759289 0.06549057 0.0011062889 -0.34004167

network_body.linear_encoder.seq_layers.4.bias f4 [128]
00000000: b245 c6bd 8d75 1fbe 8dce c53c 4ef7 e7bd
00000010: 62fd 91be cbfc 29be 30c3 48be 2f66 76be
00000020: 7691 33be fe68 fbbd 5cd9 adbc b66d 07be
00000030: 82a3 12be 83d9 8fbd bacb 67be 9ac2 abbd
00000040: 9f4b 41be dc35 3abe 2348 26be acc3 e4bd
00000050: 2990 61be 8cd6 1fbe 3799 2ebe 13c5 09be
00000060: d152 23be 6d79 46be 2052 06bc f5df d8bd
00000070: be09 54be 56f7 10be 2812 31be 3cb0 bebd
00000080: a1c8 09be e11a 1abe 393c 2abd 9e86 21be
00000090: 0f86 03be 4279 38bd c2d7 48be 9758 5ebe
000000a0: f558 36bc 042b 87be d44d 1cbe ea3f 7fbe
000000b0: c2ad 11be 04f4 bbbd 5e60 20be aadf 60be
000000c0: a8e8 09be 18e8 c1bd 8866 0fbe 042f b9bd
000000d0: 9b04 03be ad28 81bd 24c6 71be f262 0bbe
000000e0: fdd3 22be 077d 66be 8eed 69be 7f02 91be
000000f0: e380 8dbe af8b d7bd c66b 27be deb5 5fbe
00000100: 8b1d 10be 366d ebbd ecb8 1dbe 3515 b8bd
00000110: be72 89be 7d15 5cbe 05a3 1bbe ed37 debd
00000120: 3107 8abe 5790 35be 81d3 1fbe c8ce 09be
00000130: f8fb c7bd 4dab 05be 72b8 453c c259 9dbe
00000140: ab74 79be 3b6a 13be 4792 7bbd f9cd d1bd
00000150: 5c9e 86be d188 fcbd 8bf4 14bd 265b 49bd
00000160: 2706 5fbe 8fd2 18be a13a 34be 537b c7bd
00000170: 7731 51be b575 f0bd 0233 77be 17bc a8bd
00000180: 822b 18be b510 1abe f30f 98be 32d8 d4bd
00000190: f635 aebd 0c3a 49be 70ec 49bd c5e6 18bd
000001a0: 0184 37be 46e7 52be 1627 0ebe 8447 00be
000001b0: ad60 3cbe 37ee f9bd 17d4 b8be 7acc 66be
000001c0: 3302 85bd 3816 cdbd ebe2 9cbd 9b20 eabd
000001d0: 2081 9fbe 1827 8abd 6db4 6bbe 3ce1 e8bd
000001e0: c1e2 54be 00a8 d9bd f28e 7fbe c216 33be
000001f0: 178c 7cbd 75cd 8bbd d8fa 73be a494 e6bc
-0.09681262 -0.15572186 0.024146343 -0.113264665 -0.28513628 -0.16600339 -0.19605708 -0.24062417
-0.17535958 -0.12275885 -0.02122181 -0.13225445 -0.14320186 -0.07023909 -0.2263631 -0.08386727
-0.18876503 -0.18184608 -0.16238455 -0.11170134 -0.22027649 -0.15609187 -0.17050634 -0.13454084
-0.1594956 -0.19382258 -0.008198291 -0.105895914 -0.20706841 -0.14156851 -0.17292082 -0.09310958
-0.1345544 -0.15049316 -0.04156134 -0.15774009 -0.12844108 -0.045037515 -0.19613555 -0.21713482
-0.011129607 -0.26400006 -0.15264064 -0.24926725 -0.1422644 -0.09177402 -0.15661761 -0.21960321
-0.13467658 -0.094680965 -0.14003956 -0.09042171 -0.12794726 -0.063065864 -0.23610741 -0.13611963
-0.1590118 -0.22508632 -0.22844526 -0.28322217 -0.27637395 -0.105246894 -0.16349706 -0.2184672
-0.1407377 -0.1149544 -0.15402573 -0.0898842 -0.26845354 -0.21492572 -0.15198906 -0.10850511
-0.26958612 -0.17730843 -0.15608026 -0.13457787 -0.09764856 -0.13053627 0.012067901 -0.30732542
-0.24360912 -0.14395992 -0.061418798 -0.10244364 -0.26292694 -0.12330783 -0.036366027 -0.04915919
-0.2177969 -0.14924072 -0.1760049 -0.09740319 -0.20429026 -0.11741201 -0.24140552 -0.08239
-0.14860347 -0.15045436 -0.29699668 -0.103927985 -0.08506386 -0.1965105 -0.04929775 -0.037329454
-0.17921449 -0.20596036 -0.13882098 -0.12527281 -0.18396254 -0.12203639 -0.36099312 -0.22538939
-0.0649456 -0.100140035 -0.07660469 -0.11432 -0.31153202 -0.06745738 -0.23018046 -0.11371085
-0.20789625 -0.106277466 -0.24956873 -0.1748915 -0.061657038 -0.06826297 -0.23826158 -0.02814705

network_body.linear_encoder.seq_layers.4.weight f4 [128, 128]
00000000: 9301 43bc 5b73 35be 9c05 72bd 9c75 a73c
00000010: 75e8 94be 84c7 0fbe 1dc0 563e 57f0 b53c
00000020: fbef 35bc 0766 94be 5353 cfbd dd77 8bbd
00000030: 3b9c 49bd c6d7 bcbd 3ec6 4cbe 0297 e43d
00000040: 2981 3f3d 4d31 2d3d ec3c 993d f554 23bd
00000050: 5e04 683e 1fbd 8c3d 0c6a d5bc a5ff 7dbe
00000060: 94a6 b83d a8cf 553d 7bab 9bbd 3b38 393e
00000070: bb10 66bd f347 a53c 3de3 d2bd a635 23be
00000080: a3fd 103e 4b85 9cbd 3ab2 4abe 2954 3ebc
00000090: b8c7 4fbe 0c9e 513d 95d1 16bc 1b14 623e
000000a0: 979b 4cba ba09 f33d c696 25be 004b 19bc
000000b0: 9464 93be fe55 83be f892 a1be eb67 7ebe
000000c0: 475f 433d dad0 833d c215 8cbe 7dfc 81be
000000d0: b8f0 18bd 16a0 843c 2249 02bd 4028 0d3e
000000e0: c185 fdbd a264 8bbd 525c c73d af57 413e
000000f0: 20a0 f13d f0d2 4f3d 39ab e8bd f299 34be
00000100: 3dc0 81be 168f 08be 57d9 a53d cc01 f73d
00000110: 7557 133e 1d1d fabd a0ce 1e3e 40ba 0bbe
00000120: ea1a 35be 1606 cdbc 7b9e 72bd 2951 28be
00000130: 9ce0 aebe 0f01 f3ba 77f3 26be 787f c23d
00000140: f0ca cebd 8cbb 273d e800 8fbd a563 5ebe
00000150: a3b7 e33d 38d9 713d 3d90 c23d 8903 92bc
00000160: 1886 c9bd 5761 b5bd c7ff 90be 1fad 713c
00000170: c4ea a03d 6eab 033e 101d 69bd e999 5ebe
00000180: 5a1f 7d3b e328 12be 7e28 4bbe 0ab8 52bd
00000190: 852e 92be d637 513d c8f9 0bbe 88f9 983d
000001a0: e47d 083e 96ac a4bd 8ccf 553c 57d3 223d
000001b0: 6cb2 7f3d 2f3b 833d c3a3 9d3d 3118 6b3d
000001c0: d4ad 7fbd a18f 253d 4f13 6d3d bc90 003e
000001d0: 5faa 14be 1624 debd 3f6b 1cbe 562f 25be
000001e0: 1865 cf3c 09df bbbd 5c3c f03a 2d9b 073e
000001f0: 0e17 8cbd 780e bf3d 0c9e e0bd 2d16 b53c
00000200: 5dfe c83c a993 293e a3f6 b13c 4edd 583e
00000210: 89df ecbd da50 373e 51a1 99bb 5608 4f3d
00000220: 0176 053d 8566 c03e 3f85 fbbd 0237 99be
00000230: 9650 8dbe 13df 8d3b bc93 f73d 17b5 c63d
00000240: 3911 c93d e0ef 9abd c904 71bd 487e 8ebe
00000250: 8c6d 5bbd 0600 a3bb 29a4 2d3e 9e04 963c
00000260: aa32 85bd 96a2 de3d 0a66 283d ad7d 663e
00000270: de8f 4a3d e373 c83d 53c9 2dbe eaea 99be
00000280: 5e15 603d 92a3 583e c5d1 06be 10cb d73e
00000290: 390a 153e 8e1d f13d 52f5 063e 154e 88bd
000002a0: c782 79bc 17c9 3fbe 7900 0f3e f205 4a3e
000002b0: 765b 403e 3fda 393e 5653 903d 2aea 343d
000002c0: 2ecb 16bd 2cb4 413e d0a5 8a3e 7557 1c3e
000002d0: 4282 143e 02b4 0ebe a67b e43d 33a4 233d
000002e0: b226 9cbe eddf 303e 5c44 34be 028d 42be
000002f0: 3f65 4f3e 39a6 11ba 6717 de3c bdd3 48bd
00000300: 42a0 5f3e 88b7 abbe 9304 4c3d ccc4 0d3d
00000310: 7690 333d 613c b03e 157b 113e 5a87 eb3d
00000320: 16d7 133d 370f d93d babf 80be 741d cb3d
00000330: 5a3c 7bbd 221e e9bd fc79 bbbd c2b3 90bd
00000340: 0eeb 1a3d 9968 8b3d dbbd cabe 1d46 17be
00000350: 5540 17bd 930e ac3d 4106 6a3c 789d 4ebe
00000360: b5ff 443e 8ce4 ffbd 57e9 4fbe 06da c93e
00000370: 6bed dbbd beb6 eabc 5b3c 2b3e 630e 333e
00000380: 6d5a 90bc 27e0 17bc ab9c c0bd c67d d5bd
00000390: 964c 2c3c 4419 acbc cb97 9b3d 173c 043c
000003a0: 904f a03d 48b1 2e3e 4c79 813e d54c 473e
000003b0: fea9 b13d 39b9 a2bd 4ae9 223a 4ad7 11bd
000003c0: f08e d83d ed10 c0bb 2b4b 933e d9e8 193d
000003d0: b805 353b f1f3 6b3d eef2 253d 4c9f b93e
000003e0: 735c c43d e5aa afbc b381 803d f11b 70be
000003f0: aab8 5a3d 8fb4 39bc 5e5d b93d d1df 2f3e
-0.011902231 -0.17719786 -0.05908738 0.020441823 -0.290836 -0.14040953 0.20971723 0.02220933
-0.011104579 -0.2898409 -0.10123315 -0.068099715 -0.04922126 -0.09220843 -0.19997498 0.11161615
0.046754036 0.042283345 0.07482323 -0.039875943 0.22657916 0.068720095 -0.026051544 -0.24804552
0.09016147 0.05219999 -0.07601067 0.18087856 -0.0561683 0.02017591 -0.102972485 -0.15938434
0.14159255 -0.07642611 -0.1979455 -0.011616745 -0.2029103 0.051176116 -0.009205242 0.22077982
-0.0007805167 0.118670896 -0.16170797 -0.00935626 -0.28787673 -0.25651544 -0.3155744 -0.24844329
0.047698285 0.0643632 -0.2736035 -0.25387946 -0.037338942 0.016189616 -0.031808026 0.13784885
-0.12379027 -0.068063036 0.097344056 0.18881105 0.117981195 0.050738275 -0.11360783 -0.1763685
-0.2534198 -0.13335833 0.08098095 0.120608896 0.14388831 -0.12212584 0.15508509 -0.13645267
-0.17686048 -0.025027316 -0.05923317 -0.1643721 -0.34155738 -0.0018539744 -0.16303812 0.09496969
-0.10097301 0.040950343 -0.06982595 -0.21717699 0.1111901 0.059045047 0.095001675 -0.017823951
-0.098400295 -0.08856457 -0.28320143 0.014750748 0.07857278 0.12858364 -0.05691248 -0.217384
0.0038623423 -0.1427341 -0.19839665 -0.051445045 -0.28551117 0.05107864 -0.13669503 0.07469469
0.13329273 -0.08040731 0.013049971 0.03975233 0.062426016 0.06407773 0.07697251 0.057396118
-0.062421635 0.04042018 0.057879742 0.12555212 -0.14518116 -0.108467266 -0.15275286 -0.16131338
0.02531676 -0.091734 0.0018328535 0.13242789 -0.06840335 0.093289316 -0.10967645 0.0221053
0.024535352 0.16560234 0.02172405 0.21178171 -0.115660734 0.17901936 -0.00468842 0.05054506
0.03258324 0.37578216 -0.12281274 -0.2992478 -0.27600545 0.004329571 0.12088725 0.09702509
0.09817738 -0.07565284 -0.058842454 -0.2783072 -0.05357127 -0.004974368 0.16957153 0.018312749
-0.06503804 0.108708546 0.041112937 0.22508879 0.04945361 0.09787729 -0.1697133 -0.30062038
0.054707877 0.21156147 -0.13165958 0.42147112 0.14554681 0.11773215 0.1317952 -0.06655518
-0.015228934 -0.18729053 0.13965024 0.1972883 0.1878489 0.1814966 0.07047145 0.04416863
-0.03681486 0.18916386 0.2707963 0.15267737 0.14502814 -0.13935855 0.111563966 0.039951514
-0.30498272 0.17272921 -0.17604202 -0.18999103 0.20253466 -0.000555608 0.027110768 -0.049030054
0.21838477 -0.3353846 0.04980905 0.03461151 0.04383894 0.34421065 0.14207108 0.11500426
0.036093794 0.10598605 -0.25146276 0.09917727 -0.061336853 -0.113827005 -0.09154126 -0.07065536
0.037821822 0.0680706 -0.39597973 -0.1477284 -0.036926586 0.08401217 0.014283718 -0.20177257
0.1923817 -0.12494764 -0.20303856 0.3942415 -0.10738643 -0.028651591 0.16722243 0.17485957
-0.017621243 -0.009269751 -0.09404882 -0.1042438 0.010516306 -0.021008141 0.075973116 0.008070967
0.07827675 0.17059815 0.25287855 0.19462903 0.086750016 -0.07945485 0.00062145723 -0.035605706
0.10574138 -0.0058613927 0.28768286 0.037575576 0.0027621817 0.057605688 0.04051488 0.36254346
0.09587946 -0.021443794 0.06274738 -0.23448159 0.053398766 -0.011334552 0.090510115 0.17175223

network_body.vector_processors.0.normalizer.running_mean f4 [13]
00000000: 8b8b 11c0 66e0 9341 745b 9b3f df40 abbe
00000010: df14 a63e 2fde 033e 3493 d93e 1ba0 47bd
00000020: 8040 d23d 5273 e4bb c132 b83e 27b2 8a3e
00000030: 2d1a 84be
-2.274142 18.48457 1.2137284 -0.3344793 0.32437798 0.12877725 0.4249512 -0.048736673
0.10266209 -0.006971755 0.35976222 0.27089044 -0.2580122
