Assets/Brains/Basic-299980.onnx (onnx, 23839 bytes, 9 tensors)

62 f4 [13]
0	0x41870642	16.878056
1	0x4110127d	9.004514
2	0x4184a7ad	16.581873
3	0x3f0892e4	0.5334914
4	0x3f0144cf	0.5049562
5	0x3ee405a2	0.44535547
6	0x3f005b0b	0.5013892
7	0x410ce83e	8.8067
8	0x40ce19b3	6.440637
9	0x410a0113	8.625262
10	0x401aa31e	2.416206
11	0x40001ea4	2.0018702
12	0x4017d545	2.372392

action_model._continuous_distribution.log_sigma f4 [1, 4]
0	0x3cb137b1	0.021633001
1	0x3d214c20	0.03937924
2	0xbdde03ab	-0.10840543
3	0xbd9fb9cd	-0.077991106

action_model._continuous_distribution.mu.bias f4 [4]
0	0xbce5c1ac	-0.028046452
1	0x3cbdff21	0.023192944
2	0x3df91c61	0.12163616
3	0xbd06358c	-0.03276591

action_model._continuous_distribution.mu.weight f4 [4, 64]
0	0x3d06c794	0.032905176
1	0x3cd3f778	0.025874838
2	0xbd0cf955	-0.03441747
3	0x3d3a0af8	0.045420617
4	0x3bd8ac8c	0.006612366
5	0xbc9cb37a	-0.01912855
6	0x3d389ab5	0.045069415
7	0xbc0b0285	-0.008484487
8	0xbd75318a	-0.059861697
9	0xbd454182	-0.048158176
10	0xbd013fc6	-0.03155496
11	0xbc988cfd	-0.018621916
12	0x3cd5ef90	0.026115209
13	0xbd329537	-0.043599334
14	0xbc8da7bd	-0.017291898
15	0xbc94c34b	-0.01815953
16	0x3d5082ee	0.050906114
17	0x3d328c0b	0.043590587
18	0xbd7578aa	-0.059929527
19	0xbd1949ed	-0.037424017
20	0xbdb602fb	-0.08887287
21	0x3ce78e6e	0.028266158
22	0xbc4fadc4	-0.012675706
23	0xbb93ca05	-0.0045101666
24	0x3d4dde67	0.050260928
25	0xbc72bc24	-0.014815364
26	0xbd04571c	-0.032309636
27	0xbd0c3c75	-0.034237344
28	0x3bf4968a	0.0074642347
29	0xbd8fe4e1	-0.07026077
30	0xbd39ad3a	-0.045331217
31	0x3cc6be61	0.024260702
32	0x3b15c5e0	0.0022853538
33	0x3c61a656	0.013772568
34	0xbd54fe4f	-0.05200034
35	0xbc7b5626	-0.015340364
36	0xbd0a68ef	-0.03379148
37	0x3cf9765c	0.030451946
38	0xbd3ab268	-0.045580298
39	0xbc12a743	-0.008951011
40	0x3c6d405b	0.014480676
41	0x3d3b33a7	0.045703556
42	0x3c4e3b8a	0.012587437
43	0xbdaf72a0	-0.08566785
44	0xbd61c192	-0.055116244
45	0x3ba19ee3	0.004932271
46	0x3ba77550	0.0051104203
47	0x3cb17567	0.021662427
48	0xbcdcb1b2	-0.0269402
49	0xbdfbc192	-0.1229278
50	0x3ca57bb5	0.02020059
51	0xbc0d017a	-0.008606309
52	0xbca7e4b8	-0.020494804
53	0xbc6b78ed	-0.014372093
54	0xbc70aafc	-0.014689203
55	0x3d685512	0.056721754
56	0xbbd0cc14	-0.0063719843
57	0x3a24690b	0.0006271756
58	0x3d2b2a24	0.041788235
59	0x3b8bd6be	0.0042675426
60	0xbd111b49	-0.03542641
61	0xbcacd869	-0.021099286
62	0xbd843722	-0.06455828
63	0xbd06613c	-0.032807574
64	0xbccd9099	-0.025093364
65	0xbc31354b	-0.010815929
66	0xbd825490	-0.06363785
67	0xbd103180	-0.035203457
68	0xbd4ef429	-0.050525818
69	0x3a2edb92	0.0006670292
70	0x3d79d246	0.060991548
71	0xbcc8dd2e	-0.02451953
72	0xbb6b9bb7	-0.0035950968
73	0xbb65b3ac	-0.003504972
74	0xbdcabd01	-0.09899331
75	0x3cdcc05c	0.026947193
76	0xbc8d34a8	-0.017237023
77	0xbdd145af	-0.10218369
78	0xbce9f7ff	-0.028560637
79	0x3d9ed0eb	0.07754692
80	0xbd76df63	-0.060271632
81	0xbd092d13	-0.03349025
82	0xbb8cea45	-0.004300388
83	0xba58a64b	-0.00082645257
84	0x3d329b62	0.043605216
85	0xbd4aef0c	-0.04954438
86	0xbd730ef9	-0.05934045
87	0x3d89d4b2	0.067300215
88	0x3d98ed91	0.07467187
89	0x3d2b60fb	0.041840535
90	0xbbeffb61	-0.007323668
91	0xbcf0dd84	-0.029402502
92	0x3cb614c7	0.022226704
93	0x3cbf4078	0.02334617
94	0xbce02961	-0.027363481
95	0x3c585767	0.013204432
96	0xbd8771df	-0.06613516
97	0xbd134f9e	-0.0359646
98	0x3d7d8216	0.061891638
99	0x3ca4f7bb	0.020137658
100	0x3c3c014d	0.0114749195
101	0xbdac5ba2	-0.08415915
102	0xbce8bd36	-0.028410535
103	0xba34bc6d	-0.00068945327
104	0x3d2b188b	0.041771453
105	0x39e65a3d	0.0004393625
106	0x3cb9c88d	0.022678638
107	0x3c55888f	0.013033046
108	0x3d81c5b2	0.063365355
109	0xbd26a750	-0.040686905
110	0xbc8e24c8	-0.017351523
111	0x3d26b262	0.040697463
112	0xbc8ea9a6	-0.017414879
113	0x3d33dff5	0.043914754
114	0x3d038e51	0.032118145
115	0xbda78fb7	-0.08181708
116	0x3cc7ff27	0.024413658
117	0x3be98cdb	0.007127387
118	0xbc67e237	-0.014153055
119	0x3c84620b	0.016160032
120	0x3caecf6e	0.021339145
121	0x3ab3c3f8	0.001371502
122	0xbcaebe8a	-0.02133109
123	0xba974537	-0.0011541013
124	0x3d01f068	0.03172341
125	0x3c8521b8	0.01625143
126	0x3d16d027	0.036819603
127	0x3c31880e	0.010835661
128	0x3d14c459	0.036320064
129	0x3d2ef8d2	0.042717762
130	0x3d3989ec	0.04529755
131	0x3d86193d	0.065477826
132	0xbc8e4cef	-0.01737067
133	0x3c3f48ba	0.011675054
134	0x3dd16b2d	0.1022552
135	0x3d3f9188	0.04676965
136	0x3d7dc3ce	0.061954312
137	0x3d6d7d0f	0.057980593
138	0x3d65bfcb	0.05609111
139	0xbd1d6399	-0.03842506
140	0x3a12e1e8	0.00056031207
141	0x3d82b687	0.063824706
142	0xbda08f9d	-0.07839892
143	0xbd76520f	-0.06013685
144	0x3d538e76	0.051649533
145	0xbd84ece2	-0.06490494
146	0x3cc1c3b7	0.023652894
147	0x3d07de92	0.033171244
148	0x3d5fd2c3	0.054644357
149	0xbd0030b2	-0.03129644
150	0x3da7d704	0.08195308
151	0x3d801e3a	0.06255765
152	0xbd92b73e	-0.07163857
153	0xbcabbd2d	-0.02096423
154	0x3bd02b0f	0.0063527892
155	0xbdd6672e	-0.10468899
156	0xbd34cf29	-0.044142876
157	0x3d810e73	0.06301584
158	0x3d682890	0.05667931
159	0x3ce2bd56	0.027678173
160	0x3a3c204b	0.0007176443
161	0xbe203f9e	-0.15649268
162	0x3d73c658	0.059515327
163	0x3d566d71	0.052350465
164	0x3d5ae9c9	0.05344561
165	0x3db55632	0.08854331
166	0xbd10c9d5	-0.035348732
167	0xbd87bb84	-0.06627563
168	0x3d1a7eaf	0.03771847
169	0xbdb16868	-0.08662492
170	0x3d9011e2	0.07034661
171	0x3db96dc3	0.090541385
172	0xbac386a5	-0.0014917447
173	0xbb8b6ff2	-0.0042552883
174	0x3c2b7aab	0.010466258
175	0x3d8a4d5e	0.06753038
176	0x3d55fac2	0.052241094
177	0xbd3786b1	-0.044806186
178	0x3de81b5c	0.113333434
179	0x3d8330fd	0.06405828
180	0x3d27c69b	0.04096089
181	0x3d84c134	0.06482163
182	0xbdd75740	-0.105146885
183	0x3dd8f6de	0.10593961
184	0xbdd68249	-0.10474069
185	0x3d847dab	0.06469282
186	0x3d926148	0.07147461
187	0x3db23063	0.08700635
188	0xbd0e3ccb	-0.034725945
189	0x3bc46b7e	0.0059942594
190	0x3dc18a8e	0.09450255
191	0x3dba5a27	0.090992264
192	0x3cc966e8	0.024585202
193	0xbe0d7108	-0.13812649
194	0xbc823690	-0.015895158
195	0xba85d000	-0.0010209084
196	0x3d2afa06	0.041742347
197	0xbdb7ba12	-0.08971037
198	0x3dc84018	0.0977785
199	0x3d62c65d	0.055364955
200	0xbd7551f7	-0.05989262
201	0xbe24738b	-0.16059701
202	0xbdc100cc	-0.0942398
203	0xbcaf9fb7	-0.021438463
204	0xbdf1de96	-0.11810033
205	0x3dcc9c54	0.09990755
206	0x3e10816b	0.14111869
207	0x3cec578d	0.028850341
208	0x3c092fe5	0.008373235
209	0x3c8c1e8b	0.017104408
210	0x39add89f	0.00033158527
211	0x3d421024	0.047378674
212	0x3db36508	0.087595046
213	0x3d1815d1	0.03713018
214	0xbb8b22e2	-0.0042461017
215	0x3cd0a767	0.025470449
216	0x3d2d2eac	0.042280838
217	0x3d43df29	0.047820244
218	0xbd8a475a	-0.067518905
219	0xbca61bb1	-0.020276876
220	0x3cf97307	0.030450357
221	0x3d6a2fe2	0.05717457
222	0x3c8e9e7b	0.017409554
223	0xbe1695d9	-0.147056
224	0xbca189ea	-0.019719083
225	0x3d9f7b9e	0.0778725
226	0xbe24d8ed	-0.16098376
227	0xbd0872ef	-0.033312734
228	0xbdea7ea8	-0.11449939
229	0x3c1ae701	0.00945449
230	0xbca36ca0	-0.019949257
231	0x3ca2e3fe	0.019884106
232	0xbce7c1f6	-0.02829073
233	0x3ca53405	0.020166406
234	0xbdc2db57	-0.09514492
235	0x3dd04814	0.10169998
236	0x3d9fe8e4	0.07808092
237	0xbc1a3ad9	-0.009413444
238	0xbd30987b	-0.043114167
239	0xbd789df6	-0.06069752
240	0x3dd8dcc4	0.10588983
241	0x3ca06f32	0.019584272
242	0xbcfd93b0	-0.030954212
243	0xbd8404c6	-0.06446223
244	0x3d9d357b	0.07676216
245	0x3d97803d	0.073975064
246	0x3e028c08	0.1274873
247	0x3d129b26	0.035792492
248	0x3ce812f4	0.02832935
249	0x3c4a4913	0.012346524
250	0xbe0002da	-0.12501088
251	0x3d445992	0.047936983
252	0x3d233d3c	0.03985332
253	0x3ca5391d	0.020168835
254	0xbca912e4	-0.02063889
255	0xbd90eadf	-0.07076048

network_body.linear_encoder.seq_layers.0.bias f4 [64]
0	0x3d18cd1b	0.03730498
1	0xbc897873	-0.016781067
2	0x3d9f1b65	0.07768897
3	0xbd27bbda	-0.040950634
4	0x3e07c90e	0.1326029
5	0x3d92f9fe	0.071765885
6	0x3d65ff35	0.056151588
7	0x3ce4ef11	0.027946027
8	0x3dab1001	0.08352662
9	0x3db53c3c	0.088493794
10	0x3e162600	0.14662933
11	0x3c9bc402	0.019014362
12	0x3dc3d707	0.095624976
13	0x3d52dd65	0.05148067
14	0x3d389c04	0.045070663
15	0x3d964c78	0.07338804
16	0x3dc7139f	0.09720539
17	0xbda8eb41	-0.08247996
18	0xbd50138c	-0.05079989
19	0x3e20e77e	0.15713307
20	0x3e220917	0.1582378
21	0x3db8d4f9	0.09024996
22	0x3d8ac6e0	0.06776214
23	0x3bdecb5f	0.006799146
24	0x3d9a2144	0.07525876
25	0x3e040b00	0.12894821
26	0x3dd903f5	0.10596458
27	0x3cd76d9d	0.026297385
28	0xbe13262f	-0.14370035
29	0xbc7d93db	-0.015477146
30	0x3dad780e	0.08470164
31	0x3e05c6e7	0.13064156
32	0x3cb686e2	0.022281114
33	0xbd111347	-0.035418775
34	0x3dc35773	0.09538164
35	0x3c70cc30	0.01469712
36	0x3da4a01f	0.08038353
37	0x3e047f44	0.12939173
38	0x3d66e5b4	0.056371406
39	0x3b9ca614	0.0047805402
40	0x3db1803b	0.08667036
41	0x3e1efe0a	0.15526596
42	0x3e7ff9e3	0.24997668
43	0x3d0b5573	0.034017038
44	0xbc453d41	-0.01203853
45	0xbd1259d5	-0.0357302
46	0x3da09fc5	0.078429736
47	0x3da50553	0.08057656
48	0x3db1ee99	0.08688087
49	0x3df5967c	0.11991593
50	0x3d96f8d7	0.07371681
51	0x3d19e90e	0.037575774
52	0x3e288a8c	0.16459101
53	0x3d075f43	0.033049833
54	0x3daedef7	0.08538621
55	0x3e5a4311	0.21314646
56	0xbd6e10fe	-0.058121674
57	0x3dcb0cc9	0.09914548
58	0x3d2cbb8e	0.042171054
59	0x3dee7cc4	0.11644891
60	0x3df12435	0.11774484
61	0x3db94b50	0.09047568
62	0x3da36323	0.07977893
63	0x3da38f0d	0.07986269

network_body.linear_encoder.seq_layers.0.weight f4 [64, 13]
0	0x3e94c545	0.29056755
1	0xbf982dca	-1.1888974
2	0x3f0db32a	0.5535151
3	0xbed7103b	-0.4200457
4	0x3cacfc87	0.021116508
5	0xbe9bad87	-0.30405828
6	0xbef225f3	-0.47294578
7	0xbef77b7f	-0.48336408
8	0xbefeb6ed	-0.49748936
9	0xbe26f09c	-0.16302723
10	0xbe4fae64	-0.20281368
11	0x3e540af5	0.20707305
12	0xbe054dea	-0.13018003
13	0x3e4f5f36	0.20251164
14	0xbd74e75c	-0.059790954
15	0x3e125307	0.14289485
16	0xbf07938b	-0.5295951
17	0x3d5c8d9a	0.05384598
18	0xbe5a0bee	-0.21293613
19	0x3ec573e4	0.3856498
20	0x3d6690f6	0.05629059
21	0x3e2deb65	0.16984327
22	0x3d4d80d0	0.050171673
23	0x3f08781f	0.5330829
24	0xbd9c8afb	-0.07643696
25	0xbdbeeb1e	-0.09322189
26	0xbe81456e	-0.25248283
27	0x3e987a1b	0.2978066
28	0x3e056a80	0.13028908
29	0x3f070800	0.5274658
30	0xbeb804fa	-0.35941297
31	0xbf10a6e0	-0.5650463
32	0xbea3d576	-0.31998795
33	0x3f179e74	0.59226155
34	0x3cc2ce16	0.02377991
35	0x3ef06e74	0.4695927
36	0xbe78cac8	-0.24296105
37	0x3dbca6a3	0.09211471
38	0x3eccb982	0.3998528
39	0xbe06fc0b	-0.13182084
40	0x3e565a75	0.20932944
41	0xbd26ed43	-0.040753614
42	0xbe56fd0b	-0.20994966
43	0x3e4d8fcd	0.20074387
44	0xbe2710aa	-0.1631495
45	0x3e0ac726	0.13552532
46	0xbe6c839c	-0.2309708
47	0x3dcb17a1	0.09916616
48	0x3e7adbb0	0.24497867
49	0x3f3fd59f	0.74935335
50	0xbf33035c	-0.69927
51	0xbe95932b	-0.29213843
52	0xbe4820c5	-0.1954375
53	0x3f13785f	0.57605547
54	0x391cc273	0.00014949757
55	0xbee4a814	-0.44659483
56	0xbf03aaaf	-0.5143232
57	0x3d35abf8	0.044353455
58	0xbf3aed58	-0.7301841
59	0xbccedbea	-0.025251348
60	0x3f1dc5f1	0.6163016
61	0xbe8778d8	-0.26459384
62	0x3e6e16c1	0.23250867
63	0xbdc4e748	-0.09614426
64	0xbeb92819	-0.36163405
65	0xbe98902d	-0.29797497
66	0xbeeb6311	-0.4597402
67	0x3e779db4	0.24181253
68	0x3ee9472a	0.45562106
69	0x3d939fcb	0.072082125
70	0x3e857361	0.2606459
71	0x3cbad375	0.022805909
72	0xbe98ed8e	-0.2986874
73	0xbe6366c4	-0.2220717
74	0xbb966880	-0.004590094
75	0x3e43dc25	0.19126947
76	0x3eed068f	0.46294066
77	0xbe86cf6d	-0.26330128
78	0x3d74b341	0.059741262
79	0xbdc7302f	-0.09725987
80	0xbd971939	-0.07377858
81	0xbe2fdd4d	-0.17174263
82	0xbe0d361d	-0.13790174
83	0x3e840b40	0.25789833
84	0xbd326331	-0.043551628
85	0x3caae27a	0.020859946
86	0x3e6f331a	0.23359337
87	0x3d7d1ba0	0.061793923
88	0x3e78bdc6	0.24291143
89	0xbed9f2ec	-0.42568147
90	0xbf0946f1	-0.53623873
91	0xbeba9cb8	-0.36447692
92	0x3f10ced1	0.56565577
93	0x3eaa20be	0.33228105
94	0xbeefbd80	-0.46824265
95	0xbe32ae93	-0.17449407
96	0x3cd349de	0.025792059
97	0xbdb1d931	-0.08684004
98	0x3e841334	0.257959
99	0xbea70979	-0.32624415
100	0xbf23f005	-0.64038116
101	0xbdfa6073	-0.122254275
102	0xbec6efb1	-0.38854745
103	0xbf3ecd89	-0.7453237
104	0xbe9f270c	-0.31084478
105	0x3f09eb66	0.53874815
106	0x3ddbd98e	0.10734855
107	0xbec0b524	-0.376382
108	0x3d595c9a	0.053066827
109	0x3e4d2045	0.20031841
110	0xbec4c079	-0.38428095
111	0x3d79f8cb	0.061028283
112	0xbe8d4428	-0.27591062
113	0xbe8d6ef5	-0.27623716
114	0xbf258bbf	-0.6466636
115	0xbe91c5e4	-0.2847129
116	0x3cca4cdb	0.02469485
117	0x3dd7575c	0.10514709
118	0xbdbf90b4	-0.09353772
119	0x3e05338a	0.13007942
120	0xbedc6f71	-0.43053773
121	0xbeadd558	-0.3395183
122	0xbd98ee1a	-0.07467289
123	0x3e3da355	0.18519337
124	0xbd838528	-0.06421882
125	0xba756f86	-0.00093626266
126	0xbdbd58c9	-0.0924545
127	0xbed54ed9	-0.41661718
128	0x3bf40971	0.0074474146
129	0x3e3fb89a	0.18722764
130	0x3e88bf0c	0.26708257
131	0x3e80cda3	0.25156888
132	0x3eec35f3	0.4613491
133	0xbd6ed026	-0.058303975
134	0x3e80cd0a	0.25156432
135	0x3f078929	0.52943665
136	0x3f172ad2	0.59049714
137	0xbe945412	-0.2897039
138	0xbeb16d19	-0.34653547
139	0xbe07e109	-0.13269438
140	0xbf28918a	-0.65847075
141	0xbd9eea08	-0.07759482
142	0x3d81bce3	0.063348554
143	0xbe996be7	-0.29965135
144	0xbf0f5af4	-0.5599816
145	0x3d54408f	0.05181938
146	0xbdcddf7e	-0.100523934
147	0x3e717565	0.23579939
148	0xbe094c38	-0.13407981
149	0x3ed9e58d	0.42557946
150	0x3e9fce8d	0.31212273
151	0xbf080338	-0.5312991
152	0xbdfcedee	-0.12350069
153	0xbeaa73e4	-0.33291543
154	0xbe8a5e75	-0.2702519
155	0x3e1dda73	0.15415363
156	0xbbeb3314	-0.00717772
157	0xbdd887f9	-0.1057281
158	0xbee351fe	-0.44398493
159	0xbe378964	-0.17923504
160	0xbc3613d5	-0.011113127
161	0xbf20dc84	-0.6283648
162	0x3ea590f4	0.32337153
163	0x3e57f7b7	0.2109059
164	0x3afc83ac	0.0019265315
165	0xbd724639	-0.059149
166	0x3e66f860	0.22555685
167	0x3d2ea7c3	0.04264046
168	0x3dc62750	0.09675467
169	0xbd791698	-0.060812563
170	0xbeb3d827	-0.3512585
171	0xbf03ee67	-0.5153565
172	0x3ec073cc	0.37588346
173	0x3f3ed458	0.7454276
174	0x3eb444a1	0.3520861
175	0xbd9cbf86	-0.07653718
176	0x3f2df8b8	0.6795764
177	0x3e91e947	0.2849829
178	0xbe1a60bd	-0.15075965
179	0xbe4049ba	-0.18778124
180	0xbeb60770	-0.3555255
181	0xbf0a38ad	-0.5399273
182	0xbe12e345	-0.14344509
183	0xbe806a4b	-0.25081095
184	0xbd3dc49a	-0.046330072
185	0xbf00c77e	-0.503044
186	0x3dac8a63	0.08424833
187	0xbdc037ed	-0.09385667
188	0x3b2111c0	0.002457723
189	0x3e942c34	0.28939974
190	0x3e042393	0.12904195
191	0xbe317e3c	-0.17333311
192	0xbeee3982	-0.4652825
193	0x3ecce908	0.4002154
194	0xbca38deb	-0.019965133
195	0xbf1258d8	-0.57166815
196	0x3d9091d4	0.070590645
197	0xbde9187d	-0.11381624
198	0xbe8782bc	-0.2646693
199	0xbe397d3e	-0.18114182
200	0xbe4b61fd	-0.19861598
201	0x3eadb018	0.3392341
202	0xbe007672	-0.12545183
203	0x3e16fcb3	0.14744835
204	0xbe224970	-0.15848327
205	0xbcd90d31	-0.026495548
206	0x3e2e82c4	0.1704207
207	0x3dda1e0f	0.106502645
208	0x3e55dae7	0.20884286
209	0xbda7d98b	-0.0819579
210	0x3d66f858	0.056389183
211	0x3e3da1ca	0.18518749
212	0x3f1c0510	0.60945225
213	0x3e2421db	0.1602854
214	0xbe77eff1	-0.24212624
215	0xbe4d3bdd	-0.20042367
216	0x3ec04f5a	0.3756054
217	0x3c2cefb4	0.010555197
218	0x3eb3f573	0.351482
219	0x3e9a4c70	0.30136442
220	0xbe33998a	-0.17539039
221	0xbed8945b	-0.42300686
222	0xbe60075e	-0.2187781
223	0x3ecf1259	0.40443686
224	0xbee56500	-0.4480362
225	0xbdb4b7df	-0.08824133
226	0xbdb39c0f	-0.0877
227	0xbeaa0323	-0.33205518
228	0xbe5f0d26	-0.2178236
229	0x3d42edab	0.04758994
230	0x3e8cc06e	0.27490562
231	0x3e55c2a9	0.20875038
232	0xbcd1ec77	-0.02562545
233	0x3b0c9a03	0.0021454103
234	0x3ee8f36d	0.4549822
235	0x3e110c27	0.14164792
236	0x3df3048c	0.118661016
237	0xbeddeda3	-0.43345365
238	0x3e0367a5	0.12832506
239	0xbecd8bbf	-0.4014568
240	0xbe824f75	-0.25451246
241	0xbe16544c	-0.14680594
242	0xbcfde9e1	-0.030995311
243	0x3e26b8f8	0.16281497
244	0x3dc0b6c7	0.09409862
245	0x3ec96f44	0.393427
246	0xbe817400	-0.25283813
247	0x3ea26a74	0.31721842
248	0x3f17bcc8	0.5927243
249	0xbdd6f713	-0.104963444
250	0xbe60b62b	-0.21944492
251	0x3ee350e1	0.44397643
252	0xbdd122ee	-0.102117404
253	0x3e975f83	0.29565057
254	0xbe4c6579	-0.19960584
255	0xbbec03ee	-0.007202617

network_body.linear_encoder.seq_layers.2.bias f4 [64]
0	0x3c5bb099	0.013408803
1	0x3db99da2	0.09063269
2	0x3dc3b5de	0.09556173
3	0x3cb1510a	0.021645088
4	0xbc9ae7e4	-0.018909402
5	0x3d9dc942	0.077044025
6	0x3d89b1fe	0.067234024
7	0x3d1af406	0.037830375
8	0x3dfc8d0f	0.12331592
9	0x3e0c1b4c	0.13682288
10	0x3dcddab3	0.10051479
11	0xbd28425f	-0.04107892
12	0x3d63e0f6	0.05563446
13	0x3d006896	0.03134974
14	0x3cb09dba	0.021559585
15	0x3ca0abce	0.019613173
16	0x3ccddc22	0.025129382
17	0xbd8cd1c0	-0.06875944
18	0x3d458760	0.048224807
19	0x3d4ee026	0.050506733
20	0x3db8bea0	0.09020734
21	0xbd366168	-0.044526488
22	0x3d957411	0.072975285
23	0x3df31e9c	0.11871073
24	0xbd6ca7d7	-0.057777252
25	0x3a75c2c7	0.00093750324
26	0x3d036989	0.032083068
27	0xbd7ddd23	-0.06197847
28	0xbda84a03	-0.082172416
29	0x3dcc0e11	0.099636205
30	0x3dbcdc59	0.092217155
31	0x3e2d8d27	0.16948377
32	0x3cbbc374	0.022920348
33	0xbdbcc86f	-0.09217917
34	0x3e0f176e	0.13973781
35	0x3dd6cc6c	0.10488209
36	0x3e07060f	0.13185905
37	0x3d3f65a6	0.0467278
38	0xbd6ae6ad	-0.057348896
39	0xbd95a3ad	-0.07306609
40	0x3da72b6c	0.08162579
41	0xbddb0d69	-0.10695917
42	0x3dee2b70	0.11629379
43	0x3dbc42ee	0.09192453
44	0x3bc24eef	0.00592982
45	0x3d24b5e8	0.04021254
46	0x3d3917f6	0.045188867
47	0x3e01a3c3	0.12660126
48	0x3d9c8f17	0.0764448
49	0x3cf1e636	0.029528718
50	0x3e010a67	0.12601624
51	0x3dd94f5b	0.10610839
52	0x3d522a41	0.051309828
53	0x3d949f0e	0.072569
54	0xbc8a9371	-0.016916009
55	0x3dab614e	0.08368169
56	0xbd99b587	-0.07505327
57	0x3db8c24a	0.09021433
58	0x3df90fd4	0.12161222
59	0x3dcaf007	0.09909063
60	0xbd6207fa	-0.05518339
61	0x3d0a3e11	0.033750597
62	0x3df2cf8c	0.11855993
63	0x3e2116fe	0.15731427

network_body.linear_encoder.seq_layers.2.weight f4 [64, 64]
0	0x3de3da1e	0.11125587
1	0x3d147132	0.036240764
2	0x3be0b9f6	0.006858106
3	0x3d249417	0.040180292
4	0x3ca5972c	0.020213686
5	0xbe1043e9	-0.14088406
6	0xbc9141bd	-0.017731542
7	0x3e071248	0.13190567
8	0xbd4bb6eb	-0.04973499
9	0x3b7c6d5f	0.0038517339
10	0x3c94a4ae	0.018144932
11	0x3d9dc932	0.077043906
12	0xbd9b590d	-0.075853445
13	0xbdb44126	-0.088014886
14	0xbeaa69d7	-0.33283874
15	0xbe693da4	-0.2277742
16	0x3dcf3d14	0.101190716
17	0x3d6de14b	0.058076184
18	0xbeb4cefd	-0.3531417
19	0xbe4da7fb	-0.2008361
20	0x3e3ac814	0.18240386
21	0x3b8936d5	0.0041874447
22	0x3da28db6	0.079371855
23	0x3dcc40ed	0.09973321
24	0xbdadcf11	-0.084867604
25	0x3dd884ae	0.10572182
26	0xbc53c033	-0.012924242
27	0x3def7e44	0.11694005
28	0xbc629152	-0.013828592
29	0x3dc5f676	0.09666149
30	0x3e0ccd2f	0.13750146
31	0xbdd76453	-0.10517182
32	0x3cebd344	0.028787263
33	0x3dd46fe5	0.10372905
34	0x3df9addd	0.12191365
35	0xbd9831cb	-0.07431372
36	0x3e107b6f	0.14109586
37	0xbde40c99	-0.11135215
38	0xbd3091b4	-0.043107703
39	0x3e80cab6	0.25154656
40	0x3ddf6189	0.10907275
41	0xbe0e6bf4	-0.13908368
42	0x3b80c942	0.003930242
43	0x3e4dd706	0.20101556
44	0xbdcc99b4	-0.09990254
45	0xbbc79849	-0.006091152
46	0xbdde5248	-0.10855538
47	0x3d9fbd87	0.07799821
48	0xbdec3c92	-0.1153499
49	0xbe10a0e1	-0.1412387
50	0x3dc02181	0.0938139
51	0x3dfc108a	0.12307842
52	0xbc5a06dc	-0.013307299
53	0xbcbc2f85	-0.022971878
54	0xbdfc57aa	-0.12321408
55	0xbc6f5c51	-0.014609412
56	0x3e3a4c88	0.18193257
57	0xbe0265a1	-0.12734081
58	0x3dfbfa40	0.12303591
59	0xbda68bea	-0.08132155
60	0xbe8ecc30	-0.27890158
61	0x3db9db34	0.09075013
62	0x3b0fb5fd	0.0021928542
63	0x3dd9221f	0.10602211
64	0xbe131446	-0.14363202
65	0xbd31fccf	-0.043453988
66	0x3e9ebe2e	0.3100447
67	0xbdf8d127	-0.12149268
68	0xbcd1db3a	-0.02561723
69	0xbe22f981	-0.1591549
70	0xbdf3bae9	-0.11900885
71	0x3d109e49	0.035307202
72	0x3c9ea0a8	0.019363716
73	0x3e36a9e2	0.17838243
74	0x3d47080a	0.04859165
75	0x3dd73519	0.105081744
76	0xbe4da3a7	-0.2008196
77	0x3e0e6770	0.13906646
78	0x3d4426e9	0.04788867
79	0xbd4e87f1	-0.050422613
80	0x3e08d444	0.13362223
81	0xbd3e2a1c	-0.046426877
82	0x3d3226f7	0.04349419
83	0xbe2c6b50	-0.16837811
84	0x3db6d463	0.08927228
85	0xbda78573	-0.0817975
86	0xbce6498c	-0.028111242
87	0x3dd21461	0.10257793
88	0x3d6d84f6	0.05798813
89	0x3d73a8c1	0.05948711
90	0x3d2d28e3	0.04227532
91	0x3d905698	0.070477664
92	0xbe600e27	-0.21880399
93	0x3df4f797	0.119612865
94	0xbded6b0a	-0.11592682
95	0xbd0d1f33	-0.034453582
96	0xbe1909b5	-0.14945109
97	0xbd1c22cf	-0.038119134
98	0xbeaef6a5	-0.3417255
99	0xbc268f82	-0.010166051
100	0x3e592026	0.2120367
101	0x3dcb30dc	0.099214286
102	0xbce93dd5	-0.028471867
103	0xbdb6e353	-0.089300774
104	0x3bbae2ad	0.0057032914
105	0x3c8dc461	0.017305555
106	0x3e2086fe	0.15676495
107	0x3e20cd6f	0.15703367
108	0xbdb141c7	-0.08655124
109	0xbe23830c	-0.15967959
110	0xbdf44187	-0.11926561
111	0x3ddedc7f	0.108819
112	0x3bdc8df2	0.0067307884
113	0x3dbc9b63	0.09209325
114	0xbea5aa45	-0.32356468
115	0x3c3fad1c	0.011698987
116	0x3dea2452	0.11432709
117	0x3d55a7a3	0.052161824
118	0xbd78cf0e	-0.060744338
119	0x3ecee7a1	0.40411094
120	0xbe97fea8	-0.29686475
121	0x3d8670ed	0.06564508
122	0xbc014911	-0.007890956
123	0xbd8a6912	-0.06758322
124	0x3e4d1a29	0.2002951
125	0x3c17abcf	0.009257271
126	0xbc0715a7	-0.008244908
127	0xbe03154e	-0.12801096
128	0xbde5ac29	-0.112144776
129	0xbd865359	-0.06558866
130	0x3ea76dd8	0.32700992
131	0xbcda627b	-0.026658287
132	0x3e8c8835	0.27447668
133	0x3d8866d7	0.0666024
134	0x3cfed496	0.031107228
135	0xbd94e240	-0.07269716
136	0x3e1a5ba7	0.15074025
137	0xbe65d5be	-0.22444817
138	0xbd1ac87c	-0.037788853
139	0x3d04bcec	0.032406732
140	0x3dfe7d2e	0.1242622
141	0x3dac6e37	0.08419459
142	0xbd06b4c4	-0.032887235
143	0xbdc34f68	-0.0953663
144	0x3e000017	0.12500034
145	0x3d91625f	0.07098841
146	0x3daa8fa1	0.08328176
147	0x3e935c3d	0.2878131
148	0x3c89df2b	0.016830048
149	0x3e419969	0.18906178
150	0x3e1770b2	0.14789084
151	0xbd3db8d3	-0.04631884
152	0xbd343edb	-0.044005256
153	0x3d9bc45b	0.07605811
154	0x3d2fe392	0.042941637
155	0x3e1143b8	0.14185989
156	0x3e12acd2	0.14323738
157	0xbdcefb8e	-0.10106574
158	0x3cef14e7	0.029184772
159	0x3d524d37	0.05134317
160	0x3e1068fd	0.1410255
161	0x3ea1a51b	0.31571278
162	0x3cb1681e	0.021656092
163	0x3ce60b37	0.02808152
164	0xbd7403b4	-0.059573844
165	0x3cf9b714	0.030482806
166	0x3e0be536	0.13661656
167	0xbd8950f2	-0.06704892
168	0x3da0c759	0.078505225
169	0x3de86ccd	0.11348877
170	0x3d9dbad6	0.07701652
171	0xbd64d484	-0.055866733
172	0xbe39f44b	-0.18159597
173	0x3d80b57a	0.06284614
174	0xbe3f98c4	-0.18710619
175	0xbaa19d4b	-0.0012330202
176	0x3bf9a55f	0.0076185907
177	0xbe4f75b0	-0.20259738
178	0x3e4c87f5	0.19973738
179	0x3de68700	0.11256218
180	0x3e1f1b73	0.15537815
181	0xbac7896d	-0.0015223451
182	0xbd99a298	-0.075017154
183	0x3e14f1ec	0.14545411
184	0xbdf4d692	-0.119549885
185	0x3e065004	0.13116461
186	0x3e84f848	0.25970674
187	0xbd17fe0f	-0.037107524
188	0x3d03be63	0.03216399
189	0xbd35c2d2	-0.04437525
190	0xbd6ce4ec	-0.057835504
191	0x3d4ab8b4	0.049492553
192	0x3e43a781	0.19106866
193	0xbdb2fbee	-0.08739458
194	0xbdb571cb	-0.08859595
195	0xbd8a1af0	-0.06743419
196	0x3e2ff60a	0.171837
197	0xbd3d3d1b	-0.046200853
198	0x3e66900d	0.22515889
199	0x3d300c6f	0.042980608
200	0x3d4e7fbc	0.050414786
201	0x3dc2142f	0.09476506
202	0x3dbc9a8a	0.092091635
203	0xbdc2e5bf	-0.09516477
204	0xbca56942	-0.020191792
205	0x3e192a4e	0.14957544
206	0x3dcec24d	0.10095654
207	0xbcbe98c6	-0.023266207
208	0xbc3dc362	-0.011582227
209	0xbc9fd8d3	-0.01951257
210	0x3e86e2da	0.2634495
211	0xbe0a5d32	-0.13512114
212	0x3e17aeea	0.14812818
213	0x3d1ca0b6	0.038239203
214	0x3d0b5274	0.03401418
215	0xbc378fe0	-0.011203736
216	0x3da59657	0.08085316
217	0x3e234f96	0.15948328
218	0xbd685168	-0.05671826
219	0x3d2026e7	0.0390996
220	0x3e3a3710	0.18185067
221	0x3ca8bc20	0.020597517
222	0xbe0a9e50	-0.13536954
223	0xbd6c63e0	-0.057712436
224	0xba11471a	-0.0005541906
225	0x3df2b7f1	0.1185149
226	0x3d434943	0.04767729
227	0xbc5b0a56	-0.0133691635
228	0x3d794d05	0.060864467
229	0xbd57c71d	-0.052680124
230	0xbe55e644	-0.2088862
231	0x3d9586fc	0.07301137
232	0xbd01571c	-0.031577215
233	0xbe15addd	-0.14617105
234	0x3e6409ac	0.22269315
235	0xbddf5b44	-0.109060794
236	0x3e576da6	0.21037921
237	0x3df3d8e1	0.11906601
238	0x3dbd1244	0.092319995
239	0xbe67e83f	-0.22647189
240	0x3c287dce	0.0102839
241	0xbc4fd54d	-0.012685132
242	0xbe2095ac	-0.15682095
243	0x3d5391aa	0.051652588
244	0xbe380ad4	-0.1797288
245	0x3c8d9f08	0.017287746
246	0x3d2b7722	0.04186166
247	0x3de83c61	0.11339641
248	0x3e144901	0.14480974
249	0x3c848e36	0.016181093
250	0x3de3e7de	0.111282095
251	0x3dee97c3	0.1165004
252	0x3e13f743	0.14449792
253	0x3e37ffef	0.17968725
254	0x3dc99a08	0.09843832
255	0xbceba4ae	-0.028765049

network_body.vector_processors.0.normalizer.running_mean f4 [13]
0	0xc0d29644	-6.580843
1	0x419b8c22	19.443424
2	0xc0cbe998	-6.372265
3	0xbd28069f	-0.04102194
4	0x3dac0c18	0.08400744
5	0x3c999518	0.018747851
6	0x3d236dd7	0.039899673
7	0xc0579f48	-3.3690968
8	0x408d7c8b	4.421453
9	0xc02d19a2	-2.7046895
10	0xbf8bc219	-1.0918609
11	0x408275a2	4.0768595
12	0xbf13ff0d	-0.5781105
