Assets/Brains/Superhuman.onnx (onnx, 23839 bytes, 9 tensors)

62 f4 [13]
20.896013 7.5492244 20.67499 0.450755 0.30641618 0.30616742 0.45701718 9.105482
4.9899163 8.97908 1.5725007 1.9075941 1.5530747
00000000: 092b a741 3f93 f140 6166 a541 5cc9 e63e
00000010: 95e2 9c3e fac1 9c3e 28fe e93e 0eb0 1141
00000020: 65ad 9f40 50aa 0f41 b447 c93f 0b2c f43f
00000030: 27cb c63f

action_model._continuous_distribution.log_sigma f4 [1, 4]
-0.557463 -0.5274315 -0.6528237 -0.45790365
00000000: e5b5 0ebf c005 07bf 741f 27bf 5972 eabe

action_model._continuous_distribution.mu.bias f4 [4]
0.23460652 -0.24044584 0.70017993 1.15898
00000000: b13c 703e 6f37 76be fe3e 333f 7559 943f

action_model._continuous_distribution.mu.weight f4 [4, 64]
-0.18635713 0.31172296 0.26146907 0.074460074 0.16502632 -1.6291053 0.07353194 0.2969866
0.40398028 -0.45070326 -0.07041612 0.12894772 0.4344391 -0.09952629 0.16554563 -0.26366246
-0.621101 0.13693236 -0.06396055 -0.0784392 0.43581104 -0.3722496 -0.64955425 0.06925698
-0.33044392 -0.29551756 0.0017666912 0.1452425 -0.47331858 0.17774262 -0.19380169 0.17491664
0.24049012 0.6100503 0.03119447 0.69880193 0.095269464 -0.04583963 0.18202941 -0.6595465
-0.109041095 0.3754061 0.2772667 0.36501047 -0.27357495 -0.08059805 -0.5904141 0.18678452
-0.25122342 0.075904325 -0.14066827 -0.26016673 -0.50556195 -0.35244283 -0.040239494 -0.32741112
-0.39937368 1.1575739 -0.31450817 -0.17127524 -0.30564374 -0.028515242 0.12723419 0.08359978
0.48218736 -0.05953325 0.6852495 -0.43703002 -0.45196393 0.5590342 -1.0560956 -0.40768933
-0.29737183 0.13964586 0.2701603 -0.3783799 0.47906864 -0.06256115 0.3283407 0.1691895
-0.21763872 0.19840798 0.09751399 0.54602885 -0.025069116 -0.23544273 -0.15203117 0.24441981
0.76939344 -0.105211794 0.2914305 -0.23158543 0.17275703 0.08735579 0.24723753 0.10525697
-0.19585209 -0.3491599 -0.232938 -1.0985261 -0.048285563 -0.31939682 0.026683506 0.106346555
0.2510409 0.57642895 0.2687084 -0.5892348 0.1166595 0.08972744 -0.6404965 0.14354186
-0.1441281 0.09179691 -0.4127833 0.035829343 0.09054613 0.058064226 0.12705564 -0.19245817
-0.7457786 -0.41905853 1.3539056 -0.098661035 0.029486177 -0.2265482 -0.27986413 -0.8070374
-0.013575241 -0.26128805 -0.42699817 -0.14049907 -0.3489472 0.5564506 0.84357584 0.6498903
-0.06922773 0.06654692 0.13173023 -0.029720953 0.265917 0.07003816 -0.21971066 0.24856968
-0.16873074 0.0009614455 -0.024870839 0.50058013 0.10064357 0.13349211 1.0024068 0.4889856
0.2591524 0.051408514 -0.10272077 -2.2937427 0.3909835 0.52273196 0.009951357 0.5709798
0.12596112 -0.6926543 0.09328024 -0.8354766 0.045213103 -0.16090162 -0.14783484 -0.3881185
0.15125524 0.03159789 -0.24846569 -0.7338663 -0.6805079 -0.54878104 0.84983313 -0.05173547
0.12975477 0.023107179 -0.11786529 0.2595753 0.9277363 0.063432045 -0.24505106 -0.24537168
0.4676889 -0.08548735 0.88678324 -0.11800697 0.14695685 0.5789268 -0.021833424 0.5295949
-0.42809623 -0.14268848 -1.0311295 -0.065082885 -0.30686012 0.043076947 0.04438205 -0.18928859
0.28167927 0.11272175 -0.1689619 -0.19218247 0.12751596 -0.3259792 -0.088862225 0.4791438
-0.48460618 0.061481565 -0.39494482 -0.31023514 0.30704528 0.014814729 -0.80723906 -0.21461743
-0.23380601 0.04553518 0.104359895 -1.0024709 -0.35377365 -0.09446564 0.021476144 -0.051242504
-0.10312684 -0.25346127 -0.15247549 -0.6976901 0.21069424 -0.089448735 -0.1255872 -0.5448658
-1.0771446 0.02072866 -0.0025518858 -0.32305127 0.8530564 0.13310951 -0.37294838 0.20215142
0.1107062 0.57799596 0.040968396 0.28414544 -0.29855257 0.038983546 0.13685536 0.19620743
0.4139295 -0.3980622 -0.02453423 0.025003485 0.3454804 -0.03979092 0.0058418885 0.6324814
00000000: 67d4 3ebe 279a 9f3e 46df 853e 867e 983d
00000010: a9fc 283e 8686 d0bf ea97 963d a10e 983e
00000020: 81d6 ce3e 94c2 e6be 5436 90bd df0a 043e
00000030: cd6e de3e 71d4 cbbd cb84 293e c4fe 86be
00000040: 7a00 1fbf ff37 0c3e c0fd 82bd bba4 a0bd
00000050: a022 df3e 8097 bebe 3049 26bf 9bd6 8d3d
00000060: f22f a9be 144e 97be 5290 e73a 73ba 143e
00000070: d056 f2be 2902 363e f373 46be 591d 333e
00000080: 0b43 763e 422c 1c3f 8c8b ff3c afe4 323f
00000090: a31c c33d 56c2 3bbd eb65 3a3e 0ad8 28bf
000000a0: f050 dfbd 3a35 c03e e7f5 8d3e a7e2 ba3e
000000b0: 0412 8cbe 9710 a5bd 6125 17bf 7144 3f3e
000000c0: 5ba0 80be ba73 9b3d 580b 10be 9334 85be
000000d0: 826c 01bf 6373 b4be 2bd2 24bd 6ea2 a7be
000000e0: b57a ccbe 622b 943f 3707 a1be c762 2fbe
000000f0: 567d 9cbe cc98 e9bc ae49 023e 5d36 ab3d
00000100: 43e1 f63e 23d9 73bd 836c 2f3f 66c2 dfbe
00000110: d167 e7be de1c 0f3f 242e 87bf a8bc d0be
00000120: 1f41 98be 53ff 0e3e 7352 8a3e 03bb c1be
00000130: 7c48 f53e 0f20 80bd 461c a83e 0340 2d3e
00000140: afdc 5ebe 762b 4b3e 6ab5 c73d 8cc8 0b3f
00000150: bf5d cdbc e617 71be 0fae 1bbe 3049 7a3e
00000160: f8f6 443f 4879 d7bd 6136 953e bb24 6dbe
00000170: 38e7 303e 98e7 b23d d62b 7d3e f790 d73d
00000180: 738d 48be 16c5 b2be 4d87 6ebe 819c 8cbf
00000190: 15c7 45bd fb87 a3be 5e97 da3c 39cc d93d
000001a0: 6f88 803e d990 133f 2694 893e 18d8 16bf
000001b0: 2deb ee3d 05c3 b73d 94f7 23bf a3fc 123e
000001c0: 5196 13be 0500 bc3d 5558 d3be cac1 123d
000001d0: 4070 b93d c1d4 6d3d e01a 023e c113 45be
000001e0: 59eb 3ebf d78e d6be c74c ad3f cc0e cabd
000001f0: ff8c f13c 40fc 67be 5a4a 8fbe 019a 4ebf
00000200: b06a 5ebc 8cc7 85be 819f dabe fdde 0fbe
00000210: 35a9 b2be 8c73 0e3f 96f4 573f 365f 263f
00000220: 45c7 8dbd c049 883d 4ae4 063e 5b79 f3bc
00000230: 4626 883e 2b70 8f3d d5fb 60be 0d89 7e3e
00000240: c0c7 2cbe 8409 7c3a eebd cbbc 0526 003f
00000250: 371e ce3d 28b2 083e de4e 803f 525c fa3e
00000260: a0af 843e bc91 523d 445f d2bd aecc 12c0
00000270: fd2e c83e c3d1 053f 040b 233c bb2b 123f
00000280: f4fb 003e cb51 31bf b609 bf3d cbe1 55bf
00000290: 6031 393d 65c3 24be 0462 17be 78b7 c6be
000002a0: a7e2 1a3e ca6c 013d ca6d 7ebe a9de 3bbf
000002b0: c435 2ebf ea7c 0cbf aa8e 593f 92e8 53bd
000002c0: 6fde 043e 444b bd3c 5b63 f1bd 0ee7 843e
000002d0: 2080 6d3f a9e8 813d aaee 7abe b742 7bbe
000002e0: eb74 ef3e fe13 afbd 3a04 633f a3ad f1bd
000002f0: db7b 163e 8c34 143f 02dc b2bc 8893 073f
00000300: 6e2f dbbe ee1c 12be 0dfc 83bf 2d4a 85bd
00000310: c51c 9dbe 7471 303d f4c9 353d ded4 41be
00000320: 4438 903e a9da e63d 5904 2dbe 7bcb 44be
00000330: 8b93 023e bfe6 a6be 66fd b5bd 5652 f53e
00000340: 4d1e f8be 18d4 7b3d 3536 cabe 24d7 9ebe
00000350: 0a35 9d3e 7ab9 723c 38a7 4ebf acc4 5bbe
00000360: d86a 6fbe 1983 3a3d a4ba d53d f750 80bf
00000370: d221 b5be 3477 c1bd bdee af3c a9e3 51bd
00000380: 2a34 d3bd adc5 81be 8922 1cbe d29b 32bf
00000390: 3bc0 573e e630 b7bd ee99 00be 537c 0bbf
000003a0: e0df 89bf 27cf a93c 8a3d 27bb fa66 a5be
000003b0: e761 5a3f dc4d 083e 17f3 bebe c800 4f3e
000003c0: efb9 e23d 8bf7 133f 7ace 273d 837b 913e
000003d0: e2db 98be 36ad 1f3d d023 0c3e 9aea 483e
000003e0: 91ee d33e cfce cbbe 02fc c8bc 1cd4 cc3c
000003f0: cfe2 b03e cefb 22bd 506d bf3b 4dea 213f

network_body.linear_encoder.seq_layers.0.bias f4 [64]
0.49062577 -1.2066957 -0.9772476 -0.3688337 -1.3596518 0.014079699 -1.6138061 -0.7552999
0.0621088 -1.8751262 -0.5447351 -1.1926622 -0.21217208 -0.57702714 -0.070353016 -0.13267535
-0.026854578 -1.4070618 -0.5078924 -0.9527348 0.54950297 -0.34787783 -1.6906343 -1.0382781
-1.5171905 -0.038677998 -0.82592887 0.041443944 -0.605837 1.4372252 -1.8801783 -1.2576784
-1.4981427 -0.7308621 -0.5389838 -0.90432215 0.5833383 -1.4855824 -1.5462859 -1.8324591
-0.2581573 -1.0989169 -1.1779265 1.1013817 -0.37831286 -0.6820214 -1.2571656 -0.5422254
-1.135608 -0.4093653 -0.23962243 -0.74254787 -0.29843175 -2.1327922 -0.92209387 -1.1385696
-1.7308192 0.15842603 -2.1758926 -0.94464856 -0.46842936 -1.6773834 -1.2231318 -1.312673
00000000: 4d33 fb3e 0175 9abf e62c 7abf c5d7 bcbe
00000010: 1209 aebf 8aae 663c 3391 cebf 565b 41bf
00000020: cc65 7e3d 2304 f0bf c273 0bbf 28a9 98bf
00000030: a343 59be 0db8 13bf 3e15 90bd 0cdc 07be
00000040: 22fe dbbc 9a1a b4bf 3c05 02bf 6ee6 73bf
00000050: 3aac 0c3f 0b1d b2be b466 d8bf 4ce6 84bf
00000060: 4c33 c2bf d26c 1ebd 1370 53bf 20c1 293d
00000070: 2218 1bbf fff6 b73f afa9 f0bf 9bfb a0bf
00000080: 24c3 bfbf c719 3bbf d8fa 09bf a881 67bf
00000090: a955 153f 9027 bebf b2ec c5bf 058e eabf
000000a0: 322d 84be 4fa9 8cbf 4cc6 96bf 13fa 8c3f
000000b0: 39b2 c1be f498 2ebf cdea a0bf 49cf 0abf
000000c0: 9a5b 91bf 5498 d1be 955f 75be 9e17 3ebf
000000d0: 0ccc 98be ab7f 08c0 580e 6cbf a6bc 91bf
000000e0: 7c8b ddbf 6f3a 223e d341 0bc0 7dd4 71bf
000000f0: f9d5 efbe 80b4 d6bf 958f 9cbf ab05 a8bf

network_body.linear_encoder.seq_layers.0.weight f4 [64, 13]
0.2451861 0.043910637 0.5240554 -0.9150536 0.8463719 0.5538214 -1.2684286 0.5215177
-0.4570658 0.055378485 0.09485608 0.0016885023 0.034758497 -0.20961986 0.37310237 -0.083202854
0.64840543 0.12715152 -0.5471801 -0.7276528 1.0979639 0.2592157 0.235814 0.6171023
0.060122762 0.18341176 -0.090754814 -0.6479918 0.13403772 -0.6912359 0.48717642 -0.43623173
0.016758442 -0.29204375 -0.09983386 0.096389666 -0.27203414 0.25055793 -0.27103466 -0.25868127
0.5838602 -0.0040816357 -0.947662 -1.1345949 -0.885243 1.6498659 0.05574251 0.74177295
-0.652424 0.00977842 -0.54147536 0.5065933 -0.498796 -0.46855414 -0.9545557 -0.19968647
-1.4116095 -0.17635658 0.3682445 0.09229529 -0.3459889 -0.85659987 0.56526023 0.00992109
-0.040935867 -0.073814966 -0.23273334 -0.067839615 -0.16538863 -0.16577062 -0.520092 -0.53080237
-0.94508976 0.21909316 -1.1029619 0.66381115 0.57136387 0.07645947 0.53987795 0.32739332
0.95741844 -0.11450733 -0.6304619 -0.01769326 0.3612877 0.12652312 0.4179018 0.5196142
-0.10749721 -0.01717792 0.039220195 -0.25861287 -0.49160984 0.51453054 0.09345276 0.21418265
0.91619956 -0.45156452 0.42277184 -0.072780065 0.5954495 1.3797988 -0.14767167 -0.050020378
-0.6783129 -0.044840936 0.018659944 -0.5605871 -0.1613747 -1.2282481 1.001727 1.0770977
-0.25839463 -1.1263744 -0.059996992 0.34495416 0.48826724 -0.72805965 0.7785637 -0.004931652
-0.9123505 -0.27290815 0.40098405 0.16310842 -0.1119509 0.11797466 0.56829715 -0.5435812
-0.5167139 -0.3772583 -0.80389684 0.73842126 0.14325777 0.28743723 1.0324341 0.74631804
-0.7705964 -0.68339884 0.5087546 0.10999162 0.4307196 -0.18767947 0.58731765 0.2637126
-0.6003522 -0.013281024 -0.43157226 -0.42842203 -0.53448313 0.8181897 -0.30256695 -0.33239356
-0.28975803 -0.3030879 -0.05387697 0.5790798 0.4945958 -0.08763061 0.09151232 0.2023514
0.2742825 0.31762573 1.1118333 -0.04714849 0.50066584 0.3159914 0.37951142 -0.7159319
-0.052463744 0.11081727 0.20020683 -0.82098716 -0.040373243 -0.8191448 -1.9558666 0.27701238
-0.061257567 0.25944003 0.6176574 0.39182794 0.50894386 0.6399235 -0.299476 -0.42854944
0.25631973 -0.9153737 0.20050746 0.3181572 -1.1141263 -1.2351239 0.04737562 0.07106725
-0.23484612 -0.083059095 0.3825046 -0.45438883 0.07250309 0.060260314 -1.3455262 -0.111051485
0.34599903 0.47117373 0.16715491 0.15259162 0.48511636 -0.050264675 0.54872334 0.5051277
-1.2683847 -0.04854144 0.022033432 1.4241519 -0.017206505 0.47626567 -1.513809 -0.5919453
-0.9317259 0.18172504 -0.64763755 -0.25908822 -0.05453839 -0.3739276 -0.4149067 -0.090905465
0.45281225 -0.61745644 -1.0744962 -0.74935704 -0.48405197 0.16012561 -0.2866945 -0.39690578
-0.04657858 0.54603225 0.41780424 -0.70670074 -0.010247657 -0.7252892 -0.8761183 0.61456275
-1.162291 0.42893663 -0.67332315 -0.23716667 0.77940065 0.032943033 0.2968809 0.39605534
0.08991964 -0.93123233 -1.1425723 0.4581083 0.0568388 0.38069755 0.2177962 0.21097244
00000000: 1112 7b3e a4db 333d 7f28 063f f440 6abf
00000010: d4ab 583f 3dc7 0d3f de5b a2bf 2f82 053f
00000020: 8704 eabe 8dd4 623d e843 c23d bc50 dd3a
00000030: ed5e 0e3d 97a6 56be 4607 bf3e 4266 aabd
00000040: e6fd 253f 0234 023e ff13 0cbf 7447 3abf
00000050: 158a 8c3f ecb7 843e 3a79 713e 6bfa 1d3f
00000060: 4943 763d 4bd0 3b3e a9dd b9bd cae2 25bf
00000070: 2f41 093e d6f4 30bf 306f f93e c459 dfbe
00000080: 0049 893c c286 95be b275 ccbd f267 c53d
00000090: 0f48 8bbe 2149 803e 0ec5 8abe df71 84be
000000a0: dd77 153f 3ebf 85bb fa99 72bf 683a 91bf
000000b0: 499f 62bf ce2e d33f 4252 643d d5e4 3d3f
000000c0: 4205 27bf ab35 203c 219e 0abf 19b0 013f
000000d0: 3062 ffbe 54e6 efbe c35d 74bf 9c7a 4cbe
000000e0: 9faf b4bf d296 34be 8b8a bc3e 5005 bd3d
000000f0: 7525 b1be 214a 5bbf e5b4 103f 118c 223c
00000100: 5eac 27bd 4d2c 97bd a651 6ebe 7fef 8abd
00000110: a35b 29be c6bf 29be c024 05bf aae2 07bf
00000120: 67f1 71bf f559 603e db2d 8dbf 87ef 293f
00000130: e744 123f c896 9c3d 7135 0a3f 19a0 a73e
00000140: 6019 753f d282 eabd f365 21bf 75f1 90bc
00000150: b4fa b83e 478f 013e 3af7 d53e 7005 053f
00000160: 7f27 dcbd b6b8 8cbc 5ba5 203d e868 84be
00000170: 49b4 fbbe 46b8 033f 2964 bf3d b252 5b3e
00000180: 0e8c 6a3f 7733 e7be 8d75 d83e b70d 95bd
00000190: 616f 183f 3f9d b03f 3e37 17be 2be2 4cbd
000001a0: eaa5 2dbf 21ab 37bd bddc 983c a382 0fbf
000001b0: 693f 25be 3c37 9dbf 9738 803f 56de 893f
000001c0: 4d4c 84be 092d 90bf 68bf 75bd d59d b03e
000001d0: 2afe f93e 1e62 3abf f34f 473f b299 a1bb
000001e0: cd8f 69bf 9eba 8bbe c84d cd3e e505 273e
000001f0: 8346 e5bd b39c f13d ec7b 113f 2328 0bbf
00000200: 5d47 04bf 0028 c1be 2fcc 4dbf 2d09 3d3f
00000210: 2ab2 123e f92a 933e cd26 843f b30e 3f3f
00000220: ce45 45bf 3af3 2ebf be3d 023f 4943 e13d
00000230: 4887 dc3e 0c2f 40be 735a 163f 5705 873e
00000240: afb0 19bf a798 59bc 0af7 dcbe 225a dbbe
00000250: e3d3 08bf e174 513f 0eea 9abe 7d2f aabe
00000260: 2a5b 94be 562e 9bbe 19ae 5cbd 933e 143f
00000270: a93b fd3e ad77 b3bd d06a bb3d 3535 4f3e
00000280: c16e 8c3e d79f a23e 8e50 8e3f c61e 41bd
00000290: a32b 003f a0c9 a13e 524f c23e 5047 37bf
000002a0: 39e4 56bd 2af4 e23d 0503 4d3e 372c 52bf
000002b0: 6a5e 25bd 79b3 51bf d659 fabf 91d4 8d3e
000002c0: 37e9 7abd 53d5 843e cc1e 1e3f ac9d c83e
000002d0: 254a 023f 07d2 233f eb54 99be d56a dbbe
000002e0: 573c 833e ee55 6abf d451 4d3e 80e5 a23e
000002f0: b19b 8ebf 8a18 9ebf f00c 423d b58b 913d
00000300: 807b 70be e31a aabd a5d7 c33e a7a5 e8be
00000310: 807c 943d 85d3 763d 343a acbf f66e e3bd
00000320: c926 b13e af3d f13e a82a 2b3e fa40 1c3e
00000330: 2c61 f83e 55e2 4dbd 2279 0c3f 0d50 013f
00000340: 6e5a a2bf 64d3 46bd 757f b43c 9c4a b63f
00000350: a8f4 8cbc 18d9 f33e 7ec4 c1bf ba89 17bf
00000360: 9785 6ebf 2116 3a3e 93cb 25bf 36a7 84be
00000370: a663 5fbd 7073 bfbe a76e d4be a52c babd
00000380: 02d7 e73e a011 1ebf 1789 89bf ddd5 3fbf
00000390: a9d5 f7be f8f7 233e 9fc9 92be 3c37 cbbe
000003a0: 2ec9 3ebd c5c8 0b3f 70ea d53e 57ea 34bf
000003b0: cae5 27bc 8eac 39bf 4a49 60bf fc53 1d3f
000003c0: f4c5 94bf 959d db3e e85e 2cbf d2db 72be
000003d0: cd86 473f 46ef 063d c600 983e c4c7 ca3e
000003e0: ca27 b83d 3e65 6ebf cf3f 92bf 2c8d ea3e
000003f0: cdcf 683d caea c23e f805 5f3e 2909 583e

network_body.linear_encoder.seq_layers.2.bias f4 [64]
-1.6301512 -1.1386178 -0.97362053 -0.87704736 -1.3565575 -1.0493965 -1.4860057 -0.96219695
-1.2688532 -0.4924896 -1.0448303 -0.37732404 -1.0343974 -0.25546247 -0.3314885 -1.268519
-1.1101063 -0.39839867 -0.48713323 -1.1466991 -1.0839654 -0.97121394 -1.2914593 -0.7712385
-0.8161783 -0.1271645 -0.29788366 -0.9874659 -0.8869888 -0.9061411 -0.505724 -0.793255
-1.2756193 -0.9843573 -0.5814195 -1.686963 0.5601465 -1.352295 0.25111812 -1.3824722
-0.72882503 -1.4241315 -1.1370267 -0.9978147 -1.0274073 -0.60853964 -0.5152667 -0.9501753
-0.9298847 -0.87247366 -0.7461819 -0.6605886 -1.8079283 -0.95915896 0.11214041 -1.3565682
-1.216209 -0.7155273 -1.1357456 -0.42673022 -1.2343297 -0.8488393 -0.4392389 -0.7567169
00000000: cba8 d0bf 3abe 91bf 323f 79bf 2d86 60bf
00000010: ada3 adbf a052 86bf 6f35 bebf 8a52 76bf
00000020: c869 a2bf 9927 fcbe 00bd 85bf 9e30 c1be
00000030: 2267 84bf facb 82be dcb8 a9be d55e a2bf
00000040: f717 8ebf e9fa cbbe 8769 f9be 09c7 92bf
00000050: 61bf 8abf 7aa1 78bf 8a4e a5bf e36f 45bf
00000060: 10f1 50bf 6937 02be 3584 98be 91ca 7cbf
00000070: b311 63bf ddf8 67bf 2177 01bf c212 4bbf
00000080: 7e47 a3bf d7fe 7bbf e9d7 14bf 67ee d7bf
00000090: c365 0f3f 0118 adbf 8e92 803e d9f4 b0bf
000000a0: 4794 3abf f149 b6bf 178a 91bf c970 7fbf
000000b0: 1582 83bf 41c9 1bbf 85e8 03bf b03e 73bf
000000c0: ec0c 6ebf 6f5a 5fbf c705 3fbf 561c 29bf
000000d0: 326a e7bf 718b 75bf dfa9 e53d 07a4 adbf
000000e0: bdac 9bbf cc2c 37bf 1d60 91bf 627c dabe
000000f0: 84fe 9dbf 884d 59bf ece3 e0be 33b8 41bf

network_body.linear_encoder.seq_layers.2.weight f4 [64, 64]
-1.0481482 -0.8825351 -0.82148373 -0.4980683 -1.0470319 -1.7711827 -0.24361606 -0.99916065
-0.38535863 0.715555 0.3383378 -0.6405881 -0.53943217 0.22683384 0.2259207 0.0028780694
-1.2346851 0.51935226 0.45010614 -0.5610461 -0.010784296 -0.3540273 -1.0352658 -0.3555943
1.2329099 -0.47353348 -1.0697438 -1.37104 -0.36800125 0.063785724 0.83556324 -0.11418981
0.10423059 -0.08090512 0.31989825 -1.0350341 -0.3148493 -0.18472992 1.0044167 -0.14224136
0.14959303 0.03484133 0.25845903 -0.67907846 -0.013150655 0.3704789 -0.06045642 -1.0272379
-0.9924821 -0.20988183 -0.72841907 0.16445564 -1.3940134 -0.2654358 -0.6262559 0.15165894
-0.5013865 -0.06434806 -0.16426557 0.5658921 -0.69776857 -0.19063503 -0.0722813 -1.1835446
0.056258824 0.25644967 -1.0239758 0.40909326 0.50517493 -0.24288125 -1.318542 0.78627425
-0.046765905 -0.22024189 0.8976312 -1.0846173 -0.56385446 0.15565634 -1.2117531 -0.84640265
-0.52769786 0.10898211 0.7819247 -1.3870037 -1.0644301 0.0096735 -0.19544551 0.3526217
0.52606153 -0.36920598 -0.18918611 0.088929445 0.05016533 -0.47772497 -0.019818489 -0.008216403
-0.8718208 -0.0770864 -0.34851268 -0.27300653 -0.84708226 -0.18583335 1.0694097 -0.050028346
-0.50414395 0.2465279 0.29594436 -0.8828497 0.18806587 -1.4975033 -0.818203 -0.67432755
-0.42775485 0.22531089 0.73987913 -0.21340322 -1.1278627 -0.12718776 -0.49129766 -0.41250136
0.8052795 0.5361287 0.4686567 0.9557283 0.29612818 0.4763045 0.07927826 0.578635
-0.5327493 -0.65754944 -1.427546 -0.716261 0.66216993 -0.7206211 -0.18910098 -0.6655983
0.28294376 -0.08275032 0.41712973 -1.1195687 -0.3953892 -0.3829536 0.2948521 -0.725749
-0.10097117 0.3150796 -0.9509698 -0.3063216 -0.21918209 0.082170196 -1.0185026 0.023637842
-0.8081218 -1.3314383 -1.0913168 -0.48555878 -0.35737675 -0.76486397 -1.1639415 -0.13567016
0.4700521 -0.58292305 -0.42086628 0.39138022 -2.7749102 -0.15129325 -0.6687675 0.8684786
0.3328872 0.47620317 0.15002869 -0.093580976 -0.19521496 -0.42026553 -1.3315386 -0.52844685
-0.110706404 -0.057558242 0.011384631 -1.4765913 0.0065932455 0.3188903 0.39392382 -0.3108166
-0.32028022 -0.7837263 -0.04549927 -0.61234766 -0.41063595 0.96989346 -0.095518924 -0.453025
-0.447806 1.0421516 -0.5910322 -0.51151067 -0.9413621 -0.46116236 -0.71464956 -0.45177698
-1.3200414 0.88797003 0.817633 0.106121324 0.13101333 -0.148862 -0.070736624 -0.53689754
0.06402615 0.79554534 -1.5871524 0.5076472 -0.2297244 -0.27255905 -0.4441817 -0.47390932
0.5697722 -0.21430759 0.22235593 -0.81983685 -0.63193226 -0.15091524 0.23722716 -1.0003583
-0.64702684 0.3829244 -0.34988824 0.5057312 -0.3448811 -0.52079463 0.27376398 -0.92486393
-0.33390433 -0.8808519 -1.612496 0.108435854 0.006490546 -1.2220879 -0.47691628 -0.75266236
-0.9451937 0.20002359 -0.48314634 0.016011938 0.74219143 -0.579713 0.0845681 0.73931694
-0.537269 -0.45692602 0.023731587 0.03822424 0.26179528 0.8389774 -1.114609 -1.2170031
00000000: b829 86bf d2ed 61bf c24c 52bf cf02 ffbe
00000010: 2405 86bf 1db6 e2bf 7d76 79be fec8 7fbf
00000020: ba4d c5be 9d2e 373f 9d3a ad3e 95fd 23bf
00000030: 3a18 0abf 2147 683e c257 673e fe9d 3c3b
00000040: 290a 9ebf 45f4 043f 5074 e63e b8a0 0fbf
00000050: 9eb0 30bc 1143 b5be 9783 84bf 7510 b6be
00000060: fecf 9d3f fb72 f2be 5ded 88bf 3d7e afbf
00000070: a96a bcbe 17a2 823d 79e7 553f 59dc e9bd
00000080: d976 d53d 95b1 a5bd b4c9 a33e ff7b 84bf
00000090: ed33 a1be d729 3dbe ba90 803f b8a7 11be
000000a0: ea2e 193e c8b5 0e3d be54 843e 16d8 2dbf
000000b0: d875 57bc 69af bd3e 27a1 77bd 887c 83bf
000000c0: 4f13 7ebf 43eb 56be ac79 3abf 0f67 283e
000000d0: 086f b2bf 34e7 87be 4f52 20bf 7b4c 1b3e
000000e0: de5a 00bf eac8 83bd 3c35 28be 4ede 103f
000000f0: f6a0 32bf d435 43be 3808 94bd 647e 97bf
00000100: a76f 663d 5f4d 833e a411 83bf ac74 d13e
00000110: 2553 013f ddb5 78be fcc5 a8bf 4549 493f
00000120: 9b8d 3fbd 1787 61be 29cb 653f bdd4 8abf
00000130: c458 10bf 6064 1f3e ba1a 9bbf d8ad 58bf
00000140: 3517 07bf 0332 df3d 382c 483f 5689 b1bf
00000150: 3f3f 88bf 9a7d 1e3c de22 48be d58a b43e
00000160: f8ab 063f 9108 bdbe 01ba 41be a420 b63d
00000170: 297a 4d3d 5e98 f4be 625a a2bc 189e 06bc
00000180: a62f 5fbf 79df 9dbd 4170 b2be 83c7 8bbe
00000190: 62da 58bf 194b 3ebe 6be2 883f 86ea 4cbd
000001a0: 940f 01bf cf71 7c3e 0586 973e 7002 62bf
000001b0: 5794 403e 30ae bfbf c075 51bf bba0 2cbf
000001c0: af02 dbbe e6b7 663e b868 3d3f 6086 5abe
000001d0: ce5d 90bf 823d 02be 5e8b fbbe 6133 d3be
000001e0: cc26 4e3f bb3f 093f c5f3 ef3e 9caa 743f
000001f0: 1d9e 973e 2fde f33e a45c a23d 6c21 143f
00000200: 4262 08bf 2955 28bf d4b9 b6bf e25c 37bf
00000210: f883 293f a07a 38bf b0a3 41be a664 2abf
00000220: 01de 903e 0079 a9bd 0792 d53e 074e 8fbf
00000230: 7470 cabe 7f12 c4be dbf6 963e b0ca 39bf
00000240: f9c9 cebd 1d52 a13e c272 73bf 2fd6 9cbe
00000250: 4571 60be d948 a83d 4b5e 82bf 26a4 c13c
00000260: 12e1 4ebf 926c aabf 45b0 8bbf 299b f8be
00000270: 16fa b6be 20ce 43bf 09fc 94bf 1eed 0abe
00000280: abaa f03e 723a 15bf c97b d7be fd62 c83e
00000290: 2198 31c0 9eec 1abe 5934 2bbf 9d54 5e3f
000002a0: 3170 aa3e e7d0 f33e 1fa1 193e 62a7 bfbd
000002b0: 6ee6 47be 0b2d d7be db6f aabf 4b48 07bf
000002c0: 0aba e2bd 31c2 6bbd 9a86 3a3c f200 bdbf
000002d0: 270c d83b 9745 a33e 62b0 c93e 5a23 9fbe
000002e0: c5fb a3be 49a2 48bf 715d 3abd d1c2 1cbf
000002f0: e03e d2be f04a 783f 6d9f c3bd e5f2 e7be
00000300: d446 e5be 3965 853f e34d 17bf 5df2 02bf
00000310: 1bfd 70bf 791d ecbe 46f3 36bf 504f e7be
00000320: 1ef7 a8bf 0152 633f 6550 513f 2356 d93d
00000330: 5c28 063e 486f 18be 5dde 90bd 1e72 09bf
00000340: 2420 833d dca8 4b3f cf27 cbbf 2bf5 013f
00000350: e03c 6bbe dc8c 8bbe c96b e3be 3ea4 f2be
00000360: 97dc 113f 7373 5bbe 46b1 633e d4e0 51bf
00000370: 50c6 21bf 8689 1abe adeb 723e be0b 80bf
00000380: 8da3 25bf ab0e c43e 8d24 b3be 9a77 013f
00000390: 4194 b0be cc52 05bf cb2a 8c3e e2c3 6cbf
000003a0: 82f5 aabe 837f 61bf 4566 cebf 9e13 de3d
000003b0: a5ae d43b 606d 9cbf 5f2e f4be 7bae 40bf
000003c0: 37f8 71bf fcd2 4c3e f55e f7be 782b 833c
000003d0: 4200 3e3f 1268 14bf 0a32 ad3d e043 3d3f
000003e0: 768a 09bf 35f2 e9be bf68 c23c 0591 1c3d
000003f0: 080a 863e 39c7 563f 82ab 8ebf c2c6 9bbf

network_body.vector_processors.0.normalizer.running_mean f4 [13]
0.7132035 21.108046 -7.9300814 -0.037645783 0.4521442 0.43415648 -0.07734496 0.07618437
0.21872783 -0.1770771 -0.26510873 0.11877277 -0.059588768
00000000: 8194 363f 47dd a841 3ac3 fdc0 7732 1abd
00000010: 727f e73e c249 de3e 0967 9ebd 8d06 9c3d
00000020: 30fa 5f3e b353 35be 55bc 87be 233f f33d
00000030: 5a13 74bd
