Assets/ML-Agents/Brains/Basic-1199996.onnx (onnx, 23839 bytes, 9 tensors)

62 f4 [13]
00000000: 0977 8f41 2446 0841 dfec 8941 c8fa b83e
00000010: 3649 a33e e3f0 183f 809e 1f3f e500 3441
00000020: 3a72 cf40 40ef 6241 9797 ec3f 310a 3540
00000030: 340a 2740
17.933123 8.517124 17.24066 0.3612883 0.31891793 0.59742564 0.62351227 11.250218
6.4826937 14.183411 1.8483762 2.828747 2.6099977

action_model._continuous_distribution.log_sigma f4 [1, 4]
00000000: 769f 86be 6d5a 6cbe 26f5 a7bd e77c e9be
-0.26293534 -0.2308137 -0.08201055 -0.45603105

action_model._continuous_distribution.mu.bias f4 [4]
00000000: b81d 04bc a86c 033d 3b62 203d 396d bfbb
-0.008063726 0.032086045 0.03915618 -0.005841878

action_model._continuous_distribution.mu.weight f4 [4, 64]
00000000: 6c54 e4bd e67d 14bc bd96 333e 998c 953d
00000010: 2592 e73c 4c6f ef3d 154d 6e3d d432 abbe
00000020: 932c 8abd 95d6 6a3e 0afc f2bd 876b 623c
00000030: b41f dc3d e083 873e 34a3 81bd 66a2 0cbe
00000040: b28b 80be 8502 163d e24e b4ba df05 103e
00000050: 82dd 433e 8b3b b93c 2cd7 b2bc b5a7 353d
00000060: 694b a13c 3f34 f0bd d55a 093e 11f3 45bd
00000070: 0b8e ac3b 3c90 86bd 5a6c 433d d22d 35bd
00000080: dc44 323e 5b9d b4bd 2038 8e3d b4c0 8e3e
00000090: cc63 913d 334c ad3d 3450 973d c11e f63d
000000a0: 6c12 59bd 5fa5 87be 9a40 503e c01c db3d
000000b0: fdfc 31be 0abd 1abe 0901 15bd 1090 be3d
000000c0: 928b c63d 6e2e 66be 5dbf da3c 44db 67bd
000000d0: 0ea6 803e d576 1b3e 3d03 95bc 5062 503c
000000e0: 9874 76bd 0231 76be 0b0c 9f3c f8d5 893d
000000f0: ae33 053e a8f4 f93c c0e5 003e bc62 5e3e
00000100: 89a3 5cbe 437d 4fbd 3d0d 12bb 1ee9 103e
00000110: 8388 acbc 1cad 153d df58 853d a898 9abd
00000120: 0aa6 983d 7381 0dbe 2649 203e 2753 133d
00000130: b7bc 523d 8ef7 583e 7455 b03d be37 fabd
00000140: 5daf 3cbd 9c81 a9bc 3d98 b8bd 620e 06be
00000150: a96c 69be 0a47 82bc 25e5 81be 3207 a3bd
00000160: b951 81bc e760 7abd 45a8 b33c 515b 2b3e
00000170: 9808 84bd b4ad 1b3e c2df 163d 6a1d e53d
00000180: 092e 4ebd ad84 553d f3f4 12be 6172 a63d
00000190: 5fcb 393c d97c d33c 7107 b6bd 134c 3bbd
000001a0: fbf7 cf3d 5d63 cabb c6f8 5f3d 4b08 3abd
000001b0: 19f1 643d 8571 4dbd 0478 da3d 2859 163e
000001c0: 06c6 7e3e e82f c3bd ceac 88be 9f0f 06bd
000001d0: 456b e5bc 44bb 5fbc a139 a7bc 0558 f8bd
000001e0: 3f1c 20be e16f 10bd 22f6 f73d 6827 f73d
000001f0: 757e 01be 5525 10bd 9ca8 e7bd e76a ae3d
00000200: 204f 9b3d a06c e1bd ed4c 153d b64d 863b
00000210: 1757 3c3d de6f 29bb c273 023d 0e17 9abd
00000220: dea5 ccbc 6458 453c 974b cebd 52ab f13c
00000230: 09fd 74bd 681e f23c 0769 633d 9b1d e53d
00000240: a11b 0abc a38c 9fbc 04c3 31bd dc52 f23b
00000250: 70c6 4c3d d0f2 6ebd 2aa8 fdbc ae20 5c3d
00000260: 26e7 553d 0e31 d93b fbd6 a0bc 1fb0 dc3a
00000270: cb83 e13c d16d 00bb ab33 763a ae2b 26bd
00000280: dcc9 1dbd 5bef e53c 9f7a ddbc 1b08 263d
00000290: 4d4e a23d 266b 803d a28d 05bd bc6c 84bd
000002a0: d41c 773d ffeb a8bd 1809 adbd f467 b03d
000002b0: 3c74 8a3d 3246 46bd 596c 9d3c 8725 0f3d
000002c0: 5944 0a3a 468f 93bd 07f5 0b3d bb37 443c
000002d0: 3ff6 303d cd5d a03a 6358 babd ebf8 5fbd
000002e0: 61dd 5fbd 5451 1fbd 1cee 3cbd 653e f5bb
000002f0: 1ae8 233c 2b73 9fbc f151 0cbd d5ff 01bb
00000300: 43c2 05bc 2dd5 173d 401d 963d 16a1 523e
00000310: b299 583e 6966 41bb b262 2b3e 2e9b 9e3d
00000320: a3df acbc 0927 153e cd86 30bb cf1f f9bd
00000330: 1b20 013e e64b 223b 180d 863e c197 ac3d
00000340: b726 af3d 9ea9 bfbd 4821 1f3e 6e51 893c
00000350: ef65 99bd bc6d 063c 0a10 51bc 81d6 84bc
00000360: dac8 12bd f5a4 813e 4ff4 003e 5d0e 88bd
00000370: 918b 18bd 84ae bc3c eb3e f63d b431 6fbd
00000380: 69ab cabb e7b0 a9bd 8a93 69bd a4c1 f83a
00000390: 2534 463e 839e 68bd 0d91 aabb ebd6 d439
000003a0: 60fa 0d3c 1bda d9bd a640 4ebe 5d71 ae3d
000003b0: be0f b6bd f067 8d3c d209 27bc 091b 5a3c
000003c0: c740 b7bd 3369 c13d c1e5 dd3d 3319 14be
000003d0: 950f f23d d1ea 223c da00 c0bd eba5 d63d
000003e0: 7555 99bc 8123 883d a068 08be 52cb 1cb9
000003f0: 8147 c33c ae63 27be 1484 e63c fc6e 843c
-0.11148915 -0.00906322 0.17537971 0.073022075 0.02826793 0.1169115 0.05817898 -0.33437216
-0.06746783 0.22933419 -0.11864479 0.013819582 0.107482344 0.264678 -0.06329957 -0.13733825
-0.2510658 0.036623497 -0.0013756419 0.1406474 0.19127467 0.0226114 -0.021831118 0.04434939
0.019689279 -0.11728715 0.13413556 -0.04832751 0.0052659563 -0.06570479 0.047710754 -0.04423315
0.1740908 -0.08819076 0.06944299 0.27881396 0.07099113 0.084617995 0.073883444 0.120175846
-0.052996084 -0.26493356 0.20337144 0.10698843 -0.17381664 -0.15111175 -0.03637794 0.093048215
0.0969459 -0.22478649 0.026702577 -0.056605592 0.2512669 0.1518205 -0.01819002 0.012718752
-0.060169786 -0.24042132 0.019414922 0.067302644 0.13007995 0.030512169 0.12587643 0.21717352
-0.21546759 -0.05065657 -0.0022285723 0.14151427 -0.021061188 0.036542043 0.065110914 -0.07548648
0.074535444 -0.13818912 0.15652904 0.035967972 0.051449504 0.21188185 0.08610049 -0.12217663
-0.046065677 -0.020691685 -0.09013412 -0.13091424 -0.22795357 -0.015903015 -0.25370136 -0.07960357
-0.015786039 -0.06112757 0.021930823 0.16734053 -0.06446952 0.15202981 0.036834486 0.11187251
-0.05033687 0.052128483 -0.14351253 0.08127285 0.011339991 0.025816368 -0.08888138 -0.045726847
0.101547204 -0.006176396 0.05468061 -0.045418065 0.05589399 -0.05015709 0.106674224 0.14682448
0.24880227 -0.09530622 -0.2669434 -0.03272974 -0.028005252 -0.013655487 -0.020413222 -0.121261634
-0.15635775 -0.035262946 0.12107493 0.12068063 -0.12645896 -0.035191853 -0.113114566 0.08516484
0.07583451 -0.11007047 0.036450315 0.0040986193 0.045981493 -0.0025854032 0.031848677 -0.075239286
-0.024981435 0.012045 -0.10073011 0.029500637 -0.059811626 0.029555514 0.055520084 0.111872874
-0.008429439 -0.01947624 -0.043398872 0.0073951315 0.049993932 -0.058337033 -0.030963976 0.053742103
0.052222393 0.006628162 -0.01963376 0.0016837156 0.027528664 -0.0019596706 0.00093918544 -0.040569
-0.038522586 0.028068235 -0.02703601 0.040535074 0.07925091 0.06270437 -0.032605775 -0.06466052
0.060330227 -0.08248138 -0.08449 0.086135775 0.06760451 -0.048406787 0.019216703 0.0349479
0.0005274467 -0.072050616 0.034169223 0.011976178 0.04320359 0.0012234986 -0.0909889 -0.054680746
-0.054654483 -0.03889592 -0.046125516 -0.0074842446 0.010004068 -0.019464096 -0.034257833 -0.0019836326
-0.008163991 0.037068535 0.07329798 0.20569262 0.2115238 -0.0029510504 0.16736868 0.07744442
-0.021102732 0.14565672 -0.0026935816 -0.1216427 0.12609904 0.0024764477 0.26181865 0.08427382
0.08552306 -0.09358524 0.1554004 0.016762462 -0.074901454 0.008204874 -0.012760172 -0.016215565
-0.03583608 0.25321165 0.12593196 -0.066433646 -0.037242476 0.023032434 0.120237194 -0.05839701
-0.0061849845 -0.082856946 -0.05702547 0.0018978608 0.19355829 -0.056791794 -0.0052052797 0.00040595917
0.008665651 -0.106373034 -0.20141849 0.08517716 -0.08889721 0.017261475 -0.010195212 0.01331211
-0.08947902 0.09443893 0.10834838 -0.14462738 0.11819378 0.00994368 -0.093751624 0.10480865
-0.018717507 0.06647397 -0.13321161 -0.00014953062 0.023837807 -0.16346619 0.028139152 0.016166203

network_body.linear_encoder.seq_layers.0.bias f4 [64]
00000000: 7291 11be 7172 133e e262 e73c 8fe0 2a3e
00000010: 1cbb c83d 8180 e6bc bdbb 6b3d dd43 4cbd
00000020: 3136 0a3c dd28 4b3e 4510 dcbc 944d 94bd
00000030: 8758 eb3d 5d18 6bbc f77c c83d 8115 4e3e
00000040: 4074 2c3e 243a e4bd 6be8 f03d 7a56 b1bd
00000050: 48a8 8abd e367 a93d d691 073e 3335 17be
00000060: 74e7 87bd d4c7 6d3d 304b cf3d c1a0 7f3e
00000070: d419 493d 3523 3a3e 703c 913d 3ab3 aa3d
00000080: e9b0 9e3d febb b73d 637b ad3d e3b3 8fbd
00000090: a240 493d a0cc a5bd c74a 9abd 6c9a 473e
000000a0: 3873 15bd 77d8 273d 1a1f 423d 0fe5 7c3e
000000b0: cd35 393e 1702 793d 9621 8fbd c0ea 473e
000000c0: 9259 a6bd b0d8 9cbb 4213 af3d 991c 503e
000000d0: 550d 4e3e 14bd 043e bff3 1c3e fa47 8abd
000000e0: a64f 88be ef79 763e 4519 d73d eef3 4c3e
000000f0: 5b59 2dbd 3be2 aa3d d5a0 563c fe8b 323e
-0.14215639 0.14399125 0.028245393 0.16687225 0.09801313 -0.028137447 0.057552088 -0.049869407
0.008435772 0.19839807 -0.026863227 -0.07241359 0.114914946 -0.01434907 0.0978946 0.2012539
0.16841221 -0.11143902 0.1176308 -0.08659072 -0.06770378 0.08271768 0.13239226 -0.14766388
-0.06635943 0.0580519 0.10121763 0.24963666 0.049096897 0.18177493 0.07091606 0.08334966
0.07748587 0.089714035 0.084708 -0.070167325 0.049133904 -0.0809567 -0.07533794 0.19492501
-0.036486834 0.04097792 0.047392942 0.24696754 0.1808693 0.06079301 -0.06988828 0.19523144
-0.08122553 -0.0047865734 0.08548595 0.20323409 0.20122273 0.12962753 0.15327357 -0.0675201
-0.26623267 0.24069951 0.10502867 0.20014927 -0.042321544 0.08343931 0.013099869 0.17436215

network_body.linear_encoder.seq_layers.0.weight f4 [64, 13]
00000000: c15c 79be f3ed e93c 8885 b0bd 6691 183f
00000010: 814b fbbe 5892 6cbe e6d4 ab3e 7b9d d6be
00000020: c2db 513e b625 83be 631e fb3d 5488 263e
00000030: ea6d d8be f546 dc3e dcd3 853d 2268 80be
00000040: d9c6 ff3e 0a5a 6ebe c326 21bf ed0c 19bf
00000050: 764c 363f 690e 773e 3bec 3e3f 5fdd ed3e
00000060: a9b9 ad3e de60 5f3e e6a3 b13e 7a71 96be
00000070: d12d a43e c0ef d53c 73aa af3d e75e 173f
00000080: ca0a 8bbe 0318 a43d 3f98 63bd da2a 483e
00000090: f692 173f 109b d73e 7884 6ebd 6d41 babd
000000a0: 8731 bf3e daa0 e0bd f9a6 4e3e 7ceb e1be
000000b0: 9454 83be 123d f5be ac18 cebe c7dd 81be
000000c0: 0403 2b3e 6958 b5bc 7cc6 f23c de54 1f3f
000000d0: 7d0f c4be 2bdc 10be 9f23 f0bc 3848 a83e
000000e0: 67fa b7bd d6b9 53bf c334 09bf 338a 11be
000000f0: fdcc c3be 4bf2 d73b b3b8 65be c054 383d
00000100: 4c1b dd3d bff6 973e e0c9 043e 82aa 873d
00000110: 7896 813d 064e 05bf d064 95be 7eda 513e
00000120: 851f c03e 510c 223f d720 26be 6134 603e
00000130: f1e5 33be 2e93 af3e 297d 2cbe c6fc 7c3c
00000140: cc76 aebe 82fd 33be 4d8a 763f 203d 4ebd
00000150: 94cd 28bf 7fd5 583c 481b 143e 2be2 c83e
00000160: a724 7e3e b643 313f 66bb 60be 54dd a43e
00000170: d9a8 c23e 33b2 8dbe 835f 5cbe be0d 99be
00000180: 4b5d b5be cf5d 11be e536 ec3e 3386 0b3e
00000190: 0bcd c73e f61b 223e a7e5 183d a8fb 5b3e
000001a0: f2a6 e4bd b42c 943d 82a3 bc3d 4b09 c83e
000001b0: 20a8 21be ccfb 60bd 7776 c2be fb02 3d3f
000001c0: 2e22 d0bc 67fb 823e 56d6 a0bd d98c 30be
000001d0: 7ee1 85be 0b85 913d 58d1 abbe 4044 193e
000001e0: 9ab8 1cbf 4517 82be 43d5 413e f0de 3e3e
000001f0: 70c1 c03d 9fc5 a0bd 8139 8bbe 90a6 cabe
00000200: a88c 8cbd 9bd5 9bbe 5733 713d 3580 b83e
00000210: 6f2e 94be ad02 e3be 0f27 dabb a2a3 28be
00000220: 26ac 223e 0ab1 82be cfcc e93d 4285 a2be
00000230: c1eb a03c c7e2 043e dff1 d3be bf3a 17be
00000240: 4b02 1bbd e9f8 68be a0eb 1b3f 2270 d03e
00000250: db3b 2dbc c073 94be 30ca 4ebe a345 333e
00000260: 93c5 29bf a6f2 d43d fd20 6fbe 6074 a0be
00000270: 8c3f 363e a7e2 033f 014d 4abe e6a8 61be
00000280: 6fb5 a73e 3365 bd3c 0c0d 05bc 7f1b 663e
00000290: 59f2 87be 4990 1d3c 17a4 b0be 3cba 23bf
000002a0: 1d8e d23d 77ce 66bd e7ec 973e 3e62 e63e
000002b0: 9f57 1b3e e59d e43c d550 593e 3866 1c3c
000002c0: d478 293e 7f39 b4be 2cfd 423e 3914 e33e
000002d0: e5dc 1eba ea00 1fbd ea12 41be d79f d3bd
000002e0: ce7d a13e 5525 303e b197 783e c18d 9c3f
000002f0: f08a 2abf 5f7c b7be 2690 ccbd 6193 71bd
00000300: 63f9 8bbe afd2 3aba b011 573d b562 83bd
00000310: 36b3 b1bd 2ac1 713e cc58 cb3d 7af3 8f3e
00000320: b221 783f ea2e 89bd c5a0 a23e e4ea b5be
00000330: e32c a73d 1709 c63d 5e07 b3be a456 5d3e
00000340: eb3f e5be 8054 00bf dba1 fbbd ffd9 373e
00000350: 5b16 1cbf 59df 9f3e b117 30bf 8629 2dbd
00000360: af0b 98bd 3ce7 213e 6389 0fbe 316a 713e
00000370: deaf 0c3e 81a4 c2bc c4cf 64be d877 4dbe
00000380: 1d53 8e3e 79f8 083e cac6 ee3d 0339 8fbe
00000390: e3a9 58be 98a3 5a3e 1242 0a3f a8d9 b93e
000003a0: ace5 b03e ca14 f2be d4c3 c13b 5c21 6cbe
000003b0: a2f3 b23e 0b37 45be 1900 20bf 0b47 313e
000003c0: 7e75 013f 0839 c6bd 5efc 4cbe 219b cd3d
000003d0: 7e47 f7bd d4f8 163f 6fe8 913e bc36 22bd
000003e0: 560e 003f f802 6ebe c028 123e 9ccd fd3c
000003f0: f414 63bd f495 ae3d 59c4 133f 57c8 79be
-0.24351789 0.028555846 -0.08619219 0.5959686 -0.49081042 -0.231027 0.33560866 -0.41917023
0.20493987 -0.2561471 0.12261655 0.16262943 -0.42271358 0.43022886 0.065345496 -0.25079447
0.49956396 -0.23276535 -0.6294977 -0.5978535 0.7121042 0.24126591 0.7457921 0.46457955
0.3393071 0.21814296 0.34695357 -0.2938345 0.32066205 0.026115298 0.085774325 0.59129184
-0.2715667 0.08012392 -0.055565115 0.19547597 0.5920862 0.4211049 -0.0582318 -0.0909451
0.37342474 -0.1096818 0.20180883 -0.44124973 -0.25650465 -0.47898155 -0.40253198 -0.25364515
0.16700369 -0.022136884 0.02963566 0.6223887 -0.38293067 -0.14146487 -0.02931386 0.328676
-0.08983307 -0.8270544 -0.53596133 -0.14212875 -0.3824233 0.006590163 -0.22433738 0.0450027
0.10796222 0.2968044 0.12967634 0.06624319 0.06327528 -0.5207218 -0.29178476 0.20493504
0.37524047 0.63300043 -0.16223465 0.21894981 -0.17568184 0.34291977 -0.1684462 0.015441125
-0.3407501 -0.17577174 0.9630478 -0.050351262 -0.6593869 0.013234495 0.14463532 0.39235052
0.2481867 0.69243944 -0.21946487 0.3220011 0.38019446 -0.27675018 -0.2152081 -0.29893297
-0.3542274 -0.14195941 0.4613563 0.13625412 0.39023623 0.15830979 0.03732839 0.21482718
-0.11164655 0.07235089 0.09210874 0.3906959 -0.15786791 -0.054927632 -0.37981007 0.7383267
-0.025406923 0.2558243 -0.07853381 -0.17241229 -0.261486 0.07105454 -0.33558154 0.14967442
-0.6121918 -0.25408378 0.18929009 0.18639731 0.09411895 -0.07850193 -0.2719231 -0.39580202
-0.068627656 -0.30436406 0.058886852 0.36035314 -0.28941676 -0.4433798 -0.006657488 -0.16468671
0.15885982 -0.25525695 0.11416017 -0.31742293 0.019643666 0.12977134 -0.4139547 -0.14768504
-0.037843984 -0.22751202 0.6090641 0.4071055 -0.010573353 -0.2899456 -0.20194316 0.17507033
-0.663171 0.10397844 -0.23352428 -0.31338787 0.17797679 0.5151772 -0.19755937 -0.22037086
0.3275561 0.023119545 -0.008120786 0.22471426 -0.26552084 0.00961692 -0.3450019 -0.63956046
0.10281012 -0.056349244 0.2967293 0.44996828 0.15170144 0.027907321 0.21222241 0.009545855
0.16549999 -0.35200116 0.1904189 0.44351366 -0.00060601375 -0.03881923 -0.18854871 -0.103332214
0.31541294 0.17201741 0.24276616 1.223076 -0.6661825 -0.35837075 -0.09988432 -0.058978442
-0.27338704 -0.0007126731 0.052507102 -0.06415311 -0.0867676 0.23608842 0.09929046 0.28115445
0.96926415 -0.06698401 0.31763282 -0.3553077 0.08162858 0.096697025 -0.34966558 0.21615082
-0.44775328 -0.50128937 -0.12286731 0.17954253 -0.6097161 0.31225088 -0.6878615 -0.042275928
-0.074241035 0.15810865 -0.14017253 0.23575665 0.13738963 -0.023760082 -0.22344881 -0.20065248
0.27797785 0.13376035 0.1165901 -0.27973184 -0.21158557 0.21351469 0.54007065 0.3629887
0.34550226 -0.47281486 0.005913237 -0.230596 0.34951502 -0.19259278 -0.6250015 0.17312257
0.50569904 -0.096788466 -0.20018145 0.10039354 -0.12074183 0.5897343 0.28497645 -0.03960298
0.50021875 -0.2324332 0.14273357 0.030981831 -0.055439904 0.08524695 0.5772148 -0.2439283

network_body.linear_encoder.seq_layers.2.bias f4 [64]
00000000: b139 893c 811f 133a 48b2 403d b9da 8d3c
00000010: 1304 1d3e 59e6 3fbd 586c e63c a7de 423c
00000020: 3edb b33a ed42 903d 5390 363d 5879 333d
00000030: bad8 333d 91b2 c13d 3b71 3c3e 4912 8c3d
00000040: 093f 423e 9378 f43c ba93 923d 2ca4 c2bd
00000050: 3b8e 423d 188f 3abd fcc4 72bd 687a 3bbc
00000060: 7cbb dfbc f2d4 9d3d f9d5 e83c 3738 8f3a
00000070: bd14 e7bc 798e 813d d0bf ac3c e4b3 d73c
00000080: 53f8 863b 7d48 003d 582d d6bc ac88 a03d
00000090: 4242 2b3e c733 0a3d 22ca ccbc fd19 84bd
000000a0: b534 7b3d d6db 083e 9757 83bc 1c72 213d
000000b0: 88e2 ec3d 433a 903d 96bc 793d 33b8 03bc
000000c0: fb69 293d 30f8 cf3d 93ba c43d 4ecd 733d
000000d0: 36ba 183d 0456 50bd 0443 9fbd 6bc9 783d
000000e0: 0635 ac3d e558 243e 5571 183b 2c7b 2f3d
000000f0: c211 00bd 20b8 763d dba2 0a3b 6cb6 2b3d
0.016751142 0.00056122994 0.047045022 0.01731621 0.15333585 -0.046850536 0.028127834 0.011893905
0.0013721955 0.07044015 0.044571232 0.043816894 0.04390786 0.09457887 0.18402569 0.06839425
0.18969359 0.02984265 0.07157083 -0.095039696 0.047498923 -0.04554662 -0.05926989 -0.011442758
-0.02731108 0.07706632 0.028422343 0.0010926788 -0.028208131 0.06326003 0.021087557 0.026330896
0.004118958 0.03131913 -0.026144668 0.07838568 0.16724494 0.033740785 -0.024998728 -0.06450269
0.061329562 0.13365111 -0.016032977 0.039415464 0.11566645 0.070423625 0.060970865 -0.008039522
0.041360836 0.1015476 0.09605899 0.059521966 0.03728696 -0.05086328 -0.07776454 0.060738962
0.08408551 0.16049536 0.002326091 0.042842075 -0.031266935 0.06023419 0.0021154198 0.041922018

network_body.linear_encoder.seq_layers.2.weight f4 [64, 64]
00000000: 88d0 a23d 5852 053e 8e4e 783c 7716 bcbd
00000010: 40b5 74bd 234e 2b3e d0ed 103d acb3 093e
00000020: 726a 94bc a51d 633c bf71 8cbe 3473 b63c
00000030: 3259 67be 8e17 fabd 7a6a d03d 63a3 d2bd
00000040: 6b39 df3d 0782 373e 2399 af3d 0cb8 0dbe
00000050: b3f0 1d3d 253d cb3d 8353 bb3d f646 6fbd
00000060: ce70 863e 54bb af3d d6ef 21be d06c 8c3c
00000070: 06c7 99bd 6153 693d 67b4 76be 82da 67bd
00000080: 2590 293e e64a b2bd fe86 a2bd 5f5d 5ebd
00000090: c08c 0e3e 6fc4 673e 5246 94bd 720f 5fbb
000000a0: 2529 f33c b106 3ebc 15d6 383e 673e 093e
000000b0: fcaa 3c3c 0e77 f9bc 9b70 81be c045 53be
000000c0: 6f20 b1bd 7e8b bebd ba12 113e f6c2 043e
000000d0: 5035 02be f4f0 bf3d 4949 853e ebcc 37be
000000e0: f46d 33bd 4bb0 e83d 0929 1dbe 4a67 e93d
000000f0: e362 57be 89e8 24be a740 b4bd 93b5 91be
00000100: 9ced 033d ba40 12be d3d8 2ebe f482 e7ba
00000110: 341c de3d d87b 183d 2c2c 153e de29 6c3d
00000120: f47f 1f3e c508 b33c d160 d4bc d526 97be
00000130: f5a9 8bbc 0414 cbbd 6e9a 48be 9f57 b6bd
00000140: f765 213e ffee 9dbd cdd7 0c3d 1836 00bc
00000150: 5d1f 5bbe 99ea 2e3d 6f4c 0ebe 3560 18be
00000160: 83c3 64be 0b7c f6bd 8935 d2bd e5f5 74be
00000170: bcd5 303d a1f5 233d b124 983d 5703 f0bd
00000180: d827 963d b52f 493e ecee 433c d8f7 413e
00000190: f5fa d63c da2a 583d 5be4 d73d b810 d73d
000001a0: 3eb6 793d 9610 0abe 90a8 4bbe 42b7 4ebd
000001b0: 2a94 e63d 00bb 873e 795f 213e 336c 943e
000001c0: ebcd 2dbe fac8 5fbc 4d4b a53e 2f8d 19bd
000001d0: 6afd 2fbc b2a5 06bd 86c4 28bd 3bbe b53c
000001e0: dd4a b23d d683 fe3c fcf3 8cbc 7797 343e
000001f0: 7b19 813d d7c6 5fbc 636b 5d3d 6853 bdbc
00000200: d5f9 a43c b834 e0be efd8 943e eb3d 19be
00000210: 4d81 08be d99d 0f3e 4ada e83c b0cc 2f3e
00000220: da8e d4bd acf7 bf3c 118e 8cbd 210c e7bb
00000230: 5523 8abe 00a4 913c 2253 463e 4f3f 09be
00000240: 7247 01bc 8344 dabd 0d2f ce3e 5808 433c
00000250: bd0d 01be bba0 ae3e 184f 2ebe 4a58 9e3c
00000260: 2e0f bfbe ee97 553e 821f 6dbd d5f6 8e3d
00000270: 6515 08be 3c3e 583e 200d 833d 35f8 bfbd
00000280: 6cb6 143d 4480 adbc c981 4abc 3060 3b3e
00000290: 2522 273e 8bff 87bd 95af 1ebe 0d85 fb3d
000002a0: 2d73 a83d 634e 2cbd 9bb0 a93c 164a 3a3c
000002b0: 3850 eebe 4f0f f63d ba68 263c ceaf bd3e
000002c0: ca1f 483d f899 853d 7f29 69be 47c7 2e3e
000002d0: 0458 803e 40af b3bb 1530 5ebd 8bda cabd
000002e0: 34de 5cbd 69d3 903c 0b9a 353d 7d8e 49bc
000002f0: 8835 edbc 2c13 dd3e de2e 25be 2de4 e6bd
00000300: fa2f 063e f432 b7bc 4295 b4be 485b b13e
00000310: e9df 083b 343c 61bd 0207 55be 8f73 a73d
00000320: 1141 48be 47bb bcbe efb9 253e 4ca5 f7bc
00000330: d393 83bd a201 84be cec4 e4bd ad76 36be
00000340: 1179 a83d afdc dc3c 7018 063e a9ef a1be
00000350: 3184 07bf 1caf 2b3e c7b8 b9be 26ea f1bc
00000360: a800 a8bd 4b0d c53d a75a 13be 5b7b 90be
00000370: 2d16 0ebe 8300 66bd 7167 84be 5ba5 a7bd
00000380: 7377 81bc 08f8 10be b727 b4bd d979 6c3d
00000390: c0da 86be 2b28 5d3d c469 e7bc 8bbb 143d
000003a0: 805f 3abd 609d 963d 09e5 92bd 1842 5ebd
000003b0: 0c3d c6bd 8778 123d a587 06bd 88b7 91be
000003c0: a6c0 f1bd 3cd1 d13c 17c0 1fbe 18e4 d8bd
000003d0: ed7e a93e f4f7 313e 9c1b f4bd 0805 bdbe
000003e0: 0161 a83e 07e5 93bd a733 763e a221 17be
000003f0: 0aa9 493c 8927 cd3d 734c 503e f407 16be
0.079499304 0.13019693 0.015155448 -0.09183972 -0.059743166 0.16729026 0.035383046 0.13447446
-0.018117163 0.013862048 -0.2743053 0.02227173 -0.22592619 -0.12211524 0.10176559 -0.1028507
0.108996235 0.17920695 0.085741304 -0.1383974 0.038559627 0.09923772 0.09146788 -0.058417283
0.26257938 0.08580652 -0.15814146 0.01714173 -0.07508664 0.056964282 -0.24092256 -0.05660487
0.16558893 -0.08705692 -0.07935904 -0.054288264 0.1392088 0.22633527 -0.07239975 -0.0034036306
0.029682705 -0.011598275 0.18050416 0.13402711 0.011515375 -0.030452278 -0.25281224 -0.20632076
-0.08648764 -0.0930395 0.141673 0.12964997 -0.1271565 0.0937213 0.26032475 -0.17949264
-0.04380603 0.1136175 -0.15347685 0.11396654 -0.21033816 -0.1610433 -0.08801394 -0.28458843
0.032209024 -0.14282504 -0.170749 -0.0017662928 0.10845223 0.03722748 0.14567631 0.057657115
0.15576154 0.021854768 -0.025925072 -0.29521814 -0.017048815 -0.09915927 -0.1959016 -0.08903431
0.15761553 -0.077116005 0.03438549 -0.007825397 -0.21398683 0.0427042 -0.13896345 -0.1488045
-0.22340207 -0.12035378 -0.10264117 -0.23921926 0.043172583 0.04002917 0.07428873 -0.11719387
0.07331818 0.19647105 0.011958819 0.18942201 0.026242713 0.05277524 0.10541602 0.10501236
0.060964815 -0.1348289 -0.1988852 -0.050467737 0.11258729 0.26509857 0.15759076 0.289888
-0.16973083 -0.013658756 0.32284012 -0.03748816 -0.010741571 -0.032872863 -0.041203044 0.022185436
0.08705685 0.031068724 -0.017206185 0.17635904 0.06303688 -0.013658247 0.05405749 -0.02311106
0.02013866 -0.4379022 0.29071757 -0.14965026 -0.13330574 0.14025058 0.0284244 0.17167926
-0.10378809 0.023433529 -0.068630345 -0.0070510064 -0.2698008 0.017778397 0.1936765 -0.13403057
-0.007890569 -0.10657599 0.40270272 0.011903845 -0.12602897 0.34107003 -0.1702236 0.019329209
-0.3731627 0.20858738 -0.057891376 0.06980673 -0.13289411 0.2111749 0.06398988 -0.093735136
0.036306784 -0.021179326 -0.012360045 0.18298411 0.16321619 -0.06640538 -0.15496667 0.12281237
0.08225093 -0.042066943 0.020714095 0.0113702025 -0.46545577 0.12014639 0.010156805 0.3704819
0.04885844 0.06523508 -0.22769736 0.17068206 0.2506715 -0.005483538 -0.054245073 -0.09904965
-0.053922847 0.017678933 0.04433636 -0.012302038 -0.02895619 0.4317869 -0.1613116 -0.1127399
0.13104239 -0.022363164 -0.35270125 0.34639955 0.0020885414 -0.054989055 -0.20803455 0.08176338
-0.19556071 -0.3686163 0.1618421 -0.030230187 -0.064246796 -0.25782496 -0.1117035 -0.17818709
0.082262166 0.026960699 0.1309526 -0.3162816 -0.52936083 0.16766018 -0.36273786 -0.029530596
-0.0820325 0.09621676 -0.1439005 -0.28219113 -0.13875647 -0.05615283 -0.2586017 -0.08185836
-0.015804028 -0.14157116 -0.087966375 0.05773339 -0.26338768 0.053993385 -0.028248675 0.036311667
-0.045501232 0.07354236 -0.07172591 -0.05426225 -0.096796125 0.035759475 -0.032844204 -0.28460336
-0.11804323 0.025612466 -0.1560062 -0.105903804 0.3310465 0.17379743 -0.119193286 -0.369179
0.32886508 -0.07221418 0.24043141 -0.14758924 0.012308368 0.10017306 0.20341663 -0.14651471

network_body.vector_processors.0.normalizer.running_mean f4 [13]
00000000: 8e4a 7ac1 d99f 8e41 5665 4b41 4e61 debd
00000010: 6f00 bc3d 5265 d53c 8ffa 0cbd b616 4dc1
00000020: c423 af40 21ec 4b41 4b05 19c0 901e 3140
00000030: aa7e 7540
-15.643202 17.82805 12.71224 -0.10858403 0.0917977 0.02604929 -0.03441864 -12.818045
5.473116 12.745149 -2.390948 2.7674904 3.835856
