Assets/ML-Agents/Brains/Basic-3604614.onnx (onnx, 23839 bytes, 9 tensors)

62 f4 [13]
22.49531 7.5364356 21.899643 0.41808885 0.424032 0.5516312 0.5639642 17.5586
5.9131393 18.349512 3.3956323 2.2538328 3.1833713
00000000: 65f6 b341 7b2a f140 7832 af41 be0f d63e
00000010: b91a d93e b437 0d3f f55f 103f 0378 8c41
00000020: 7038 bd40 cdcb 9241 0a52 5940 cc3e 1040
00000030: 5bbc 4b40

action_model._continuous_distribution.log_sigma f4 [1, 4]
-0.7469172 -0.6099016 -0.70219934 -0.84889245
00000000: f735 3fbf 8322 1cbf 56c3 33bf 0451 59bf

action_model._continuous_distribution.mu.bias f4 [4]
-0.057096455 0.036881085 0.1736373 -0.009944773
00000000: f9dd 69bd 9f10 173d facd 313e 67ef 22bc

action_model._continuous_distribution.mu.weight f4 [4, 64]
0.01927387 0.057410717 -0.057275556 0.0905972 0.08299727 -0.07659649 0.06823541 -0.0072543602
-0.12440082 -0.13895008 -0.14264403 0.023533685 0.08086361 -0.180108 -0.08819415 0.012060564
0.39722624 0.5264687 -0.1414476 -0.09441841 -0.15703098 0.23364194 0.040602066 0.033880062
0.14987138 -0.097305715 -0.17909147 -0.020271359 0.15372284 -0.14746596 -0.032829642 0.061629325
0.041800376 0.21373887 -0.031387195 -0.07627414 -0.014266173 0.20258053 -0.36917448 0.15613857
0.1364022 0.49946007 0.012597938 -0.173052 -0.20319666 0.0352518 0.07522168 0.026013926
-0.07016971 -0.44336808 0.118030466 -0.06964606 -0.03889065 -0.06934448 -0.14712876 0.11492257
0.033427753 0.028842978 0.14923856 0.04035497 -0.18282901 -0.005379083 -0.17349082 -0.05962117
0.016739545 -0.040259104 -0.04079122 -0.07561323 -0.022797614 0.11904817 0.11955914 -0.12029886
0.0071450546 -0.0067204433 -0.16148412 0.12244345 -0.011104414 -0.18059483 -0.0039863493 0.28244925
-0.093902715 -0.18031533 -0.033243407 -0.012287304 0.030477911 -0.1808023 -0.28362286 0.03176699
0.26290613 0.048793994 0.074630365 0.07195956 -0.04883945 0.04156097 -0.019382857 -0.060032833
-0.121972844 -0.058636956 0.062895365 0.11740958 0.07557051 -0.05886931 -0.09267282 -0.22159365
0.056845948 -0.03986928 0.04630038 0.011999042 0.29479316 -0.20499818 -0.11378628 0.090756916
0.0035091804 0.17830189 0.021415494 -0.1010267 0.016161343 -0.0034325074 0.096273035 0.041741516
0.06963074 0.00953025 -0.072530285 -0.0023750244 0.06915767 0.04521951 0.07607603 -0.0030720741
0.09317549 -0.0039824797 0.07478555 0.04472245 -0.034996066 -0.015455474 0.13164653 0.08357904
0.053632736 0.044495918 0.048824 -0.014931182 -0.034938123 0.072382525 -0.061273593 -0.025897436
0.030222585 -0.0021849382 0.045738723 0.07120865 0.117171764 -0.024766127 0.03679196 0.12151976
-0.026021656 0.02926246 -0.008772895 -0.03161688 -0.026365912 0.1202447 0.10491715 0.018195175
0.015828185 -0.18160485 0.04004282 0.013651003 0.063301176 0.068996646 -0.060883027 -0.11745975
0.03561354 -0.20490499 0.051688 0.1329502 -0.02108915 0.007589685 -0.03808434 0.040337324
0.08009168 -0.05345673 0.1357232 0.065463245 0.10291322 0.116075225 -0.09059757 0.091606595
-0.12909259 0.1260688 0.07144281 0.09602136 -0.016019072 0.05470056 0.111720674 0.07375714
0.053470116 -0.22209634 0.030148773 0.0039676023 0.16701104 -0.18404815 0.113095336 0.1274373
-0.07014849 -0.1878243 -0.11166361 -0.021950422 -0.22599892 0.09833637 0.25449634 0.0032829237
-0.018870642 0.11287702 0.07354299 0.047268745 0.09182834 0.08699342 -0.060836516 0.044830404
0.09147614 -0.06795263 -0.1577368 -0.020058956 0.117281504 0.01449767 0.024991928 -0.18682301
0.0029392857 0.092124745 -0.18861307 -0.10274839 -0.093867406 0.04975438 -0.023632474 0.00090972974
-0.060976584 0.0720509 -0.07985107 0.05996726 0.07062312 0.0025235226 -0.12575643 -0.13468616
0.11166927 -0.001462805 -0.015584865 -0.106579244 0.09795026 0.020975852 0.12947255 0.04517573
0.02349206 0.098042265 -0.10945693 0.048678 0.12247418 0.09382275 -0.07872113 -0.1057707
00000000: 3ce4 9d3c 8027 6b3d c699 6abd 068b b93d
00000010: 79fa a93d 9fde 9cbd 02bf 8b3d fcb5 edbb
00000020: dbc5 febd ee48 0ebe 4711 12be b7c9 c03c
00000030: d29b a53d 3b6e 38be 229f b4bd ac99 453c
00000040: 3d61 cb3e a7c6 063f a4d7 10be 705e c1bd
00000050: bbcc 20be d53f 6f3e 5a4e 263d d2c5 0a3d
00000060: e277 193e 3848 c7bd c163 37be 1f10 a6bc
00000070: 8569 1d3e 5101 17be 6078 06bd 086f 7c3d
00000080: df36 2b3d 5dde 5a3e dc8f 00bd 9e35 9cbd
00000090: abbc 69bc 4571 4f3e 7004 bdbe cae2 1f3e
000000a0: 05ad 0b3e 3bb9 ff3e 9567 4e3c 8b34 31be
000000b0: c912 50be 3164 103d d30d 9a3d 281b d53c
000000c0: 23b5 8fbd 2401 e3be f5b9 f13d 98a2 8ebd
000000d0: cd4b 1fbd 7b04 8ebd eca8 16be 865c eb3d
000000e0: 8aeb 083d 1c48 ec3c fed1 183e 414b 253d
000000f0: 8737 3bbe 0543 b0bb 94a7 31be 5435 74bd
00000100: 5f21 893c bbe6 24bd b214 27bd 1cdb 9abd
00000110: 10c2 babc 87cf f33d 6cdb f43d 405f f6bd
00000120: 1021 ea3b 2a37 dcbb 185c 25be a2c3 fa3d
00000130: 4aef 35bc daed 38be ec9f 82bb 309d 903e
00000140: 1150 c0bd 95a4 38be 3d2a 08bd b050 49bc
00000150: d0ac f93c 3d24 39be 0437 91be 1a1e 023d
00000160: a29b 863e 36dc 473d ced7 983d 895f 933d
00000170: e00b 48bd d63b 2a3d ccc8 9ebc fde4 75bd
00000180: e6cc f9bd 4e2d 70bd 49cf 803d 6f74 f03d
00000190: b6c4 9a3d f220 71bd 3fcb bdbd 72e9 62be
000001a0: 4cd7 683d f84d 23bd 78a5 3d3d a197 443c
000001b0: 21ef 963e 0beb 51be c808 e9bd c3de b93d
000001c0: 47fa 653b c594 363e 8c6f af3c 16e7 cebd
000001d0: cb64 843c ebf3 60bb cc2a c53d 27f9 2a3d
000001e0: 909a 8e3d c424 1c3c c28a 94bd 4ca6 1bbb
000001f0: 89a2 8d3d 1838 393d c0cd 9b3d da54 49bb
00000200: cbd2 be3d 767f 82bb 2b29 993d e32e 373d
00000210: 0958 0fbd f538 7dbc 59ce 063e 7d2b ab3d
00000220: 00ae 5b3d 5a41 363d adfb 473d eba1 74bc
00000230: 471b 0fbd 4a3d 943d 05fa 7abd dc26 d4bc
00000240: 5b95 f73c 2e31 0fbb 8758 3b3d d7d5 913d
00000250: c0f7 ef3d 55e2 cabc 2bb3 163d 5adf f83d
00000260: 5e2b d5bc d4b7 ef3c 30bc 0fbc b480 01bd
00000270: 53fd d7bc da42 f63d cede d63d 0c0e 953c
00000280: 1caa 813c 9ff6 39be f103 243d 75a8 5f3c
00000290: 0ca4 813d 1d4e 8d3d 7b60 79bd bd8e f0bd
000002a0: 81df 113d 9dd2 51be ccb6 533d 1924 083e
000002b0: 27c3 acbc e4b2 f83b 53fe 1bbd c038 253d
000002c0: 1b07 a43d 72f5 5abd 06fb 0a3e 9811 863d
000002d0: 2bc4 d23d d9b8 ed3d 388b b9bd 3d9c bb3d
000002e0: d930 04be 2e18 013e 9c50 923d d9a6 c43d
000002f0: 6e3a 83bc b20d 603d cfcd e43d fc0d 973d
00000300: 7b03 5b3d 396d 63be 8ffa f63c a902 823b
00000310: f104 2b3e 1e77 3cbe 879e e73d ec7e 023e
00000320: 03aa 8fbd 0355 40be e4af e4bd 5fd1 b3bc
00000330: 436c 67be 9464 c93d 584d 823e 5226 573b
00000340: 9b96 9abc 112c e73d b59d 963d df9c 413d
00000350: 7f10 bc3d 9b29 b23d b62f 79bd 16a0 373d
00000360: d857 bb3d c02a 8bbd c185 21be ae52 a4bc
00000370: 4931 f03d a387 6d3c dfbb cc3c 884e 3fbe
00000380: 08a1 403b e6ab bc3d c923 41be bf6d d2bd
00000390: 8e3d c0bd 40cb 4b3d e498 c1bc ee7a 6e3a
000003a0: 95c2 79bd 6c8f 933d f588 a3bd 3ba0 753d
000003b0: dba2 903d af61 253b 4bc6 00be 2beb 09be
000003c0: dcb2 e43d 97bb bfba a957 7fbc 3846 dabd
000003d0: 259a c83d 8dd5 ab3c 7494 043e 300a 393d
000003e0: 6c72 c03c 62ca c83d f42a e0bd 9562 473d
000003f0: bed3 fa3d 2426 c03d 8b38 a1bd 4f9e d8bd

network_body.linear_encoder.seq_layers.0.bias f4 [64]
0.0100293495 0.10594265 0.09782262 0.018640148 0.097694926 0.10059568 0.09709582 0.00922236
0.12250255 0.100991495 0.20530301 0.05156384 0.14623009 0.08741092 0.11676215 0.100765444
0.117078006 -0.060672782 0.03598996 0.17417774 0.1701206 0.095306315 0.18867865 -0.019478446
0.13922761 0.13648069 0.12583056 0.0030060522 -0.13541646 0.033206426 0.05474601 0.20953284
0.1101534 0.050152667 0.17361651 0.06999738 0.12612455 0.16436124 0.145695 0.031171257
0.18404083 0.20201917 0.25135228 0.03682928 0.012807944 0.05799872 0.2062337 0.16455519
0.17118591 0.15600917 0.16599411 0.052277718 0.15196465 0.11205359 0.10584754 0.20987551
-0.08446836 0.12269646 -0.016284492 0.06350506 0.10873888 0.16638076 0.16035596 0.10591985
00000000: 2452 243c 76f8 d83d 3a57 c83d 39b3 983c
00000010: 4714 c83d 1c05 ce3d 2cda c63d 6219 173c
00000020: 9ee2 fa3d a1d4 ce3d f43a 523e 9b34 533d
00000030: 57bd 153e 7f04 b33d fe20 ef3d 1d5e ce3d
00000040: 98c6 ef3d 0684 78bd 356a 133d a65b 323e
00000050: 1834 2e3e f52f c33d fa34 413e 4391 9fbc
00000060: af91 0e3e 98c1 0b3e bad9 003e 3001 453b
00000070: 9daa 0abe 7603 083d 5a3d 603d c78f 563e
00000080: 1b98 e13d e26c 4d3d 87c8 313e c95a 8f3d
00000090: cb26 013e 504e 283e 1231 153e dd5a ff3c
000000a0: 3375 3c3e 1dde 4e3e 3fb1 803e 4dda 163d
000000b0: 69d8 513c 1190 6d3d ed2e 533e 2881 283e
000000c0: 5c4b 2f3e dec0 1f3e 5cfa 293e 2921 563d
000000d0: 9f9c 1b3e 5a7c e53d 98c6 d83d 9be9 563e
000000e0: bffd acbd 4848 fb3d 0e67 85bc f10e 823d
000000f0: 7db2 de3d b85f 2a3e 5a34 243e 82ec d83d

network_body.linear_encoder.seq_layers.0.weight f4 [64, 13]
0.44117403 -1.3122166 0.6682741 -0.43511206 0.1366982 -0.121803105 -0.5053791 -0.40934828
-0.35265467 -0.19734946 -0.29436827 0.2669675 -0.23578085 0.17186947 -0.016710281 -0.15971376
-0.76750624 -0.057123706 -0.39280015 0.66132545 0.068556026 0.18121581 -0.1487637 0.6146717
-0.07484693 -0.12924561 -0.33557653 0.30035847 0.20353204 0.62536657 -0.4399434 -0.64751816
-0.31834838 0.4840486 -0.028614717 0.49566546 -0.24806145 0.14039746 0.37022343 -0.23740287
0.20550573 -0.16332538 -0.22973092 0.2261209 -0.18803652 0.11337315 -0.29647276 0.08414738
0.2062419 0.7933755 -0.7996695 -0.22191022 -0.20352094 0.57759273 -0.026473641 -0.40204698
-0.61389804 -0.0320762 -0.70234895 -0.0563545 0.6409689 -0.35465524 0.24074398 -0.0138875125
-0.48668543 -0.39618635 -0.43519813 0.1967745 0.5365289 0.07405648 0.25613084 -0.061531685
-0.35198486 -0.23988709 -0.01069439 0.22478947 0.3747584 -0.25305036 0.1387299 -0.15539657
-0.13894118 -0.19351877 -0.012061607 0.3613528 0.03649233 0.05849821 0.14958428 0.07143695
0.26758617 -0.5539695 -0.5781328 -0.31307364 0.5365227 0.32226428 -0.48727256 -0.0936712
-0.04039144 -0.10987401 0.25807583 -0.45802724 -0.66078943 -0.08384699 -0.518535 -0.73975635
-0.41374475 0.48827738 0.09303804 -0.40050757 0.07089818 0.2791308 -0.5209007 -0.087981515
-0.3689935 -0.24942729 -0.6718195 -0.3905522 0.0403701 0.07270818 -0.13757725 0.24089639
-0.44007 -0.4724303 -0.07554211 0.2588803 -0.088281654 -0.03359447 -0.020738104 -0.35545802
0.0045672227 0.16380142 0.1834351 0.2103901 0.48180917 -0.17792481 0.406151 0.6532361
0.5247591 -0.3839732 -0.19563411 -0.100448154 -0.6652233 -0.039921496 0.01812819 -0.42045707
-0.5941695 0.01532114 -0.15405989 0.26437548 -0.20113465 0.5076132 0.16213842 -0.4429318
-0.112348266 -0.3236442 -0.35157672 0.19028224 0.05607904 -0.053028364 -0.6539946 -0.28633904
-0.25828546 -0.88810956 0.4631917 0.2985059 0.102169275 -0.29803425 0.32256114 0.115988135
0.040761247 -0.014534729 -0.27225447 -0.6901914 0.5459427 0.9952981 0.63645905 0.07175224
0.8414196 0.07535218 -0.30639553 -0.06301086 -0.41734183 -0.5773268 -0.25683162 -0.1956695
-0.23153025 -0.69543195 0.08717614 -0.15835784 0.07295888 0.2559953 0.18398435 -0.32328603
-0.39272004 0.5095504 -0.038557697 -0.60873044 0.12494045 -0.053800236 -0.31877494 -0.34143203
-0.3030317 0.4899145 -0.16447431 0.24767148 -0.09934811 -0.019544316 0.18828072 0.093642004
0.15865594 -0.031982314 -0.0071482053 0.2774934 0.7002133 0.24415487 -0.26197818 -0.16002275
0.39348164 0.043071546 0.41954347 0.22814855 -0.1340686 -0.5653636 -0.16668366 0.411904
-0.43865478 -0.13244584 -0.32395896 -0.33523703 -0.32843906 0.043881282 0.33918267 0.25461316
-0.106387906 0.066060334 0.5454815 0.1737148 -0.10177097 -0.47448704 0.1536797 -0.38742915
-0.33369085 -0.07392131 -0.115057945 -0.02936672 0.25466678 0.42586577 -0.27028516 0.40587068
0.5725448 -0.23821247 -0.28431517 0.6602411 -0.032132044 0.4308485 -0.12741451 -0.06834968
00000000: 90e1 e13e b7f6 a7bf 0314 2b3f 02c7 debe
00000010: 9dfa 0b3e e873 f9bd 8660 01bf 1996 d1be
00000020: 278f b4be fa15 4abe 70b7 96be f7af 883e
00000030: 8970 71be 8dfe 2f3e 00e4 88bc 018c 23be
00000040: 4a7b 44bf 8cfa 69bd 1a1d c9be a04c 293f
00000050: 1a67 8c3d a390 393e 8355 18be 205b 1d3f
00000060: 5949 99bd f658 04be b0d0 abbe 96c8 993e
00000070: b46a 503e 0618 203f 4340 e1be c0c3 25bf
00000080: 8ffe a2be 38d5 f73e 6969 eabc ddc7 fd3e
00000090: d203 7ebe 5ac4 0f3e ed8d bd3e bd19 73be
000000a0: 1870 523e c53e 27be 953e 6bbe 3d8c 673e
000000b0: a58c 40be 2f30 e83d 47cb 97be 7655 ac3d
000000c0: 1431 533e a81a 4b3f 24b7 4cbf 6f3c 63be
000000d0: cb67 50be 1edd 133f 40df d8bc 1ad9 cdbe
000000e0: 6c28 1dbf 5562 03bd 24cd 33bf fad3 66bd
000000f0: 8a16 243f 5f95 b5be 9785 763e 7388 63bc
00000100: d52e f9be f0d8 cabe 4ad2 debe 417f 493e
00000110: f559 093f ecaa 973d 9523 833e a608 7cbd
00000120: 5c37 b4be f6a4 75be 8637 2fbc 362f 663e
00000130: 55e0 bf3e d18f 81be 360f 0e3e 4720 1fbe
00000140: 9946 0ebe c929 46be 0c9e 45bc 3c03 b93e
00000150: fb78 153d d29b 6f3d 9f2c 193e 894d 923d
00000160: 0e01 893e f2d0 0dbf 8300 14bf 304b a0be
00000170: 8d59 093f d3ff a43e ca7b f9be b0d6 bfbd
00000180: 7f71 25bd a005 e1bd 8422 843e 8c82 eabe
00000190: 7f29 29bf f8b7 abbd b6be 04bf ac60 3dbf
000001a0: 5ad6 d3be 7eff f93e ba8a be3d 540f cdbe
000001b0: 1133 913d 3bea 8e3e c059 05bf a72f b4bd
000001c0: b7ec bcbe de69 7fbe 5dfc 2bbf 75f6 c7be
000001d0: 1e5b 253d 07e8 943d 0de1 0cbe 8bad 763e
000001e0: db50 e1be 62e2 f1be d2b5 9abd f58b 843e
000001f0: 03cd b4bd 5b9a 09bd f5e2 a9bc 98fe b5be
00000200: a4a8 953b 8fbb 273e 69d6 3b3e 8170 573e
00000210: b1af f63e ec31 36be 06f3 cf3e 7b3a 273f
00000220: 9d56 063f 2398 c4be 4f54 48be c3b7 cdbd
00000230: 134c 2abf b984 23bd 9281 943c 2646 d7be
00000240: 7e1b 18bf 8505 7b3c e0c1 1dbe 395c 873e
00000250: 3ef6 4dbe f0f2 013f 9d07 263e f5c7 e2be
00000260: d916 e6bd b1b4 a5be dd01 b4be 59d9 423e
00000270: 23b3 653d 4534 59bd 316c 27bf 089b 92be
00000280: fe3d 84be 265b 63bf 7627 ed3e c4d5 983e
00000290: 203e d13d f297 98be bc26 a53e 308b ed3d
000002a0: 44f5 263d 1223 6ebc f064 8bbe 62b0 30bf
000002b0: e7c2 0b3f dbcb 7e3f fbee 223f d7f2 923d
000002c0: 4667 573f 3e52 9a3d e0df 9cbe d60b 81bd
000002d0: d4ad d5be b0cb 13bf 6f7f 83be 965d 48be
000002e0: 4416 6dbe d407 32bf 6789 b23d 8f28 22be
000002f0: 776b 953d d111 833e 6566 3c3e bf85 a5be
00000300: 9a12 c9be e571 023f adee 1dbd c2d5 1bbf
00000310: c7e0 ff3d a35d 5cbd 7836 a3be 2ed0 aebe
00000320: f926 9bbe 13d6 fa3e f46b 28be 989d 7d3e
00000330: 0677 cbbd 671b a0bc a9cc 403e 61c7 bf3d
00000340: b476 223e e3ff 02bd 7e3b eabb 9d13 8e3e
00000350: 2e41 333f bc03 7a3e 0122 86be 01dd 23be
00000360: 6d76 c93e ca6b 303d 67ce d63e c69f 693e
00000370: 4749 09be abbb 10bf 1faf 2abe 15e5 d23e
00000380: 5c97 e0be e29f 07be f3dd a5be 30a4 abbe
00000390: 2a29 a8be dcbc 333d 5aa9 ad3e a85c 823e
000003a0: e7e1 d9bd a44a 873d ada4 0b3f 4be2 313e
000003b0: 4c6d d0bd f7ef f2be 365e 1d3e 1d5d c6be
000003c0: 87d9 aabe 0e64 97bd 80a3 ebbd 7a92 f0bc
000003d0: af63 823e 140b da3e d162 8abe 48ce cf3e
000003e0: 4c92 123f f8ed 73be c291 91be 9005 293f
000003f0: e49c 03bd 2d98 dc3e f378 02be ebfa 8bbd

network_body.linear_encoder.seq_layers.2.bias f4 [64]
0.062228777 0.0885445 0.096776955 -0.007948037 -0.017391423 0.09310736 0.10460299 0.0812251
0.11462538 0.14032613 0.12632719 -0.0593908 0.07178773 0.09467772 0.075608656 0.020577585
0.048638273 0.032533202 0.09745988 0.08867398 0.1633056 -0.022609057 0.15876177 0.15703696
-0.04165471 0.0180912 0.035659306 -0.14095096 -0.085618496 0.1494275 0.1214317 0.19570455
0.02458573 -0.11083778 0.13014317 0.096376374 0.09254016 0.04777521 0.009983309 -0.06150244
0.10212258 -0.09160523 0.07844211 0.10454704 0.06936044 0.01045032 0.01150216 0.14070757
0.12154194 0.07164507 0.11351154 0.10910671 0.08527381 0.080517314 -0.05342817 0.09767321
-0.11407348 0.15369743 0.12047051 0.0997714 -0.065133296 0.05775366 0.16408052 0.1468791
00000000: 9ae3 7e3d d256 b53d ff32 c63d 7c38 02bc
00000010: 7578 8ebc 12af be3d 183a d63d 5859 a63d
00000020: b6c0 ea3d a7b1 0f3e ea5b 013e c443 73bd
00000030: 7205 933d 64e6 c13d b6d8 9a3d 5392 a83c
00000040: ed38 473d 8941 053d 0c99 c73d b49a b53d
00000050: 9539 273e a136 b9bc 7292 223e 4cce 203e
00000060: 219e 2abd ff33 943c 7e0f 123d 7355 10be
00000070: c058 afbd 8603 193e 2fb1 f83d c666 483e
00000080: 0368 c93c ebfe e2bd 4044 053e fa60 c53d
00000090: b285 bd3d f0af 433d 0891 233c fce9 7bbd
000000a0: a525 d13d 869b bbbd 42a6 a03d c21c d63d
000000b0: d90c 8e3d d237 2b3c 8e73 3c3c a515 103e
000000c0: fbea f83d a7ba 923d bd78 e83d 5773 df3d
000000d0: 09a4 ae3d 43e6 a43d 7fd7 5abd e408 c83d
000000e0: 5b9f e9bd dc62 1d3e 3eb9 f63d f354 cc3d
000000f0: 9b64 85bd 1a8f 6c3d b904 283e 7a67 163e

network_body.linear_encoder.seq_layers.2.weight f4 [64, 64]
0.12676574 0.055767253 0.035482395 0.13443793 0.008197486 -0.08964198 0.037896343 0.15246944
0.028915329 -0.02684362 -0.055231597 0.066613585 -0.010696806 -0.098683015 -0.3969617 -0.20155926
0.043187186 -0.020321913 -0.45098495 -0.24257001 0.07768247 -0.04550931 0.102591425 0.086550884
-0.23124924 0.062123466 0.010188317 0.102827 -0.07798864 0.13685042 0.20022587 -0.07186314
-0.022775074 0.1953418 0.10401597 -0.0008304095 0.18418041 -0.2175379 0.08478952 0.13042656
0.1494679 -0.194256 -0.034396704 0.1566801 -0.19332412 -0.09908094 -0.10280387 0.119553015
-0.031671774 -0.13557382 0.1211412 0.08999432 -0.059110276 -0.0032867605 -0.14257285 -0.056075856
0.16947192 -0.10456283 0.104504615 -0.038586687 -0.3686027 0.12251447 -0.03393822 0.14825572
-0.27176085 -0.0709972 0.36079714 -0.15853828 -0.00034091334 -0.16594455 -0.15843548 0.013858725
0.036396228 0.20283248 -0.04236043 0.102952935 -0.2526417 0.12285962 -0.063089415 -0.076265045
0.12571311 0.08470239 0.03521361 -0.24884072 0.09161868 -0.05446896 -0.047015734 0.080873355
-0.037112754 0.028416706 0.092165306 0.09130188 -0.18013076 0.1753309 -0.15557459 0.0009668124
-0.15076712 -0.07793932 -0.47711575 -0.015904138 0.22513117 0.097475074 -0.074050404 -0.10366389
-0.022874406 -0.03595518 0.20181532 0.09568395 -0.040827855 -0.21748663 -0.1522482 0.08495363
-0.029452724 0.06091262 -0.37435058 -0.16244642 0.15822953 0.11894982 -0.14691281 0.41421843
-0.45536104 0.02388863 0.0350078 -0.023595395 0.18287131 0.045334283 -0.030325377 -0.19027583
-0.053270325 -0.027777586 0.37375957 0.010954864 0.24352306 0.044166297 0.08298615 -0.06384252
0.13170929 -0.21822537 -0.10326184 0.08250826 0.16477463 -0.011396322 0.005888465 -0.04269798
-0.014438373 -0.011432472 0.051585328 0.31958514 -0.009455466 0.16942158 0.18250297 0.00274831
-0.11144016 0.115885735 0.06674587 0.11313292 0.10305443 -0.06469307 0.030776193 0.07765069
0.15252748 0.34953117 0.015075579 0.08202248 -0.16306949 0.07377628 0.20251657 -0.1432748
0.09023806 0.16339877 0.04905277 -0.041506134 -0.25114992 0.05162101 -0.17673199 -0.021350486
0.057278447 -0.16774718 0.12530811 0.13289247 0.1904112 -0.1004067 -0.026252668 0.095910564
-0.13074242 0.045895573 0.20335111 -0.010360386 -0.020960566 -0.014682706 -0.06213969 0.065927275
0.18235894 -0.22537212 -0.009896817 -0.12278789 0.15931152 -0.032448962 0.2363956 0.01865771
0.015120591 0.09525274 0.11061315 -0.14036384 -0.27608484 0.2046928 0.12984516 -0.03570068
-0.043056343 -0.00895137 0.29083776 -0.1824402 0.06770267 0.029151969 0.011982121 -0.064419106
0.15865812 0.15394333 0.029868431 0.071229935 0.20761517 0.013950725 -0.13498342 -0.1097096
-0.013900441 0.15388572 -0.06965252 0.036888912 0.025938282 -0.058909226 -0.2034548 0.026361674
0.004211972 -0.16442853 0.22018376 -0.14878651 0.23007473 0.09299594 0.13143158 -0.18810792
0.039039046 -0.04448429 -0.13519056 0.07729276 -0.19346689 0.0052501033 0.013683925 0.11016431
0.16967817 0.0022637472 0.10658033 0.09538953 0.13953608 0.12323552 0.009746032 -0.030800423
00000000: e1ce 013e 346c 643d fd55 113d 19aa 093e
00000010: c04e 063c 3796 b7bd 3239 1b3d f320 1c3e
00000020: d7df ec3c 27e7 dbbc 873a 62bd b46c 883d
00000030: a841 2fbc 521a cabd 903e cbbe 8d65 4ebe
00000040: 0ce5 303d 247a a6bc 80e7 e6be 4664 78be
00000050: fd17 9f3d f867 3abd 741b d23d 9741 b13d
00000060: 9acc 6cbe 2d75 7e3d e6ec 263c f696 d23d
00000070: 82b8 9fbd 8422 0c3e 0308 4d3e fb2c 93bd
00000080: cb92 babc ae07 483e 5306 d53d d7af 59ba
00000090: ca99 3c3e 41c2 5ebe 21a6 ad3d 8a8e 053e
000000a0: 1d0e 193e 0beb 46be 8fe3 0cbd c070 203e
000000b0: c2f6 45be f3ea cabd d68a d2bd 36d8 f43d
000000c0: 43ba 01bd ddd3 0abe e118 f83d f14e b83d
000000d0: 9e1d 72bd b166 57bb 9efe 11be ccaf 65bd
000000e0: 0c8a 2d3e 0925 d6bd 8406 d63d 130d 1ebd
000000f0: 7eb9 bcbe dee8 fa3d ce02 0bbd 59d0 173e
00000100: 3d24 8bbe fb66 91bd 67ba b83e dc57 22be
00000110: 9dbc b2b9 5eed 29be e93c 22be b50f 633c
00000120: 3614 153d 51b3 4f3e 2182 2dbd fdd8 d23d
00000130: 415a 81be d39d fb3d 0635 81bd d930 9cbd
00000140: f0ba 003e 7278 ad3d 253c 103d 1ad0 7ebe
00000150: 93a2 bb3d d81a 5fbd 9293 40bd eea0 a53d
00000160: 8b03 18bd 27ca e83c 2ac1 bc3d 7bfc ba3d
00000170: 3374 38be f289 333e f24e 1fbe af71 7d3a
00000180: b262 1abe a69e 9fbd 8448 f4be 6549 82bc
00000190: c988 663e 03a1 c73d bda7 97bd bc4d d4bd
000001a0: 1b63 bbbc bd45 13bd ada8 4e3e f2f5 c33d
000001b0: 1c3b 27bd d1b4 5ebe f4e6 1bbe 2bfc ad3d
000001c0: d746 f1bc 837f 793d e1aa bfbe 5b58 26be
000001d0: ec06 223e f79b f33d 5070 16be 7014 d43e
000001e0: 1525 e9be 17b2 c33c 5764 0f3d 214b c1bc
000001f0: 9e42 3b3e 71b0 393d ed6c f8bc abd7 42be
00000200: fc31 5abd d28d e3bc 6a5d bf3e 087c 333c
00000210: 1c5e 793e b8e7 343d a5f4 a93d debf 82bd
00000220: cdde 063e 7976 5fbe f27a d3bd 17fa a83d
00000230: aeba 283e a4b7 3abc 06f4 c03b 14e4 2ebd
00000240: ed8e 6cbc 434f 3bbc 234b 533d aaa0 a33e
00000250: 19eb 1abc da7c 2d3e 0fe2 3a3e fe1c 343b
00000260: bd3a e4bd 8055 ed3d 0fb2 883d 3bb2 e73d
00000270: 330e d33d cd7d 84bd 5b1e fc3c 5307 9f3d
00000280: 2a30 1c3e c0f5 b23e 90ff 763c 67fb a73d
00000290: b0fb 26be 0518 973d 8160 4f3e a1b6 12be
000002a0: bbce b83d 0252 273e 8feb 483d 5602 2abd
000002b0: b996 80be 8d70 533d 3bf9 34be 37e7 aebc
000002c0: ce9c 6a3d ebc5 2bbe c550 003e f714 083e
000002d0: 27fb 423e 07a2 cdbd d60f d7bc c26c c43d
000002e0: 57e1 05be fffc 3b3d 463b 503e 9cbe 29bc
000002f0: 7eb5 abbc bc8f 70bc 3086 7ebd e104 873d
00000300: 4dbc 3a3e f3c7 66be 4226 22bc 3878 fbbd
00000310: 8f22 233e 34e9 04bd b011 723e 0ed8 983c
00000320: 5bbc 773c de13 c33d 2689 e23d 8abb 0fbe
00000330: fe5a 8dbe fd9a 513e 21f6 043e e03a 12bd
00000340: d95b 30bd c4a8 12bc b0e8 943e 9bd1 3abe
00000350: b3a7 8a3d 1cd0 ee3c a850 443c 2aee 83bd
00000360: 4677 223e 52a3 1d3e a4ae f43c 00e1 913d
00000370: 1299 543e 9591 643c 1839 0abe 6daf e0bd
00000380: adbe 63bc 3894 1d3e fba5 8ebd d418 173d
00000390: 857c d43c cd4a 71bd 7556 50be 70f4 d73c
000003a0: 9504 8a3b f45f 28be da77 613e 7e5b 18be
000003b0: b698 6b3e a874 be3d 0096 063e 5d9f 40be
000003c0: 68e7 1f3d 2935 36bd 656f 0abe ab4b 9e3d
000003d0: 2f1c 46be 0f09 ac3b 8b32 603c d39d e13d
000003e0: 1dc0 2d3e 605b 143b ca46 da3d 965b c33d
000003f0: 8ce2 0e3e e862 fc3d d2ad 1f3c 2b51 fcbc

network_body.vector_processors.0.normalizer.running_mean f4 [13]
-10.842505 22.029053 -12.404679 -0.03023291 0.14067155 -0.04784015 -0.0073854714 3.8998537
2.1357646 4.080212 1.6291903 3.6843781 1.6955203
00000000: e77a 2dc1 803b b041 9179 46c1 02ab f7bc
00000010: 340c 103e 08f4 43bd d301 f2bb 3497 7940
00000020: 5eb0 0840 1991 8240 4f89 d03f dacc 6b40
00000030: cf06 d93f
