Assets/ML-Agents/Brains/Basic-2699940.onnx (onnx, 23839 bytes, 9 tensors)

62 f4 [13]
19.390436 8.81521 22.305983 0.36676705 0.35590664 0.5903951 0.6159578 10.878256
8.674371 17.325605 1.975127 2.9534376 3.6133904
00000000: 9d1f 9b41 1a0b 0d41 a772 b241 e4c8 bb3e
00000010: 6539 b63e 2224 173f 69af 1d3f 560d 2e41
00000020: 39ca 0a41 d79a 8a41 f6d0 fc3f 1f05 3d40
00000030: ca41 6740

action_model._continuous_distribution.log_sigma f4 [1, 4]
-0.5960169 -0.57891756 -0.13747539 -0.7600016
00000000: 9094 18bf f133 14bf 59c6 0cbe 778f 42bf

action_model._continuous_distribution.mu.bias f4 [4]
-0.030211272 0.04946335 0.061753437 0.010069044
00000000: a17d f7bc 159a 4a3d 2cf1 7c3d a2f8 243c

action_model._continuous_distribution.mu.weight f4 [4, 64]
-0.18213041 0.0018979416 0.20761627 0.085709594 0.020043623 0.23014311 0.105407074 -0.43123573
-0.04439764 0.23836504 -0.08999389 0.014730409 0.14533941 0.24217615 -0.051285427 -0.20358697
-0.282665 0.07280373 0.024274394 0.12875265 0.22193038 0.05631356 0.0040687695 0.05343739
0.0061025056 -0.14506209 0.1423043 -0.054643594 0.008558244 -0.102295235 0.0450438 -0.035174742
0.2150857 -0.096317574 0.09082978 0.34049863 0.06678893 0.113552205 0.16625057 0.1452707
-0.06363046 -0.26162308 0.24549013 0.109683715 -0.20604113 -0.17664163 -0.029632023 0.105319366
0.091281354 -0.25310132 -0.038283233 -0.028103705 0.44400647 0.12915526 -0.016943198 0.04478832
-0.09220715 -0.25604597 0.010858683 0.1134486 0.15197852 0.04562695 0.11167085 0.21000175
-0.24860364 -0.11346829 -0.0032622735 0.22050722 -0.04259298 0.116103835 0.082530625 -0.08225123
0.22012797 -0.16945188 0.22426583 0.02025867 0.15240012 0.29732972 0.12543578 -0.18800706
-0.035541177 -0.018591331 -0.05927856 -0.18826449 -0.28829104 -0.055397883 -0.2863807 -0.14524928
0.016234506 -0.058900204 0.035627004 0.20389768 -0.10442252 0.1728569 0.0561846 0.17796522
-0.04740846 0.058719467 -0.20624442 0.08769777 0.010277765 0.031090388 -0.15799783 -0.1319321
0.14124152 0.00025846946 0.07172994 -0.023742795 0.044031683 -0.06942148 0.19349398 0.17821269
0.30807263 -0.1110981 -0.3176986 -0.060710568 0.031497817 0.004531343 -0.096683145 -0.09310639
-0.20082138 -0.0027463755 0.17264241 0.18089236 -0.20120776 -0.049609732 -0.17199712 0.13229862
0.05037692 -0.06359016 0.074926056 -0.008293528 0.0315902 0.019377228 -0.004662449 -0.045278247
-0.06737583 0.04160236 -0.09882745 0.08773089 -0.058989998 0.050431978 0.040857863 0.11122765
-0.030571893 0.035457343 0.0032317303 0.022045584 0.054550234 -0.059711102 -0.0542271 0.016388087
0.0682812 0.03017267 -0.046718206 0.057706513 -0.0033230812 -0.029125039 0.03797903 0.011140498
-0.011098886 0.025458647 -0.06916888 0.065251954 0.049742423 0.075412706 -0.04858153 -0.048822027
0.03787754 -0.09043941 -0.029790584 0.100560464 0.00795859 -0.06775317 0.0028378428 0.057693917
0.039891746 -0.078094065 0.05737368 -0.019501768 0.09556162 0.012196421 -0.0123279365 -0.05639873
-0.06831146 -0.054494604 -0.0038210265 0.029277017 0.04000427 0.023416918 -0.01893114 0.02254126
-0.024112161 0.03561818 0.02544755 0.2056949 0.18400955 -0.017434308 0.16829604 0.0690177
0.016489064 0.19797449 0.007608305 -0.17115876 0.11471679 0.046588585 0.24432798 0.08126726
0.07362294 -0.096658185 0.17986201 0.056978446 -0.079818964 0.04280165 -0.0053839274 -0.049185917
-0.005977527 0.22369619 0.11915608 -0.09129315 -0.0778166 0.07145786 0.11920846 -0.0010035393
-0.0097893765 -0.08283278 -0.026441317 -0.027575087 0.17312144 -0.07858103 0.04564389 -0.041754756
0.026149537 -0.1304949 -0.22622027 0.06413686 -0.07967709 0.0091491155 0.03914526 0.029702466
-0.06768444 0.08401428 0.13207257 -0.15558653 0.08229212 0.0335171 -0.13535482 0.09047893
-0.018604048 0.06030055 -0.11157401 -0.0070536197 0.042336985 -0.16298884 0.09793356 0.03471137
00000000: 6580 3abe 5ac4 f83a 5c99 543e 8388 af3d
00000010: 8632 a43c a3aa 6b3e aadf d73d eeca dcbe
00000020: 4dda 35bd f715 743e b74e b8bd d057 713c
00000030: dbd3 143e 06fd 773e ab10 52bd 1a79 50be
00000040: 78b9 90be 1f1a 953d 18db c63c bcd7 033e
00000050: b841 633e 0ca9 663d 5053 853b 2ae1 5a3d
00000060: 87f7 c73b 288b 14be 38b8 113e f6d1 5fbd
00000070: e137 0c3c 2a80 d1bd d97f 383d 6413 10bd
00000080: 6d3f 5c3e 2642 c5bd f704 ba3d d655 ae3e
00000090: a2c8 883d 0f8e e83d 973d 2a3e d8c1 143e
000000a0: b050 82bd 76f3 85be c461 7b3e dba1 e03d
000000b0: 72fc 52be 8be1 34be dbbe f2bc aeb1 d73d
000000c0: b8f1 ba3d 7f96 81be e1ce 1cbd be39 e6bc
000000d0: d154 e33e 4741 043e 76cc 8abc f573 373d
000000e0: 1ad7 bcbd 7518 83be 9ee8 313c bd57 e83d
000000f0: 42a0 1b3e 53e3 3a3d b0b3 e43d b30a 573e
00000100: f491 7ebe 1062 e8bd decb 55bb a5cc 613e
00000110: fa75 2ebd d9c7 ed3d d105 a93d 5573 a8bd
00000120: 3a69 613e cb84 2dbe f1a5 653e 83f5 a53c
00000130: c70e 1c3e 9a3b 983e 3d72 003e ec84 40be
00000140: a093 11bd d94c 98bc 13ce 72bd 68c8 40be
00000150: e29a 93be e4e8 62bd 7ea0 92be 3abc 14be
00000160: 3afe 843c 5741 71bd 9fed 113d 8eca 503e
00000170: 79db d5bd 6601 313e d321 663d 843c 363e
00000180: 602f 42bd d383 703d bd31 53be e39a b33d
00000190: 1264 283c 45b1 fe3c 2fca 21be 3519 07be
000001a0: 9ea1 103e 2f83 8739 26e7 923d 4080 c2bc
000001b0: 915a 343d d92c 8ebd 4923 463e 637d 363e
000001c0: b2bb 9d3e 6787 e3bd 64a9 a2be a5ab 78bd
000001d0: db03 013d a97b 943b d001 c6bd 90ae bebd
000001e0: 1fa4 4dbe 89fc 33bb 2cc9 303e d93b 393e
000001f0: 6809 4ebe 9333 4bbd 0320 30be 4a79 073e
00000200: 0758 4e3d 8f3b 82bd d572 993d 94e1 07bc
00000210: ba64 013d febc 9e3c 75c7 98bb af75 39bd
00000220: 57fc 89bd 3c67 2a3d 0c66 cabd 41ac b33d
00000230: 7f9f 71bd c391 4e3d 935a 273d 52cb e33d
00000240: e871 fabc b83b 113d 70cb 533b f198 b43c
00000250: 1170 5f3d a193 74bd 3c1d 5ebd 4f40 863c
00000260: 04d7 8b3d ad2c f73c 975b 3fbd aa5d 6c3d
00000270: 0dc8 59bb a297 eebc e68f 1b3d a386 363c
00000280: 1ad8 35bc a78e d03c 6aa8 8dbd d1a2 853d
00000290: b6be 4b3d fa71 9a3d 6dfd 46bd 9bf9 47bd
000002a0: 7b25 1b3d 4c38 b9bd 620b f4bc a5f2 cd3d
000002b0: bf64 023c 2dc2 8abd 1afb 393b 7550 6c3d
000002c0: 8765 233d c8ef 9fbd aa00 6b3d 2cc2 9fbc
000002d0: d0b5 c33d 7fd3 473c 1dfb 49bc 5b02 67bd
000002e0: e1e6 8bbd bc35 5fbd 306a 7abb 5bd6 ef3c
000002f0: 84db 233d d6d4 bf3c 7a15 9bbc 73a8 b83c
00000300: de86 c5bc 5ee4 113d 6177 d03c afa1 523e
00000310: 006d 3c3e 65d2 8ebc cc55 2c3e 2759 8d3d
00000320: 1314 873c d3b9 4a3e 174f f93b 3e44 2fbe
00000330: a3f0 ea3d acd3 3e3d 1d31 7a3e 736f a63d
00000340: a0c7 963d baf4 c5bd bf2d 383e 3b62 693d
00000350: 2078 a3bd c850 2f3d a86b b0bb 2c77 49bd
00000360: 21df c3bb 9d10 653e 1a08 f43d e7f7 babd
00000370: 4f5e 9fbd 8058 923d 9123 f43d 3189 83ba
00000380: 9f63 20bc 3ca4 a9bd 769b d8bc 26e5 e1bc
00000390: bf46 313e 17ef a0bd 16f5 3a3d 0907 2bbd
000003a0: 8e37 d63c 74a0 05be 49a6 67be 305a 833d
000003b0: be2d a3bd 2ce6 153c c856 203d 9652 f33c
000003c0: 249e 8abd ae0f ac3d 083e 073e 1352 1fbe
000003d0: c588 a83d 3a49 093d 749a 0abe 044d b93d
000003e0: 8467 98bc b6fd 763d ea80 e4bd 0d22 e7bb
000003f0: 8c69 2d3d 8ce6 26be 6491 c83d 822d 0e3d

network_body.linear_encoder.seq_layers.0.bias f4 [64]
-0.1713299 0.13319053 0.05144997 0.17236793 0.119951524 -0.060260676 0.08065783 -0.02043656
0.011184778 0.28746283 -0.027864702 -0.088131994 0.1521422 -0.008265095 0.08100839 0.26791295
0.15137081 -0.11762124 0.18760371 -0.07138136 -0.041189782 0.10144948 0.15800303 -0.18447025
-0.06094311 0.0756395 0.13381279 0.24162458 0.020447398 0.24595225 0.09788026 0.11327125
0.09434868 0.09664433 0.1130818 -0.062514775 3.119698e-05 -0.10508863 -0.08508904 0.2195124
-0.028014693 0.14025077 0.016090179 0.26561382 0.20218726 0.09147661 -0.052736852 0.22492015
-0.032610856 -0.044553544 0.07032965 0.24356046 0.17957625 0.17217444 0.1669514 -0.095068984
-0.28171048 0.2871401 0.07574369 0.20103556 -0.034207862 0.11997829 0.01180879 0.2143739
00000000: 1b71 2fbe 1963 083e 34bd 523d 3881 303e
00000010: 25a9 f53d e6d3 76bd ef2f a53d 936a a7bc
00000020: 5c40 373c 542e 933e 8444 e4bc 8c7e b4bd
00000030: 2acb 1b3e 526a 07bc bae7 a53d e32b 893e
00000040: f300 1b3e 68e3 f0bd 301b 403e 6430 92bd
00000050: 9eb6 28bd bfc4 cf3d 8ccb 213e c5e5 3cbe
00000060: 7c9f 79bd e2e8 9a3d 3806 093e 6f6c 773e
00000070: 4d81 a73c e8da 7b3e 7275 c83d c2fa e73d
00000080: e139 c13d 76ed c53d 6e97 e73d bf07 80bd
00000090: 81d9 0238 b538 d7bd 2a43 aebd dcc7 603e
000000a0: 127f e5bc e69d 0f3e 8dcf 833c 89fe 873e
000000b0: 2d0a 4f3e 1758 bb3d 9902 58bd 7851 663e
000000c0: f692 05bd c77d 36bd fe08 903d ea67 793e
000000d0: d6e2 373e 7f4e 303e 4ff5 2a3e 87b3 c2bd
000000e0: 5b3c 90be 0704 933e 821f 9b3d 44dc 4d3e
000000f0: 8b1d 0cbd 2db7 f53d a879 413c d584 5b3e

network_body.linear_encoder.seq_layers.0.weight f4 [64, 13]
-0.3460762 0.050446656 -0.042603947 0.5990521 -0.5481201 -0.27589816 0.34101623 -0.5242242
0.21405272 -0.17208293 0.14264451 0.09678654 -0.4499971 0.4545225 0.052915245 -0.22582243
0.49490392 -0.31541124 -0.65489817 -0.5778158 0.6921861 0.278473 0.7695838 0.45280245
0.40311542 0.2587814 0.36731267 -0.53970325 0.39329195 -0.040248822 0.17662852 0.5600318
-0.16756044 0.14208739 -0.071175866 0.20000581 0.74389577 0.48298487 -0.12667517 -0.10862996
0.41158518 -0.14668758 0.26281634 -0.5020737 -0.28724998 -0.45112577 -0.43136775 -0.20051393
0.12810741 -0.045984063 0.04677441 0.6017243 -0.41228625 -0.04801525 -0.08518274 0.38500467
-0.12610243 -0.9173439 -0.54147077 -0.2529126 -0.3347031 -0.0049036215 -0.22202118 0.03124347
0.14818624 0.30116302 0.15133734 0.07698934 0.03288538 -0.6669114 -0.2997277 0.2387139
0.4139306 0.70716655 -0.19251513 0.20408733 -0.12257798 0.32546666 -0.14872792 0.019340878
-0.36250362 -0.18307443 0.9734912 -0.12122703 -0.6660471 0.03106799 0.14309098 0.37795785
0.28588754 0.6912065 -0.21218438 0.39457995 0.43138537 -0.30181935 -0.24724835 -0.4912079
-0.33065483 -0.13879803 0.56536895 0.1907615 0.34340268 0.13278309 0.07952487 0.21201552
-0.11495903 0.09442835 0.11891137 0.45720437 -0.17998411 -0.091487266 -0.3730243 0.71933657
-0.0045112544 0.31504163 -0.09961336 -0.1804935 -0.21508887 0.11980182 -0.48179734 0.11100108
-0.6716209 -0.18569623 0.23991346 0.13664185 0.16422316 -0.174943 -0.30611563 -0.27331933
-0.13868916 -0.38717616 0.029668557 0.28871262 -0.24480693 -0.49429068 -0.026583495 -0.17349364
0.16099972 -0.2518549 0.115300514 -0.28272238 0.0703108 0.089885905 -0.4776113 -0.17393641
-0.0049201534 -0.22945373 0.7162119 0.4566782 -0.09602089 -0.330946 -0.26842037 0.16571122
-0.6459822 0.072766714 -0.26327294 -0.2522711 0.2203293 0.5056775 -0.25272033 -0.26473573
0.37526977 0.04678055 -0.05152417 0.28677565 -0.25197235 -0.08706746 -0.32402495 -0.57404083
0.116114646 -0.030738637 0.34890217 0.46920818 0.13126458 -0.10835827 0.19241937 0.0025477856
0.14838673 -0.31718987 0.22528167 0.33743986 -0.0147408955 0.04070992 -0.1840642 -0.08726003
0.31131324 0.28618944 0.24128634 1.1607257 -0.7342098 -0.3509992 -0.08647291 -0.05800087
-0.2734661 0.011693699 0.07933971 0.058372762 -0.15507643 0.112713635 0.06602967 0.2885798
1.0340255 -0.07082664 0.49118024 -0.347048 -0.06496054 0.17619503 -0.3161158 0.12220634
-0.43928534 -0.50531197 -0.13944693 0.22229281 -0.60645396 0.27661473 -0.6269701 -0.104954354
-0.071073905 0.15957336 -0.2254662 0.23977083 0.1845588 -0.019666772 -0.24413924 -0.1720043
0.32496196 0.196199 0.09694357 -0.27101162 -0.25304574 0.24201293 0.57508475 0.36271545
0.36597386 -0.4309069 0.053352263 -0.31843936 0.33735928 -0.29844335 -0.68216604 0.15229952
0.60394007 0.0071993154 -0.21382158 0.062656425 -0.048771344 0.64760447 0.16237181 0.00923058
0.5283267 -0.25390738 0.0021892036 -0.061478633 -0.077800006 0.09580627 0.64141107 -0.22988875
00000000: e630 b1be 27a1 4e3d 7a81 2ebd 7a5b 193f
00000010: 9951 0cbf 8642 8dbe ae99 ae3e 8f33 06bf
00000020: a330 5b3e 8236 30be 6711 123e 0538 c63d
00000030: 0566 e6be 2cb7 e83e a8bd 583d ff3d 67be
00000040: 0c64 fd3e 957d a1be 68a7 27bf bceb 13bf
00000050: 1c33 313f 0394 8e3e 7203 453f b9d5 e73e
00000060: 2565 ce3e ff7e 843e 6810 bc3e fe29 0abf
00000070: 905d c93e f3db 24bd 1bde 343e 3e5e 0f3f
00000080: f794 2bbe 5b7f 113e a7c4 91bd 53ce 4c3e
00000090: f46f 3e3f cb49 f73e 23b7 01be 6279 debd
000000a0: 4bbb d23e 4535 16be dd8f 863e e787 00bf
000000b0: 6e12 93be f5f9 e6be 3cdc dcbe 8653 4dbe
000000c0: 972e 033e c959 3cbd 8696 3f3d 9b0a 1a3f
000000d0: 2f17 d3be a4ab 44bd 4a74 aebd 551f c53e
000000e0: ff20 01be 0dd7 6abf d49d 0abf c37d 81be
000000f0: 345e abbe 8fae a0bb 8559 63be 4ef2 ff3c
00000100: 22be 173e 0a32 9a3e 2df8 1a3e 96ac 9d3d
00000110: d2b2 063d b5ba 2abf e975 99be 6b71 743e
00000120: b6ee d33e de08 353f b022 45be 45fc 503e
00000130: 2a0a fbbd 91a3 a63e 224c 18be c370 9e3c
00000140: 139a b9be dd77 3bbe b836 793f e145 f8bd
00000150: 1082 2abf 4c82 fe3c 7186 123e b183 c13e
00000160: da5f 923e e9f2 303f dd46 59be 6206 ca3e
00000170: 8bde dc3e 1188 9abe ac2e 7dbe 9a7f fbbe
00000180: 974b a9be 1221 0ebe 05bc 103f fc56 433e
00000190: 7ad2 af3e 4af8 073e efdd a23d 991a 593e
000001a0: a46f ebbd a763 c13d ce87 f33d b116 ea3e
000001b0: c14d 38be ad5d bbbd 0bfd bebe 7126 383f
000001c0: 25d3 93bb 234d a13e 1702 ccbd 4ad3 38be
000001d0: 4240 5cbe a85a f53d 24ae f6be 8954 e33d
000001e0: 59ef 2bbf 2727 3ebe e0ab 753e d7eb 0b3e
000001f0: 1e2a 283e 4224 33be 30bb 9cbe 83f0 8bbe
00000200: 8804 0ebe f43b c6be 790b f33c 24d2 933e
00000210: abae 7abe ab13 fdbe a1c5 d9bc 51a8 31be
00000220: 1cdd 243e 20f3 80be ad22 ec3d fdc0 90be
00000230: 1cff 8f3d 1a16 b83d 7889 f4be 631c 32be
00000240: 3d39 a1bb ebf5 6abe aa59 373f bad1 e93e
00000250: 9aa6 c4bd c171 a9be 656e 89be 34b0 293e
00000260: 175f 25bf b706 953d b6cb 86be ad29 81be
00000270: 019e 613e 1574 013f 8f64 81be 718b 87be
00000280: 5c23 c03e f69c 3f3d 020b 53bd 42d4 923e
00000290: 8502 81be 6d50 b2bd 99e6 a5be 57f4 12bf
000002a0: 84cd ed3d 98cf fbbc 4ea3 b23e 0e3c f03e
000002b0: 396a 063e f1ea ddbd 9509 453e c0f8 263b
000002c0: b1f2 173e b666 a2be 3db0 663e ebc4 ac3e
000002d0: cc83 71bc 72bf 263d 537b 3cbe 63b5 b2bd
000002e0: 7364 9f3e 6c87 923e c413 773e a992 943f
000002f0: 2cf5 3bbf 2bb6 b3be b618 b1bd 5292 6dbd
00000300: c003 8cbe ee96 3f3c dc7c a23d 4718 6f3d
00000310: 5bcc 1ebe 68d6 e63d 903a 873d bbc0 933e
00000320: f35a 843f 8f0d 91bd fa7b fb3e 47b0 b1be
00000330: 080a 85bd 786c 343e eed9 a1be 5147 fa3d
00000340: 02ea e0be 205c 01bf 2dcb 0ebe baa0 633e
00000350: 9140 1bbf 72a0 8d3e 1d81 20bf 4ff2 d6bd
00000360: 328f 91bd 3367 233e 9de0 66be 7c86 753e
00000370: fbfc 3c3e 361c a1bc a3ff 79be e521 30be
00000380: 6a61 a63e 64e8 483e 5a8a c63d 09c2 8abe
00000390: 368f 81be 3dd2 773e c138 133f d7b5 b93e
000003a0: ed60 bb3e d49f dcbe e787 5a3d 7c0a a3be
000003b0: 5bba ac3e 91cd 98be 6fa2 2ebf 68f4 1b3e
000003c0: d19b 1a3f 3ce8 eb3b 0bf4 5abe 0352 803d
000003d0: 76c4 47bd 68c9 253f cc44 263e dc3b 173c
000003e0: 6b40 073f 2600 82be be78 0f3b 05d1 7bbd
000003f0: 9c55 9fbd 1436 c43d 8433 243f f567 6bbe

network_body.linear_encoder.seq_layers.2.bias f4 [64]
0.037302103 -0.07306739 0.03479631 -0.0015520824 0.13321148 0.014525248 0.021075234 0.06192833
0.0362401 0.1026957 0.072574735 0.05672373 0.04031555 0.047199897 0.17952035 0.11574738
0.22683284 -0.008501071 0.071016 -0.056362774 0.09105047 -0.06955177 -0.07464347 -0.013765334
-0.041113824 0.063868746 0.0053396635 -0.022832222 -0.045628432 0.08613564 0.028143678 0.00097163394
0.030988555 0.029804442 -0.06832746 0.07689697 0.15165561 0.035832226 0.0015451534 -0.12808089
0.08913819 0.15051877 -0.062064692 0.030374784 0.15052673 0.081212536 0.08312793 -0.0124665955
0.04203005 0.07407671 0.08789456 0.033644393 0.08159355 -0.111375466 -0.07939342 0.052833892
0.101351924 0.17967479 -0.03826692 0.04233856 -0.04534336 0.043936543 0.0013282779 0.013771881
00000000: 17ca 183d 5ba4 95bd 9386 0e3d 3e6f cbba
00000010: 9768 083e 4efb 6d3c f8a5 ac3c 90a8 7d3d
00000020: 8070 143d 2052 d23d 10a2 943d 2457 683d
00000030: eb21 253d ae54 413d 2fd4 373e f60c ed3d
00000040: de46 683e 1348 0bbc d670 913d a7dc 66bd
00000050: ab78 ba3d 2971 8ebd adde 98bd ff87 61bc
00000060: f866 28bd 9ecd 823d 58f8 ae3b a40a bbbc
00000070: e1e4 3abd e267 b03d 928d e63c 40b5 7e3a
00000080: b6db fd3c 7228 f43c 44ef 8bbd 297c 9d3d
00000090: 9c4b 1b3e d0c4 123d bf86 ca3a a327 03be
000000a0: 158e b63d 9821 1a3e 8c37 7ebd 8ad4 f83c
000000b0: ae23 1a3e c252 a63d fa3e aa3d b140 4cbc
000000c0: b427 2c3d 88b5 973d 1002 b43d b4ce 093d
000000d0: 851a a73d d218 e4bd 0499 a2bd 5a68 583d
000000e0: 9991 cf3d abfc 373e c6bd 1cbd 336b 2d3d
000000f0: f6b9 39bd cef6 333d 9c19 ae3a 75a3 613c

network_body.linear_encoder.seq_layers.2.weight f4 [64, 64]
0.018376244 0.09163109 -0.16944896 -0.106437385 -0.03126092 0.18538605 -0.10451772 0.1321894
-0.10948426 0.02260354 -0.22274864 -0.028647745 -0.24468398 -0.078727074 0.14848015 -0.09650149
0.1577066 0.101466455 0.22252184 -0.14898913 0.12310496 0.14477624 0.16718864 -0.09413605
0.27386874 0.093726724 -0.15038924 0.035983678 -0.046426676 0.20196055 -0.2701065 0.009126662
0.17549343 -0.05821516 -0.11019166 -0.041207384 0.08216098 0.18997627 -0.06254938 0.07645419
-0.049106248 0.029358309 0.17499232 0.17850797 -0.01630248 0.039872933 -0.2470791 -0.22096166
-0.1723734 -0.07258493 0.12219535 0.19169912 -0.14094214 0.2029003 0.3176959 -0.21522696
0.023865715 0.11166543 -0.21040021 0.13811766 -0.22713523 -0.08806198 -0.06243582 -0.2555845
0.00069663045 -0.16581692 -0.10920058 -0.05985279 0.10032214 -0.043496978 0.2030101 -0.03769613
0.13474266 -0.041417386 -0.08352943 -0.31812736 -0.14297543 -0.08555367 -0.28568858 -0.13475712
0.07325915 0.024303708 -0.028645767 -0.08122955 -0.26117945 0.03554539 -0.208058 -0.19804588
-0.23254965 -0.14361544 -0.18480149 -0.29931465 0.06814385 -0.042223517 -0.056653976 -0.17505772
0.052848235 0.18335032 -0.08029229 0.13252865 -0.009007066 0.015135017 0.04699385 -0.025984274
0.03619994 -0.27341682 -0.20370555 -0.09548386 0.06872209 0.24385674 0.13705212 0.278567
-0.21267289 -0.06183853 0.28286263 -0.13696049 -0.009359836 -0.08634734 -0.14751074 -0.015718576
0.042674307 -0.067739315 -0.03718505 0.03313074 0.08294892 -0.109155186 0.09571801 -0.016181989
0.07578857 -0.4082071 0.32523748 -0.15048309 -0.21940401 0.11166694 -0.011240742 0.1371507
-0.019612577 0.069516525 -0.05719789 -0.08248517 -0.28743717 0.02789237 0.10492202 -0.16485083
0.009172957 -0.16803475 0.4041234 -0.019896219 -0.08417733 0.382184 -0.1614007 0.009476128
-0.34665763 0.22974445 -0.0778233 0.05650261 -0.11617619 0.2396968 0.15390494 -0.06368248
0.09321884 -0.012933666 -0.0299008 0.21271355 0.07920141 -0.118753456 -0.15657988 0.13100868
0.058311567 0.004826766 0.013114411 0.013246311 -0.4506732 0.09673987 0.046458177 0.37416714
0.15966062 0.06463667 -0.2572709 0.18061109 0.27537242 0.058598712 0.04712837 -0.088608705
-0.09444558 0.003975963 0.045189116 -0.058503143 0.010511882 0.46217808 -0.17204477 -0.07886293
0.18083031 -0.013035771 -0.3990224 0.34890792 -0.061218247 -0.016143464 -0.29523778 0.1311374
-0.22911383 -0.39780292 0.1768375 -0.11607699 -0.07801776 -0.26566344 -0.09898916 -0.19649565
0.061106723 -0.050687306 0.11448825 -0.30880356 -0.59180516 0.16203961 -0.3550685 -0.0154001955
-0.04411772 0.13082239 -0.14842384 -0.30660045 -0.15861668 -0.16020599 -0.26944768 -0.13178468
0.010682481 -0.17243783 -0.15347357 0.0476576 -0.3462017 0.07397923 -0.015874727 0.01505642
-0.07102672 0.092236966 -0.03447099 -0.05896859 -0.14967564 0.02643483 -0.09493928 -0.36563864
-0.05939818 0.09052244 -0.17436863 -0.114637606 0.3355971 0.19823016 -0.14975913 -0.35292402
0.37764698 -0.05710238 0.25860074 -0.22783656 0.03523137 0.13585235 0.187089 -0.18555002
00000000: c789 963c 15a9 bb3d 0784 2dbe d8fb d9bd
00000010: 730b 00bd d7d5 3d3e 630d d6bd a85c 073e
00000020: 4939 e0bd 0f2b b93c 3818 64be adae eabc
00000030: 708e 7abe a93b a1bd 2e0b 183e 93a2 c5bd
00000040: d77d 213e a5cd cf3d c4dc 633e 9b90 18be
00000050: 741e fc3d 3940 143e 8033 2b3e 67ca c0bd
00000060: 8638 8c3e ccf3 bf3d a3ff 19be 9f63 133d
00000070: e629 3ebd bfce 4e3e 664b 8abe ff87 153c
00000080: 8db4 333e 0573 6ebd 2aac e1bd 13c9 28bd
00000090: 0444 a83d 2489 423e e419 80bd 0494 9c3d
000000a0: a223 49bd d680 f03c 3031 333e cbca 363e
000000b0: c78c 85bc cd51 233d 4e02 7dbe c643 62be
000000c0: a782 30be 68a7 94bd 8e41 fa3d c64c 443e
000000d0: 2353 10be 19c5 4f3e 09a9 a23e 7564 5cbe
000000e0: 0882 c33c d8b0 e43d 2773 57be b76e 0d3e
000000f0: 2396 68be d759 b4bd b4bc 7fbd f9db 82be
00000100: 149e 363a e9cb 29be 8ea4 dfbd 3328 75bd
00000110: b275 cd3d e329 32bd e1e1 4f3e 4267 1abd
00000120: fbf9 093e 47a5 29bd 7a11 abbd 97e1 a2be
00000130: 2768 12be c336 afbd c645 92be c5fd 09be
00000140: e508 963d 9218 c73c 87aa eabc ae5b a6bd
00000150: 50b9 85be 0b98 113d 280d 55be 8acc 4abe
00000160: 7f21 6ebe ed0f 13be 9a3c 3dbe c53f 99be
00000170: 018f 8b3d 91f2 2cbd 000e 68bd 5542 33be
00000180: 6477 583d 30c0 3b3e 4970 a4bd 97b5 073e
00000190: 5f92 13bc ddf8 773c a07c 403d f9dc d4bc
000001a0: 6346 143d 4afd 8bbe 3098 50be 0b8d c3bd
000001b0: 2bbe 8c3d 95b5 793e 6457 0c3e 55a0 8e3e
000001c0: ecc6 59be 664a 7dbd 5fd3 903e 5f3f 0cbe
000001d0: ff59 19bc e0d6 b0bd 0e0d 17be 3ec4 80bc
000001e0: 41cb 2e3d e9ba 8abd 5a4f 18bd 19b4 073d
000001f0: 20e1 a93d c18c dfbd ce07 c43d 1790 84bc
00000200: 0a37 9b3d 8500 d1be 8785 a63e 3d18 1abe
00000210: 72ab 60be a3b1 e43d 172b 38bc 3c71 0c3e
00000220: 8eaa a0bc ae5e 8e3d 5648 6abd fced a8bd
00000230: f72a 93be 8a7e e43c 5be1 d63d a8ce 28be
00000240: 2c4a 163c 4d11 2cbe 43e9 ce3e 65fd a2bc
00000250: 2a65 acbd 9fad c33e 3a46 25be c341 1b3c
00000260: 1c7d b1be 2142 6b3e d361 9fbd 486f 673d
00000270: c8ed edbd 1473 753e 4299 1d3e f66b 82bd
00000280: 85e9 be3d bae7 53bc 86f2 f4bc 95d1 593e
00000290: 5934 a23d 0335 f3bd 7a56 20be 2427 063e
000002a0: 1cd8 6e3d d929 9e3b d4dd 563c 0e07 593c
000002b0: a3be e6be 8e1f c63d ee4a 3e3d d692 bf3e
000002c0: 137e 233e 3b60 843d 03b9 83be 1df2 383e
000002d0: 9dfd 8c3e 3405 703d ad09 413d 7b78 b5bd
000002e0: af6c c1bd cc48 823b 3918 393d fea0 6fbd
000002f0: 073a 2c3c 9ba2 ec3e 812c 30be e382 a1bd
00000300: 952b 393e fd93 55bc aa4c ccbe 0fa4 b23e
00000310: fcbf 7abd 4c3f 84bc 6829 97be e248 063e
00000320: d19c 6abe d3ac cbbe e414 353e c6b9 edbd
00000330: c6c7 9fbd 0a05 88be d4ba cabd 2836 49be
00000340: 0b4b 7a3d 7e9d 4fbd d178 ea3d 801b 9ebe
00000350: 8b80 17bf b6ed 253e 8acb b5be 1a51 7cbc
00000360: c8b4 34bd 4ef6 053e 6bfc 17be bcfa 9cbe
00000370: 696c 22be 0a0d 24be 0cf5 89be 90f2 06be
00000380: 9305 2f3c 8b93 30be 2d28 1dbe 9e34 433d
00000390: 5941 b1be 6c82 973d b70b 82bc 34af 763c
000003a0: 7576 91bd bce6 bc3d 7431 0dbd 0c89 71bd
000003b0: 9244 19be db8d d83c 866f c2bd fd34 bbbe
000003c0: 824b 73bd d463 b93d b18d 32be 1fc7 eabd
000003d0: 62d3 ab3e d9fc 4a3e 755a 19be 75b2 b4be
000003e0: f25a c13e 2fe4 69bd 5167 843e fd4d 69be
000003f0: c54e 103d e11c 0b3e 4294 3f3e d300 3ebe

network_body.vector_processors.0.normalizer.running_mean f4 [13]
-14.080639 20.000374 5.1750736 -0.093679644 0.044402987 0.0051767686 0.008258414 -11.176898
2.989889 11.1169195 -1.9316427 2.173009 3.5682995
00000000: 4c4a 61c1 c400 a041 349a a540 1ddb bfbd
00000010: e8df 353d e2a1 a93b 4d4e 073c 93d4 32c1
00000020: 575a 3f40 e7de 3141 1140 f7bf 9412 0b40
00000030: 055f 6440
