Assets/ML-Agents/Brains/Basic-5000096.onnx (onnx, 23839 bytes, 9 tensors)

62 f4 [13]
0	0x41c1365f	24.151548
1	0x410ebd7c	8.921261
2	0x41d27f8e	26.312283
3	0x3ec76166	0.38941497
4	0x3ec70eef	0.3887858
5	0x3f131dce	0.57467353
6	0x3f1909fa	0.5978085
7	0x4147e6ed	12.493878
8	0x41047f1e	8.281034
9	0x4199f702	19.24561
10	0x40177446	2.3664718
11	0x40232de1	2.5496752
12	0x40852104	4.16028

action_model._continuous_distribution.log_sigma f4 [1, 4]
0	0xbf45736c	-0.77129245
1	0xbf35765f	-0.70883745
2	0xbe19d6a6	-0.15023288
3	0xbf67ecd9	-0.90595776

action_model._continuous_distribution.mu.bias f4 [4]
0	0xbd3b1ee9	-0.045683775
1	0x3d6c3af6	0.057673417
2	0x3da3206c	0.07965168
3	0x3c00c4a3	0.007859382

action_model._continuous_distribution.mu.weight f4 [4, 64]
0	0xbe60d6cb	-0.21956937
1	0xbcc01cb9	-0.023451196
2	0x3e5f2c1c	0.2179417
3	0x3d831bf0	0.06401813
4	0x3cd66ee3	0.026175922
5	0x3e72f299	0.23725356
6	0x3dc0d6d8	0.09415978
7	0xbef3dd9f	-0.4763002
8	0xbd5ea858	-0.054359764
9	0x3e79b54c	0.24385566
10	0xbdc4b66f	-0.09605109
11	0x3c70887b	0.014680977
12	0x3e187887	0.14889728
13	0x3e755402	0.23957828
14	0xbd40f44f	-0.04710799
15	0xbe76aa22	-0.24088338
16	0xbe9319a9	-0.28730515
17	0x3da9b5b7	0.082866125
18	0x3ce05c91	0.02738789
19	0x3e0bdef3	0.13659267
20	0x3e592411	0.21205164
21	0x3d4f72d0	0.050646603
22	0x3cf53ca4	0.029936142
23	0x3d41fed0	0.04736215
24	0xbb8e2826	-0.004338282
25	0xbe0d47b5	-0.13796885
26	0x3e0b13b2	0.13581732
27	0xbd750b31	-0.059825126
28	0x3cc1f394	0.023675717
29	0xbdf3d4a7	-0.119057946
30	0x3d3070a8	0.043076187
31	0xbd47d374	-0.04878564
32	0x3e5e9f75	0.21740516
33	0xbdd454a6	-0.10367708
34	0x3dd8dc0c	0.105888456
35	0x3ec2dedc	0.38060653
36	0x3d80724b	0.062718
37	0x3dd5ba24	0.10435894
38	0x3e524989	0.20535864
39	0x3e15ee92	0.14641789
40	0xbd8ed307	-0.06973844
41	0xbe869647	-0.26286528
42	0x3e7cb902	0.2467995
43	0x3dd3f4cd	0.103494264
44	0xbe622c7d	-0.22087283
45	0xbe33efb5	-0.1757191
46	0xbd79b8f2	-0.060967393
47	0x3dbc29c6	0.09187655
48	0x3dc9219a	0.09820862
49	0xbe73eb22	-0.23820165
50	0xbd9cfc68	-0.0766533
51	0xbcdf5db6	-0.027266365
52	0x3ef6ea5d	0.4822568
53	0x3e03ec9f	0.12883233
54	0xbc380522	-0.0112316925
55	0x3d64de02	0.055875786
56	0xbdb698f9	-0.08915896
57	0xbe831c8d	-0.2560772
58	0xbbba1405	-0.005678656
59	0x3de7af1b	0.113126956
60	0x3e340bfe	0.175827
61	0x3d43f3f8	0.04784009
62	0x3dcaa37f	0.09894466
63	0x3e6740a1	0.22583248
64	0xbe85ce86	-0.26134127
65	0xbe1fda92	-0.15610722
66	0xbc2d6da7	-0.010585225
67	0x3e38548a	0.18000999
68	0xbd42b933	-0.0475399
69	0x3deb4952	0.11488594
70	0x3da5f6e7	0.081037335
71	0xbd4f6eff	-0.050642963
72	0x3e66113c	0.22467512
73	0xbe324265	-0.1740814
74	0x3e67f478	0.22651851
75	0x3caf1c1c	0.021375708
76	0x3e1d0556	0.15334067
77	0x3e9bd0c1	0.30432704
78	0x3dfef103	0.12448313
79	0xbe369db1	-0.17833592
80	0xbd1ebc85	-0.038754005
81	0xbd08b23a	-0.033373095
82	0xbd0a8bc9	-0.033824716
83	0xbe53fe99	-0.2070259
84	0xbea382b0	-0.31935644
85	0xbdb761de	-0.089542136
86	0xbea2d4b3	-0.31802902
87	0xbe29bee2	-0.16576722
88	0x3d3b4f5b	0.045729976
89	0xbc5c5fa8	-0.013450541
90	0xbbd828c2	-0.0065966556
91	0x3e5f4f67	0.21807633
92	0xbddd09ed	-0.10792909
93	0x3e36f906	0.17868432
94	0x3d871045	0.065949
95	0x3e6bbe9f	0.23021935
96	0xbd77c920	-0.060494542
97	0x3d646d86	0.055768512
98	0xbe92c6dd	-0.28667346
99	0x3da8a182	0.0823393
100	0x3c5ddbe2	0.013541194
101	0x3cc834a7	0.02443917
102	0xbe4c4a00	-0.19950104
103	0xbe4edc62	-0.20201257
104	0x3e12dc6f	0.14341901
105	0xbacf5e52	-0.0015820956
106	0x3d94d926	0.0726798
107	0xbd0de5b4	-0.03464289
108	0x3d3e099e	0.04639589
109	0xbd9f3cc1	-0.0777526
110	0x3e648887	0.22317706
111	0x3e262b94	0.16227561
112	0x3ea1d2ab	0.3160604
113	0xbdf3e956	-0.1190974
114	0xbea02795	-0.312802
115	0xbdb81956	-0.089892074
116	0x3cc1cc21	0.023656907
117	0x3b88c6d7	0.004174094
118	0xbddc719c	-0.10763857
119	0xbdcc2248	-0.09967476
120	0xbe57c3eb	-0.2107083
121	0xbb8ea8b7	-0.0043536085
122	0x3e4c5438	0.19954002
123	0x3e47381e	0.19455001
124	0xbe7a015e	-0.24414584
125	0xbd83e73e	-0.0644059
126	0xbe4033af	-0.18769716
127	0x3e18b444	0.14912516
128	0x3d8c3035	0.06845132
129	0xbd7e0ad5	-0.06202205
130	0x3db0ff9b	0.08642503
131	0xbc6e7e7c	-0.014556523
132	0x3d4a488b	0.04938559
133	0x3cc1fd1d	0.023680264
134	0x3c1b3fd7	0.00947567
135	0xbd5b189d	-0.05349027
136	0xbd6d13ff	-0.057880398
137	0x3d8d4089	0.06897075
138	0xbdae44c9	-0.085092135
139	0x3db74b6c	0.089499325
140	0xbd8206c9	-0.063489504
141	0x3db8cd6b	0.09023555
142	0x3d6f6d94	0.05845411
143	0x3df7094d	0.12062321
144	0xbc3125e6	-0.010812258
145	0x3cf01e85	0.029311428
146	0x3be62b11	0.007024177
147	0x3d27799e	0.040887468
148	0x3d881df9	0.06646342
149	0xbd09f717	-0.03368291
150	0xbda690e5	-0.08133105
151	0x3d1dae87	0.03849652
152	0x3d9bc476	0.07605831
153	0x3bedf1d9	0.0072614965
154	0xbd85be46	-0.065304324
155	0x3d4a5680	0.0493989
156	0xbbf04467	-0.007332373
157	0xbc3169c6	-0.010828441
158	0x3d81a72e	0.06330715
159	0xb90d6940	-0.00013486017
160	0x3b893daf	0.0041882615
161	0x3d2cde21	0.042204026
162	0xbda3dddc	-0.08001301
163	0x3dadf860	0.084946394
164	0x3d84e392	0.06488718
165	0x3daa8aef	0.08327281
166	0xbd97919c	-0.0740082
167	0xbd38dc55	-0.045132
168	0x3d7cc708	0.06171325
169	0xbda7c921	-0.08192659
170	0xbcdb3c98	-0.026762292
171	0x3dec5f5b	0.11541625
172	0x3ccf2a29	0.025288658
173	0xbd45eff6	-0.048324548
174	0x3b2930a2	0.002581634
175	0x3d8c8253	0.06860795
176	0x3d54f368	0.051989943
177	0xbd778853	-0.060432743
178	0x3db02e38	0.086025655
179	0xbc04fd50	-0.008117035
180	0x3db282f6	0.08716385
181	0x3d3a83ce	0.045535855
182	0xbc87be99	-0.016570376
183	0xbd34e343	-0.044162046
184	0xbd394c7e	-0.045238964
185	0xbd12c0c5	-0.03582837
186	0xbc8e38ef	-0.017361132
187	0x3cee5cfe	0.029097077
188	0x3c94fcc6	0.018186938
189	0x3ce20dd4	0.027594484
190	0x3c8b2245	0.016984114
191	0x3d48f725	0.04906382
192	0xbd7639e8	-0.060113817
193	0x3cf5eb19	0.03001933
194	0x3ca4a994	0.020100392
195	0x3e4c6f33	0.19964294
196	0x3e333c0d	0.17503376
197	0xbcd25350	-0.025674492
198	0x3e28d62b	0.16487949
199	0x3dddb2a9	0.10825092
200	0x3cb38d70	0.021918029
201	0x3e48bf4c	0.19604224
202	0x3c7fee21	0.015620739
203	0xbe34b951	-0.17648818
204	0x3dec316a	0.115328625
205	0x3d00be35	0.031431396
206	0x3e7d6613	0.2474597
207	0x3dae47ac	0.08509764
208	0x3d833346	0.06406264
209	0xbde67356	-0.11252467
210	0x3e4bcff5	0.19903548
211	0x3d08e1bb	0.0334184
212	0xbdbe728c	-0.09299192
213	0x3d0b0b2d	0.033946205
214	0xbd41d841	-0.047325376
215	0xbd8797f9	-0.06620783
216	0x38f0d1fa	0.00011483203
217	0x3e69aa0f	0.22818778
218	0x3e093a10	0.13401055
219	0xbdc5e7b2	-0.09663333
220	0xbdd37c07	-0.10326391
221	0x3d9e4910	0.07728779
222	0x3dea9eb3	0.11456051
223	0x3cd8fb75	0.026487092
224	0xbab189ae	-0.001354506
225	0xbdbca8cb	-0.09211882
226	0xbd8f9924	-0.07011631
227	0xbd623d9d	-0.05523454
228	0x3e279cf9	0.16368474
229	0xbdb6cc58	-0.08925694
230	0x3ca0fc73	0.019651627
231	0xbd375dca	-0.04476718
232	0x3c95408d	0.018219257
233	0xbe0ba48c	-0.13636988
234	0xbe6df041	-0.23236181
235	0x3d88223c	0.06647155
236	0xbdbc3f15	-0.091917194
237	0xbb04cfc9	-0.0020265451
238	0x3d80c3d2	0.0628735
239	0x3c0d710c	0.0086329095
240	0xbd4f4410	-0.05060202
241	0x3dc499d8	0.09599656
242	0x3e0e42a3	0.13892607
243	0xbe46c906	-0.19412622
244	0x3d4edd5e	0.05050408
245	0x3aee76ad	0.0018193327
246	0xbe06cfbe	-0.13165185
247	0x3dcf2d75	0.10116092
248	0xbca37b99	-0.019956397
249	0x3d724625	0.059148926
250	0xbdc71116	-0.09720056
251	0x3c053bc3	0.008131924
252	0x3cc589bd	0.02411353
253	0xbe36f327	-0.17866193
254	0x3de0806c	0.109619945
255	0x3c8613f0	0.016366929

network_body.linear_encoder.seq_layers.0.bias f4 [64]
0	0xbe243f70	-0.16039824
1	0x3e0ca7b4	0.13735849
2	0x3cc921ed	0.02455231
3	0x3e20ab32	0.15690306
4	0x3e0a6105	0.13513573
5	0xbd8962ca	-0.06708296
6	0x3da263e9	0.079292126
7	0xbb49c231	-0.0030785913
8	0x3c95cd55	0.018286387
9	0x3e910f26	0.2833187
10	0xbd261368	-0.04054585
11	0xbd8e533f	-0.06949472
12	0x3e2eb16b	0.17059867
13	0x3d9b3a76	0.0757951
14	0x3dafee95	0.08590428
15	0x3e92f89a	0.28705293
16	0x3e0ecf7e	0.1394634
17	0xbd713817	-0.058891382
18	0x3e48b942	0.1960192
19	0xbd826f61	-0.063689
20	0xbbc3d865	-0.005976724
21	0x3dfc06b4	0.12305966
22	0x3e51c01b	0.20483439
23	0xbe31fb53	-0.17381029
24	0xbd81843e	-0.06324051
25	0x3da9db67	0.08293801
26	0x3e21535a	0.15754452
27	0x3e7606b2	0.24025992
28	0x3d7e844d	0.06213789
29	0x3e80df27	0.25170252
30	0x3de6ee82	0.112759605
31	0x3e093de9	0.13402523
32	0x3dc74997	0.09730833
33	0x3dc7a0a2	0.09747435
34	0x3de5ae48	0.11214882
35	0xbd81b621	-0.063335665
36	0x3addad75	0.0016912656
37	0xbdbbff64	-0.09179571
38	0xbda00184	-0.07812789
39	0x3e61f1a8	0.22064841
40	0xbcee2904	-0.029072292
41	0x3e182292	0.14856938
42	0x3d00f906	0.031487487
43	0x3e8a591a	0.27021104
44	0x3e4b32b2	0.19843557
45	0x3db8ae5f	0.09017634
46	0xbd68d2c4	-0.056841627
47	0x3e6186aa	0.22024027
48	0xbd01e637	-0.03171369
49	0xbd6ed103	-0.058304798
50	0x3da79698	0.0818302
51	0x3e833e6d	0.25633565
52	0x3e0aa771	0.13540436
53	0x3e3628a8	0.17788947
54	0x3e31bb63	0.17356639
55	0xbdad44a6	-0.08460359
56	0xbe93b69b	-0.28850254
57	0x3ea5038b	0.32229266
58	0x3d8afc50	0.06786406
59	0x3e518933	0.20462494
60	0xbd03b18f	-0.032151755
61	0x3dec7b9e	0.115470156
62	0x3c9e4f38	0.019324884
63	0x3e5dee06	0.2167283

network_body.linear_encoder.seq_layers.0.weight f4 [64, 13]
0	0xbea40c8e	-0.32040828
1	0x3c54f707	0.012998349
2	0xbd592122	-0.053010114
3	0x3f236aa2	0.63834584
4	0xbf125775	-0.571647
5	0xbe777579	-0.24165906
6	0x3eb27262	0.34852892
7	0xbee6f28e	-0.4510693
8	0x3e8c0ef7	0.27355167
9	0xbe5787f1	-0.21047951
10	0x3e29c20f	0.16577934
11	0x3e03337f	0.12812613
12	0xbf0913cf	-0.5354585
13	0x3ee825b0	0.45341253
14	0x3ca50c27	0.020147396
15	0xbe56ae9b	-0.20965044
16	0x3efb9235	0.49134985
17	0xbea98525	-0.33109394
18	0xbf250efa	-0.6447598
19	0xbf111922	-0.56678975
20	0x3f3296e9	0.6976152
21	0x3ea93289	0.33046368
22	0x3f45b398	0.77227163
23	0x3eecb1df	0.46229455
24	0x3edec672	0.43510777
25	0x3e76e176	0.24109444
26	0x3ea1c268	0.31593633
27	0xbf26bb6b	-0.6512973
28	0x3ed100f2	0.40821034
29	0x3c1de331	0.009636686
30	0x3e2dee07	0.16985331
31	0x3f10754a	0.5642897
32	0xbe134b29	-0.1438414
33	0x3d932ff8	0.07186884
34	0xbd72c503	-0.059269916
35	0x3e67d1f4	0.22638685
36	0x3f478d74	0.77950215
37	0x3ee62674	0.44951212
38	0xbd98d9cb	-0.07463416
39	0xbdd4b401	-0.103858955
40	0x3ec7951b	0.38980946
41	0xbe12db33	-0.1434143
42	0x3e827d79	0.25486353
43	0xbf008374	-0.5020058
44	0xbe88fc53	-0.26755008
45	0xbee49c38	-0.44650435
46	0xbec97683	-0.3934823
47	0xbe54184c	-0.20712394
48	0x3de1ae01	0.11019517
49	0xbd847839	-0.06468243
50	0x3d437fb4	0.04772921
51	0x3f0caa8b	0.5494773
52	0xbecdde59	-0.402087
53	0xbd215461	-0.03938711
54	0xbdd1279b	-0.10212632
55	0x3ed64fc7	0.4185774
56	0xbe13d978	-0.14438426
57	0xbf71e51c	-0.9449022
58	0xbf09d0bf	-0.53834146
59	0xbe86211a	-0.2619713
60	0xbec21a8a	-0.37910873
61	0xbc122ac9	-0.008921334
62	0xbe696127	-0.22790967
63	0x3d1df6da	0.038565494
64	0x3e0e320c	0.13886279
65	0x3e98c200	0.2983551
66	0x3e2b080c	0.16702288
67	0x3da45647	0.080242686
68	0x3c12219f	0.008919149
69	0xbf3021b8	-0.6880145
70	0xbe99587d	-0.29950324
71	0x3e512a4b	0.2042629
72	0x3ecfe132	0.40601498
73	0x3f37d43e	0.7180823
74	0xbe42662f	-0.18984292
75	0x3e4f49dd	0.2024302
76	0xbdfa39d7	-0.12218063
77	0x3eaad549	0.3336585
78	0xbe17c99a	-0.14822999
79	0x3c8d3370	0.017236441
80	0xbebb3687	-0.3656504
81	0xbe213a63	-0.15744929
82	0x3f7acdd5	0.97970325
83	0xbe1500f8	-0.14551151
84	0xbf28b252	-0.65897095
85	0x3d013dea	0.031553186
86	0x3ddebc51	0.10875762
87	0x3ec14d1e	0.37754148
88	0x3ea03c4b	0.31296
89	0x3f3030b7	0.6882433
90	0xbe5ab861	-0.21359397
91	0x3ecf3577	0.40470478
92	0x3eea0f08	0.45714593
93	0xbe9d23e9	-0.3069146
94	0xbe8fe4ab	-0.28104147
95	0xbefff6e3	-0.49993047
96	0xbea7d734	-0.32781374
97	0xbe34e550	-0.17665601
98	0x3f13a0e1	0.57667357
99	0x3e432e25	0.19060571
100	0x3eae7990	0.3407712
101	0x3e0aa52d	0.13539572
102	0x3d9a625d	0.075382926
103	0x3e57720c	0.21039599
104	0xbdd32cfb	-0.10311314
105	0x3db50839	0.08839459
106	0x3de3c346	0.1112123
107	0x3f08e9d2	0.5348178
108	0xbe3a657c	-0.18202776
109	0xbdf4d786	-0.1195517
110	0xbec22f86	-0.37926883
111	0x3f3b8e49	0.73263985
112	0x3cdfb075	0.027305821
113	0x3e991781	0.29900745
114	0xbdbd153a	-0.09232564
115	0xbe2c4158	-0.16821802
116	0xbe74e113	-0.23913984
117	0x3dc85c5d	0.09783242
118	0xbefdaab1	-0.4954429
119	0x3dfd3826	0.12364225
120	0xbf2dc618	-0.6788039
121	0xbe562844	-0.20913798
122	0x3e66e965	0.2254997
123	0x3e07459d	0.13210149
124	0x3e0a6ffb	0.1351928
125	0xbe5a8fa8	-0.21343863
126	0xbe938746	-0.28814143
127	0xbe90d684	-0.28288662
128	0xbe2b14d4	-0.16707164
129	0xbeb37217	-0.3504798
130	0x3c502325	0.012703692
131	0x3e8c4c78	0.2740209
132	0xbe72dde3	-0.23717456
133	0xbefd972d	-0.495294
134	0xbd418575	-0.047246415
135	0xbe1bc407	-0.15211497
136	0x3e121f5c	0.14269775
137	0xbe870e96	-0.26378316
138	0x3de9ea2d	0.114216186
139	0xbe8d81fd	-0.27638236
140	0x3d6c0012	0.057617255
141	0x3d8b98ab	0.068162285
142	0xbeeb441a	-0.45950395
143	0xbe1e8421	-0.1548009
144	0x3b19e141	0.002348021
145	0xbe788712	-0.24270275
146	0x3f43c3f7	0.76470894
147	0x3efc1b4b	0.49239573
148	0xbdd9fa5a	-0.10643454
149	0xbea5f684	-0.3241464
150	0xbe703206	-0.23456582
151	0x3e28ba5e	0.16477343
152	0xbf287744	-0.65806985
153	0x3db91ca0	0.09038663
154	0xbe83bf99	-0.25732115
155	0xbe94cc73	-0.29062232
156	0x3e6f5499	0.23372115
157	0x3f03c870	0.5147772
158	0xbe80b957	-0.25141403
159	0xbe8f4912	-0.27985436
160	0x3ed2f5c4	0.4120313
161	0x3ceeadfc	0.029135697
162	0xbd9087a1	-0.07057119
163	0x3ea24a61	0.31697372
164	0xbe851351	-0.259913
165	0xbdbce368	-0.09223062
166	0xbe98738a	-0.2977565
167	0xbf0f553e	-0.55989444
168	0x3db76f1e	0.08956741
169	0xbd3f9d61	-0.046780948
170	0x3ecef8ec	0.40424287
171	0x3eee9b9b	0.46603093
172	0x3dcc0910	0.09962666
173	0xbe2842c9	-0.16431727
174	0x3e62fb40	0.22166157
175	0x3d05e731	0.032691184
176	0x3e05bc5a	0.13060132
177	0xbeb3d8da	-0.35126382
178	0x3e8d11e3	0.2755271
179	0x3eacd0b1	0.3375297
180	0xbc2d251e	-0.010567931
181	0x3d6d28c3	0.0579002
182	0xbe45a92e	-0.19302818
183	0xbd8268f7	-0.06367677
184	0x3e997525	0.29972187
185	0x3e977f1a	0.29589158
186	0x3e592eb5	0.21209224
187	0x3f970369	1.1797916
188	0xbf40ec74	-0.753608
189	0xbecaccab	-0.39609274
190	0xbdf97e00	-0.12182236
191	0xbd28bc70	-0.041195333
192	0xbe7ba5e3	-0.24575
193	0xbd4039fb	-0.046930294
194	0x3ded7370	0.115942836
195	0x3d565abc	0.052332625
196	0xbe3d836c	-0.18507165
197	0x3dedfcb1	0.11620463
198	0x3d8ece8a	0.06972988
199	0x3e8da0a7	0.2766163
200	0x3f888b7d	1.0667568
201	0xbd8f7488	-0.070046484
202	0x3eff6d72	0.49888188
203	0xbeb10c77	-0.34579822
204	0xbd65c171	-0.056092683
205	0x3e73c75e	0.23806521
206	0xbea8fa31	-0.3300338
207	0x3ded45af	0.11585557
208	0xbedd8194	-0.43262923
209	0xbf038f9c	-0.51391006
210	0xbe09a157	-0.13440453
211	0x3e680007	0.2265626
212	0xbf14bc61	-0.58099943
213	0x3e92e954	0.2869364
214	0xbf19bb31	-0.60051256
215	0xbda02fdb	-0.07821628
216	0xbd50e878	-0.05100295
217	0x3e1ab6f9	0.15108861
218	0xbe80e5f5	-0.25175443
219	0x3e819248	0.25306916
220	0x3e2193ad	0.1577899
221	0x3cb89144	0.022530206
222	0xbe9e0e49	-0.30870274
223	0xbe5573f2	-0.20845011
224	0x3eb33053	0.34997806
225	0x3e834ac5	0.25642982
226	0x3e0d04d0	0.13771367
227	0xbe5efd48	-0.21776307
228	0xbe60a54b	-0.21938054
229	0x3e921e46	0.28538722
230	0x3f0ae01d	0.5424822
231	0x3ed1f666	0.410083
232	0x3ee559b1	0.44794992
233	0xbef98bc4	-0.48739445
234	0x3d1b0a58	0.03785166
235	0xbea3d2a6	-0.3199665
236	0x3ead32c6	0.338278
237	0xbeaac47e	-0.33353037
238	0xbf3a8721	-0.7286244
239	0x3e1c5330	0.15266109
240	0x3f1f335c	0.62187743
241	0xbc89691e	-0.016773757
242	0xbe750c3f	-0.23930453
243	0x3d9496a7	0.07255297
244	0xbd7e61b2	-0.06210489
245	0x3f1ce137	0.6128115
246	0x3e4a16f8	0.19735324
247	0x3cf2d5f8	0.029643044
248	0x3f11d89e	0.56971157
249	0xbe89f84b	-0.26947245
250	0xbd174d7f	-0.03693914
251	0xbd1cf574	-0.03832002
252	0xbded2734	-0.11579743
253	0x3d9149e9	0.07094175
254	0x3f29f554	0.66389966
255	0xbe720a4b	-0.23636739

network_body.linear_encoder.seq_layers.2.bias f4 [64]
0	0x3d4d6553	0.05014546
1	0xbd9d4aff	-0.0768032
2	0x3cbb3d63	0.02285642
3	0xbbd2d452	-0.006434002
4	0x3e053e0c	0.1301195
5	0x3ba6ffd8	0.005096417
6	0x3bc1ea6d	0.0059178383
7	0x3d8fe560	0.07026172
8	0x3cf34b84	0.029699095
9	0x3dbc9027	0.092071824
10	0x3d8f16b7	0.069867544
11	0x3d77c891	0.06049401
12	0x3ce8eafa	0.028432358
13	0x3d784a9a	0.06061802
14	0x3e35769c	0.17721027
15	0x3df4aee7	0.119474225
16	0x3e6e081f	0.23245285
17	0xbbf595e7	-0.0074946764
18	0x3d9d273d	0.076735
19	0xbd6ed75b	-0.058310848
20	0x3dce79f1	0.10081852
21	0xbdac8eb2	-0.084256545
22	0xbd846b9a	-0.06465836
23	0xbb9b48a7	-0.0047388854
24	0xbcf94b94	-0.030431546
25	0x3d4b1a92	0.049585886
26	0xbb713576	-0.0036805547
27	0xbc8e2439	-0.017351257
28	0xbca8cb3c	-0.020604722
29	0x3db2c20b	0.08728417
30	0x3cf5e565	0.03001661
31	0x3c739b52	0.014868574
32	0x3c9a90e2	0.018867914
33	0x3d2c553d	0.042073477
34	0xbcc7b86a	-0.024379928
35	0x3d64c6e0	0.055853724
36	0x3e144aef	0.1448171
37	0x3d045f63	0.03231753
38	0x3c027cc6	0.007964319
39	0xbe187a90	-0.14890504
40	0x3dcaa670	0.09895027
41	0x3e1b3ff6	0.15161118
42	0xbd98e837	-0.074661665
43	0x3cd34901	0.025791647
44	0x3e2ab1dc	0.1666941
45	0x3db62298	0.08893317
46	0x3dba4f03	0.090971015
47	0xbca8e2fb	-0.020616045
48	0x3d2d1931	0.042260353
49	0x3d97f7c8	0.074203074
50	0x3d8b5b95	0.06804577
51	0x3d537d6b	0.05163328
52	0x3db84f0e	0.089994535
53	0xbe0550ee	-0.13019153
54	0xbd9c3acf	-0.07628404
55	0x3d43977f	0.0477519
56	0x3dd01aa1	0.10161329
57	0x3e374dbd	0.17900749
58	0xbd111e9a	-0.035429575
59	0x3d1c4b81	0.038157944
60	0xbd224938	-0.039620608
61	0x3d1aa612	0.037756033
62	0xbbb3d109	-0.0054875654
63	0x3c5bcc8b	0.013415466

network_body.linear_encoder.seq_layers.2.weight f4 [64, 64]
0	0x3cdd0da7	0.026984049
1	0x3dd99d16	0.10625665
2	0xbe5b700c	-0.21429461
3	0xbd972a43	-0.07381108
4	0xbcbcfda1	-0.023070158
5	0x3e43b168	0.19110644
6	0xbde7f674	-0.11326304
7	0x3e138b08	0.14408505
8	0xbe1ac365	-0.151136
9	0xbc9b8696	-0.018985074
10	0xbe633971	-0.22189881
11	0xbd760a72	-0.060068555
12	0xbe6d511e	-0.23175475
13	0xbd64f97b	-0.055901986
14	0x3e30cb5c	0.17265075
15	0xbda58539	-0.08082051
16	0x3e1010b0	0.14068866
17	0x3da430ff	0.08017158
18	0x3e5775fc	0.21041101
19	0xbe16e348	-0.14735138
20	0x3e0c571a	0.13705102
21	0x3dc217cd	0.09477196
22	0x3e5bc548	0.21461976
23	0xbdb52cd8	-0.08846444
24	0x3e99316b	0.29920515
25	0x3df346ca	0.11878736
26	0xbe0b87b8	-0.13625991
27	0x3d385e26	0.045011662
28	0xbd40f49e	-0.047108285
29	0x3e3e46cb	0.18581693
30	0xbeabd1c3	-0.33558473
31	0xbcc2c0ac	-0.023773514
32	0x3e4d6e08	0.20061505
33	0xbdb3552e	-0.08756481
34	0xbdda31cf	-0.106540315
35	0xbdbbca9d	-0.09169505
36	0x3d96d641	0.073650844
37	0x3e5a6392	0.21327046
38	0xbda39bff	-0.07988738
39	0x3da9b57c	0.082865685
40	0xbd70056c	-0.05859892
41	0x3c7cbf05	0.015426402
42	0x3e596cf6	0.21232972
43	0x3e3bb488	0.18330586
44	0xbc9226ea	-0.017840821
45	0x3ce1d531	0.027567478
46	0xbea6bffe	-0.32568353
47	0xbe862920	-0.2620325
48	0xbe3f7484	-0.18696791
49	0xbd780803	-0.060554516
50	0x3dd782db	0.105230056
51	0x3e5a5f74	0.21325475
52	0xbe06ba18	-0.13156927
53	0x3e4a9120	0.19781923
54	0x3e9bd15f	0.30433175
55	0xbe5dc8cd	-0.2165863
56	0x3cad3e81	0.021147968
57	0x3e174317	0.14771686
58	0xbe3e0147	-0.18555175
59	0x3e19dec4	0.15026385
60	0xbe7242c6	-0.23658285
61	0xbda90441	-0.082527645
62	0xbdc62692	-0.096753255
63	0xbe98b89d	-0.2982835
64	0xbd13cff6	-0.036087
65	0xbe497928	-0.19675124
66	0xbdb673ab	-0.08908781
67	0xbda8fd15	-0.082513966
68	0x3de3a19d	0.1111481
69	0xbd9b6369	-0.0758732
70	0x3e49216c	0.19641656
71	0xbd9f1529	-0.07767708
72	0x3dd03f3e	0.101683125
73	0xbd133b51	-0.03594524
74	0xbdbccedb	-0.09219142
75	0xbeaba662	-0.33525378
76	0xbe3b7852	-0.18307617
77	0xbd86a158	-0.06573743
78	0xbe93c298	-0.288594
79	0xbe14f9f3	-0.14548473
80	0x3d446390	0.047946513
81	0x3d1a3276	0.03764578
82	0x3cbcc384	0.023042448
83	0xbe01616d	-0.12634821
84	0xbe83c5c7	-0.2573683
85	0x3d87c84c	0.066300005
86	0xbe52aa38	-0.20572746
87	0xbe59fb71	-0.21287324
88	0xbe7141ca	-0.23560253
89	0xbdd586bc	-0.10426089
90	0xbe52aa9f	-0.205729
91	0xbe98c84b	-0.2984031
92	0x3d8c8db7	0.068629675
93	0xbd61621b	-0.0550252
94	0xbd884798	-0.066542804
95	0xbe4c3c93	-0.19944982
96	0x3d4239d3	0.047418427
97	0x3e32c8a8	0.17459357
98	0xbdb930e4	-0.09042528
99	0x3e079322	0.1323972
100	0xbcea25cc	-0.028582476
101	0xbcc16a74	-0.023610331
102	0x3d00d448	0.031452447
103	0xbd4767f0	-0.048683107
104	0x3c9f9730	0.019481272
105	0xbe9b26fc	-0.3030318
106	0xbe7d12a9	-0.2471415
107	0xbdd5153c	-0.10404441
108	0x3d97c4a7	0.07410555
109	0x3e75621a	0.23963204
110	0x3e15b91b	0.14621393
111	0x3e92fb0a	0.28707153
112	0xbe780b4e	-0.24223062
113	0xbda1248e	-0.078683004
114	0x3e88cdec	0.26719606
115	0xbddc4a5d	-0.10756371
116	0xbc0875c8	-0.0083288625
117	0xbd0b61b0	-0.03402871
118	0xbdc0706a	-0.09396441
119	0xbd5fd9c1	-0.054651026
120	0x3c5d34a3	0.013501319
121	0xbdb2f28e	-0.0873767
122	0xbd1e55fd	-0.038656224
123	0x3ca60e2b	0.020270428
124	0x3d6d0cb0	0.057873428
125	0xbdd64ceb	-0.1046389
126	0x3dc17798	0.09446639
127	0x3bc417d9	0.005984288
128	0x3db3390f	0.087511174
129	0xbecd87f0	-0.40142775
130	0x3e81b6d3	0.25334796
131	0xbe3aabfa	-0.18229666
132	0xbe892000	-0.26782227
133	0x3dffb0d3	0.124848984
134	0xbdda07ce	-0.1064602
135	0x3e12f852	0.14352539
136	0xbc5353ef	-0.012898429
137	0x3d9cc9c1	0.07655669
138	0xbd69d62e	-0.057089023
139	0xbe019e97	-0.12658153
140	0xbe8d9a12	-0.2765661
141	0x3c3638f4	0.011121977
142	0x3d9de400	0.07709503
143	0xbe6114dd	-0.21980615
144	0x3cb1b690	0.021693498
145	0xbe7be65d	-0.24599595
146	0x3ed65889	0.41864422
147	0xbd1e0355	-0.038577396
148	0xbddae43a	-0.10688062
149	0x3ed89188	0.42298532
150	0xbe2ebd21	-0.17064334
151	0x3c7d1c5e	0.015448658
152	0xbebdc8ae	-0.3706717
153	0x3e7097ed	0.23495455
154	0xbd7cac7c	-0.06168793
155	0x3d809e36	0.06280176
156	0xbdfbb5d3	-0.122905396
157	0x3e7f78ad	0.24948378
158	0x3e08958a	0.13338295
159	0xbd4c6403	-0.049900066
160	0x3dbca1bd	0.09210537
161	0xbc8c26f5	-0.01710842
162	0xbc2b22d2	-0.0104453135
163	0x3e5717a0	0.21005106
164	0x3d1b67bf	0.037940737
165	0xbdfce8c5	-0.12349085
166	0xbe0bc952	-0.13651016
167	0x3e1b8e03	0.15190892
168	0x3d5d4e53	0.054029774
169	0x3c2bebc9	0.010493227
170	0xbc3af194	-0.011410136
171	0x3cda5db8	0.026656017
172	0xbeecf705	-0.4628221
173	0x3e001732	0.12508848
174	0x3caa85ed	0.020815814
175	0x3eb5c07b	0.35498413
176	0x3e2bf1bf	0.16791438
177	0x3d99ff95	0.075194515
178	0xbe741149	-0.23834719
179	0x3e42faa6	0.19040927
180	0x3e7ed85b	0.2488722
181	0x3d3e446b	0.046451967
182	0x3d35fdb2	0.044431396
183	0xbde5aa2a	-0.11214097
184	0xbdad24d4	-0.0845429
185	0xbbf90210	-0.007599123
186	0x3d02bc8c	0.031918094
187	0xbd271837	-0.040794577
188	0xbd17633a	-0.036959864
189	0x3ef26dcd	0.47349396
190	0xbe2cf5d7	-0.16890655
191	0xbdf96ae2	-0.121785894
192	0x3e35c88e	0.17752287
193	0xbceef22e	-0.029168215
194	0xbedd8dba	-0.4327219
195	0x3ea3db2c	0.32003152
196	0xbdbcd17b	-0.09219643
197	0xbc6c759f	-0.01443234
198	0xbe9e146e	-0.30874962
199	0x3e04ffbb	0.12988178
200	0xbe5935fb	-0.21211998
201	0xbeb4fa75	-0.35347334
202	0x3e40e043	0.18835549
203	0xbdc35acc	-0.095388025
204	0xbd9299bd	-0.071582295
205	0xbe912401	-0.2834778
206	0xbd9be888	-0.07612711
207	0xbe4d9b80	-0.2007885
208	0x3d8540a3	0.06506469
209	0xbdb1594c	-0.0865961
210	0x3dfc00d7	0.12304848
211	0xbe9adae5	-0.30245128
212	0xbf245bf1	-0.6420279
213	0x3e1b6b1b	0.15177576
214	0xbeb003be	-0.34377855
215	0xbc920152	-0.017822895
216	0xbda005f4	-0.078136355
217	0x3e0246c6	0.1272231
218	0xbdf13589	-0.11777789
219	0xbe9a5c87	-0.30148718
220	0xbe2767ca	-0.16348186
221	0xbe0bca9d	-0.1365151
222	0xbe778a2c	-0.24173802
223	0xbe00e935	-0.12588961
224	0xbb1527fc	-0.0022759428
225	0xbe1dd17a	-0.1541194
226	0xbdf66304	-0.120306045
227	0x3d2e1493	0.04250009
228	0xbea3afc9	-0.3197005
229	0x3d6d0646	0.05786731
230	0x3d10afae	0.03532379
231	0x3d289c7f	0.04116487
232	0xbd1592a6	-0.036516808
233	0x3e0d55bd	0.13802238
234	0xbd84c644	-0.06483129
235	0xbd4d1fa1	-0.05007899
236	0xbdee0981	-0.116229065
237	0x3d4e905d	0.050430644
238	0xbd501f9c	-0.050811395
239	0xbea82418	-0.32840037
240	0xbd71e21e	-0.059053533
241	0x3dba134c	0.09085712
242	0xbe29adff	-0.1657028
243	0xbdd6cc95	-0.1048824
244	0x3e969c2d	0.29416028
245	0x3e4383cc	0.19093245
246	0xbe13f3b5	-0.14448436
247	0xbeb26c5c	-0.34848297
248	0x3ec8001a	0.39062577
249	0xbd9bf8e1	-0.07615829
250	0x3e802130	0.2502532
251	0xbe5cee5c	-0.21575302
252	0x3d1a194c	0.03762178
253	0x3e144a9f	0.1448159
254	0x3e463e3c	0.19359678
255	0xbe35ddf4	-0.1776045

network_body.vector_processors.0.normalizer.running_mean f4 [13]
0	0xc0eb6f12	-7.3573084
1	0x41aaec01	21.365236
2	0xc074a36a	-3.822474
3	0xbdc17eed	-0.09448037
4	0xbc8d2b12	-0.017232452
5	0x3c679766	0.014135217
6	0x3c49f590	0.012326613
7	0xc10d98ad	-8.849774
8	0x3fd13655	1.6344706
9	0x410ee10f	8.929946
10	0xbfc45add	-1.5340229
11	0x40272a8e	2.6119723
12	0x403da977	2.9634683
