Assets/ML-Agents/Brains/ConstantAir.onnx (onnx, 23839 bytes, 9 tensors)

62 f4 [13]
00000000: 258a 9341 4402 d640 5d67 8941 50c7 fd3e
00000010: 9f81 ef3e 037f 053f 371b fe3e 198c b240
00000020: 9ff5 ad40 c89e c740 35b0 da3f a12c 5f3f
00000030: 5c19 0140
18.442453 6.6877766 17.17547 0.49566126 0.4677858 0.5214693 0.49630138 5.579602
5.436233 6.2381325 1.7085024 0.87177473 2.0171728

action_model._continuous_distribution.log_sigma f4 [1, 4]
00000000: 3cac 36bf ce6d 11bf 664e 2abf 0cea 4bbf
-0.7135656 -0.56808174 -0.66525877 -0.79654

action_model._continuous_distribution.mu.bias f4 [4]
00000000: f70b deb7 7ab4 d43c be99 213e 187b 72bd
-2.6470034e-05 0.025964964 0.15781304 -0.059199423

action_model._continuous_distribution.mu.weight f4 [4, 64]
00000000: a41d a83d 7407 4b3b 06e8 c5bd d0a8 713c
00000010: 8447 f4bd e364 bb3d 2fc7 41be 7750 81be
00000020: 550e e83d 628f a3bc cdb1 35be 6eb5 9fbd
00000030: 683b 193b a333 703d a23b a1be b33e d9bd
00000040: 8881 07bc 6fa7 c1bc e43c 86bd 4ecd 8aba
00000050: c6c9 69bc d186 adbb 55bc dc3c 750e cc3d
00000060: 8074 aa3d d707 75bd 1da7 a5bd a555 c03c
00000070: 8106 883d 87b8 cdbb 605d e03c 2f64 a0bb
00000080: a090 d9bb d952 493d 172d 0ebd 475e ffbc
00000090: 3ed5 273d a791 45be 31ec 32ba e77e 903d
000000a0: 26b0 a9bd 0744 613d 0daf aabe a757 a93e
000000b0: 46a9 883e 9c68 813c 956e 223d 6e35 4f3d
000000c0: 01b0 593e eb8c 2f3c 8579 e03c 7400 9dbd
000000d0: 6afd 86bd 3d96 a53e 945f e63d c377 efbe
000000e0: 27ed 80bd 77e2 163e 3a23 643e c8b8 5fbd
000000f0: b23a 4fbd 13c2 1a3b 3ab4 0bbc 48fa 843e
00000100: 340c 123e dadc f0bb 0d42 82be b322 61bd
00000110: ad6d 1d3e 1869 133d 206c a7bc 5940 5bbc
00000120: f241 9dbd 1e38 33bd 2cda 32bc eb68 9fbd
00000130: b60c ab3d 2d25 ec3c 8c4d 963e 1659 483e
00000140: 7ff6 40bd 4100 993c 133d 483d 0215 9a3d
00000150: a634 8b3b d677 e9bc eda1 883d 41cc b63c
00000160: 3908 70be 7260 623d 5758 31bc 9957 e1bd
00000170: 97af 3cbe 757f 3f3d f254 2abe cfdc 3bbd
00000180: 2e77 853d 5d54 cebc 6319 b5bd dc6c 89be
00000190: 4018 aebc 036c e13d b3f9 18bd 9b56 803c
000001a0: 0e3e 783d a7f0 23bb 79f0 203e 5a40 82be
000001b0: 2eeb 46bd f7a4 b63d 0af7 69be 33cd 90bd
000001c0: 0295 6abe 8bae 1abe 75cc d7bc d9ce 353d
000001d0: 40dd 373d 21bc 083d d32c 3cbe 7888 b3bd
000001e0: 2314 bebd a8ee 6dbb 722c a93d 44ab aabd
000001f0: d3f8 a53d bb85 993b 35cb 823c 7fc5 05be
00000200: 4044 953d e79f b63d a0c3 a7bd ff4b 26be
00000210: 80fb aa3d e3f6 493d 5eda 753c f2ec b03d
00000220: b237 6fbd d759 4f3d 6ee1 abbd 602b 953d
00000230: 62e6 e3bb 4c71 333d a71c bebc caed c63c
00000240: fadd d6bd dede 8d3d e8b5 993d eed9 993d
00000250: 4398 093e b3d6 0bbe 3b01 f63d 3ca3 01be
00000260: 72ec 143d 0fa1 db3d a865 013e 5c1e a03d
00000270: 0c5d 883a bb6e 0e3e 3ba1 44bd 089a ce3d
00000280: f118 073e a5d5 44be 32e2 643d 9f44 9dbc
00000290: f44a e33d 7b39 6ebd 8ed7 813d a2e5 fc3d
000002a0: 622d 343d e149 103b ee86 0dbd aa03 03be
000002b0: 018a 253d d1e7 923b 1d4b acbd 09bd 723d
000002c0: 0dcc 853c 5672 623c 68ca b23d 7708 013e
000002d0: a3e1 c93d 22fa 1f3d 3be2 b7bd a32e c4bd
000002e0: a690 b53d 040f d13d 394f cc3d 7025 e0bb
000002f0: 7880 34be 2246 ad3d 7f43 d63d 7682 51bc
00000300: a984 4bbd 5854 05be e730 5abd 5da0 62bd
00000310: abbb 403d f246 c5bc 57ef ab3c c58a 95bd
00000320: 32ea 16bd ad68 8b3d 3fdd b7bd 3a7f 2d3e
00000330: c635 67be d3ab 853c 13ad de3d 5b1c cc3d
00000340: 5580 ba3d 870c ef3a 10cb 253e 8c8c cdbd
00000350: 61b6 66bd ba25 a8bc 3706 343e c85c db3d
00000360: 0d54 efbd bf01 803c de98 0dbe 7ac4 733d
00000370: 44f3 b1bd 407b c2bd 12c9 d8bc 9690 55bd
00000380: 800c b4bd de87 c13d de3b 013e c7e7 5bbd
00000390: 02b9 513d bf46 373e c6e6 d9bb 4408 e33d
000003a0: 6e49 053e 8fa2 4e3e 870d 21be 983d 013d
000003b0: 928c 3dbb e850 a43d 7639 80bd 063b 80bd
000003c0: 3cb2 053c e861 24bd c19f 963d 86b1 b8bd
000003d0: 44cb 093e e016 9bbc 620a 7f3e e055 b33c
000003e0: 8d58 9c3c fb86 56bd 0925 b2bd ad7a eebd
000003f0: edf4 13be 8dbc 28bd 28f3 f5bd 9bf3 02bd
0.082087785 0.0030979784 -0.096633956 0.014749721 -0.11927703 0.09150102 -0.18923639 -0.25256702
0.113308586 -0.019965831 -0.17743607 -0.07798277 0.0023381356 0.058642995 -0.3149081 -0.10607662
-0.008270629 -0.023639409 -0.06554583 -0.001058975 -0.014269298 -0.0052956124 0.026945272 0.09963695
0.08323002 -0.05982193 -0.08088515 0.023478338 0.066418655 -0.006278101 0.027388275 -0.0048947553
-0.006639555 0.049151275 -0.03471097 -0.031172885 0.040974848 -0.19293843 -0.00068253564 0.07055455
-0.08285551 0.054996517 -0.33336678 0.33074686 0.26691645 0.015796952 0.03965624 0.050588064
0.21258546 0.01071475 0.027401695 -0.07666102 -0.06591304 0.32341185 0.11248699 -0.46771058
-0.06295233 0.14734827 0.22279063 -0.05461958 -0.050593086 0.0023614212 -0.008526856 0.259722
0.14262468 -0.0073505463 -0.25441018 -0.054964732 0.15373869 0.035988897 -0.0204373 -0.013382041
-0.07678594 -0.04375469 -0.010916274 -0.077836834 0.08352034 0.02882632 0.2935604 0.19565234
-0.047110077 0.018676879 0.04888637 0.07523538 0.0042482195 -0.028499525 0.0667151 0.022314193
-0.23440637 0.05526776 -0.0108242845 -0.11003036 -0.18426357 0.046752412 -0.16633967 -0.045864876
0.06516872 -0.025186712 -0.08842733 -0.26840866 -0.021251798 0.1100693 -0.037347507 0.015666297
0.060606055 -0.0025015266 0.15716733 -0.2543972 -0.04856413 0.08918183 -0.22848144 -0.07070389
-0.22908404 -0.15105645 -0.02634261 0.04438672 0.044888735 0.03338254 -0.18376474 -0.08766264
-0.092811845 -0.003630558 0.082604304 -0.083334476 0.081041 0.0046851314 0.015966037 -0.1306362
0.07288408 0.08917218 -0.081916094 -0.16239928 0.08348751 0.049307715 0.015005676 0.08638944
-0.058402725 0.050622787 -0.08392607 0.07283664 -0.006954954 0.04380922 -0.023207022 0.024283309
-0.104915574 0.06927274 0.07505399 0.0751227 0.1343699 -0.1365612 0.120119534 -0.12659925
0.036358304 0.10724079 0.12636435 0.078182906 0.0010403707 0.13909428 -0.048005324 0.10087973
0.13193108 -0.19222124 0.05587978 -0.01919776 0.110982805 -0.058160286 0.06339942 0.123484865
0.043988593 0.0022016692 -0.034552507 -0.12794366 0.040414814 0.004483201 -0.08412764 0.05926231
0.01633265 0.013821205 0.08730012 0.12600885 0.0985749 0.039056905 -0.08978697 -0.09579208
0.0886548 0.10207942 0.09976048 -0.0068404004 -0.17627132 0.084606424 0.104620926 -0.012787452
-0.04968706 -0.13020456 -0.053269293 -0.055328716 0.047053974 -0.02408168 0.02098815 -0.07301859
-0.03684444 0.06807075 -0.08977746 0.16943064 -0.22579107 0.016317284 0.10872855 0.09966346
0.09106509 0.0018237986 0.16190743 -0.10036573 -0.056326274 -0.020525802 0.17580496 0.10711056
-0.11685953 0.015625833 -0.13827845 0.059513547 -0.08688977 -0.09496164 -0.026463065 -0.05213984
-0.08791447 0.09449743 0.12620494 -0.053687837 0.051201828 0.17898081 -0.006649825 0.11085561
0.13016292 0.20179199 -0.15727817 0.03155288 -0.0028922898 0.08023244 -0.0626096 -0.06261258
0.00816017 -0.040132433 0.073546894 -0.09018235 0.13456446 -0.018931806 0.24906304 0.021891534
0.019085193 -0.05237482 -0.0869847 -0.11644492 -0.144489 -0.04119544 -0.12009269 -0.0319706

network_body.linear_encoder.seq_layers.0.bias f4 [64]
00000000: 0f2b 563e ed5b 433e 3a49 3c3e 5ff3 a83d
00000010: 37d7 6c3d 05a8 913e 2dc0 263e 1e3e 213e
00000020: a67a 343e 98a0 cb3d 84d0 323e 9cd5 99bd
00000030: fbf0 8ebd 41b2 ac3d 01b0 5a3e c9b4 553d
00000040: f67a fc3d 07b5 843e ba96 a33d 2cdb c73d
00000050: 96f4 c03a 59ef d4bd fe05 8d3d fd0d d53d
00000060: 1f91 f23d 1c6d 803d 6735 2f3e ee38 ed3d
00000070: 35bf 4b3e 709a 2a3d db24 873e 4df6 3fbd
00000080: dbe6 4e3e c49c aa3d 4e7f e23d deeb f43d
00000090: a63b 563e 4e95 243e e13f c73c d7e8 c3bd
000000a0: a02b ce3d ec2e f13d 4e09 2f3e 3d68 2dbd
000000b0: f3c0 353e 3dcd 113e d5f1 0abd 4d4a 243e
000000c0: 6cd8 843e 5b7c 493e 84f6 413e e1d5 a93d
000000d0: 1be5 013e b75b 683e f6ec 203e dd70 653e
000000e0: 5ff5 443e 3c92 703e 02a8 c73c 4a39 143e
000000f0: f9f8 3e3d 2b6f 6c3e d622 3fbd 36aa 473e
0.20914863 0.19078036 0.18387309 0.08249544 0.057822432 0.284485 0.16284247 0.15746352
0.17624912 0.0994274 0.17462355 -0.07511446 -0.06979557 0.08432437 0.21356203 0.052174363
0.123281404 0.25919363 0.07987733 0.097586006 0.001472133 -0.103972144 0.068859085 0.10403059
0.11844086 0.06270811 0.17110215 0.11583124 0.19897158 0.04165119 0.26395306 -0.04686575
0.20205252 0.08330682 0.11059438 0.119590506 0.20921192 0.1607258 0.024322452 -0.09565895
0.100669146 0.11776528 0.17093393 -0.042335737 0.17749386 0.14238448 -0.033922035 0.16043968
0.25946367 0.19676344 0.18941694 0.08292747 0.12685053 0.22691236 0.15715393 0.22406335
0.19234227 0.23493284 0.024372105 0.14474979 0.046624158 0.23089282 -0.04666408 0.19498524

network_body.linear_encoder.seq_layers.0.weight f4 [64, 13]
00000000: 6e20 c3be 7942 04be 1632 c4be bf3c 01bf
00000010: 628f 273f 83fe d63e d53a e6be 42e6 a23d
00000020: da4d 7f3d 6734 b63e 5488 debe 7b62 393e
00000030: 0a43 81bd fd3a b4bd 9d64 813e 253b 88be
00000040: 0238 f6be 1c0e 933e 46ac 0e3e 732a 2d3f
00000050: 4865 83be 4083 48be 5597 f63d 9ca6 713d
00000060: 83a0 943d d984 bf3c b609 8f3e 34da 21bd
00000070: 91b6 bc3c d8f7 eabc cc8f c1bd 1a50 4d3f
00000080: 0312 623e 5b89 7d3e 44f0 07bc 90a4 3fbc
00000090: bc88 acbc eaf5 15bd b063 84be f9d6 353e
000000a0: 5c43 24be 62e0 303d 8335 3bbe 5b3a 1ebf
000000b0: 1326 0ebf 3434 1dbe ed34 d63e 334e c1be
000000c0: 66cf 82be 7932 8fbd cb58 923d b26a 313f
000000d0: 8c12 03be 6352 ddbe 01d4 9f3f 77ae 05be
000000e0: c5e1 863e ba87 c5bd da45 123f 0d8b 23bd
000000f0: 38aa 583a a788 abbd 46cb c2bc 005c bf3e
00000100: 4582 943b 516c 9f3d 27b7 eabd 89c2 973d
00000110: 279a 9f3f 1c2a 413e f0b3 8e3e e44a b33e
00000120: aafe 09bd 49e8 7fbe 4b2a dd3e 4583 cbbe
00000130: bf12 cc3e 885c 2bbe d2d6 1e3e f3da babe
00000140: 24b5 27bf 8ba7 813e a28c 173f 8656 c8bd
00000150: 6666 d53e 9cc1 53bd a99f 9e3e 3fad 84be
00000160: fa53 693e 5017 1e3e 05d7 e3bd bfd9 6dbd
00000170: a74b a33e d97b 08bf 2137 b73e a35c a23e
00000180: 3b69 bf3e c8b6 15bf ac22 1cbe cac1 bc3e
00000190: 0fe0 80bd 012b ec3d 2f64 603e 6d1f a7be
000001a0: efea 1bbf 4747 26be 0f6e 0f3e 2746 60be
000001b0: 025e e8bd c3bf 6bbd aed4 113f 823a d7be
000001c0: 914d acbe 89fe 113f 9522 95be 0724 f63e
000001d0: cca0 8b3d 84eb 20be 07ac c63c 5366 75be
000001e0: 55fd f13e e5a9 7a3e 2ae2 023f 21c7 1cbf
000001f0: 727a 993c 3ec6 0c3f 3c5c 3fbe c5bc b1be
00000200: 06d5 babe bccc fe3d a377 243c c1a2 0abf
00000210: 68a8 4abe 56f0 d33e 3f8b 873f 5c35 5d3f
00000220: 9a08 2bbf 5a40 7fbd 4c83 aebe 559d f33e
00000230: 8ae8 c23e 5f52 623e 4a24 8ebe c60e 0b3e
00000240: c93b 8bbe 2b9d 213f 330d f53d a49d edbe
00000250: 55e8 3f3b c594 1cbf 3916 923e 72c9 d0be
00000260: 9ea9 6abd d67b 91be 7c84 8b3e 3604 e23d
00000270: 77ff 903e f5d6 eabd a7a6 d43e b1c2 5bbf
00000280: 77c3 8abe 942d cfbe 24a7 95be a036 a43e
00000290: 47d6 243f 49cb 953e b80d 7bbd a6be ddbd
000002a0: 1306 353e b365 ee3e 16c2 c13e caba c4be
000002b0: 7fba 9cbd a3ac b33d b1b5 01be 950a 16be
000002c0: 55a1 1f3e 0504 f2bd e987 54be 733c 1a3e
000002d0: 5b1f 2e3f 5721 973e e4fe e13d 2f2e 833e
000002e0: fdbe e0bd c37e ae3e a534 0abf 06fe d6be
000002f0: 7857 9bbe 86e0 4cbe 0475 02be 80ef a33d
00000300: d600 783d 4b74 d7be aece 3ebe 9fe2 2fbe
00000310: b211 9cbe 022c a6bd 17f4 1d3e a14a 4dbe
00000320: 1675 d63d d709 44be 5232 253d 347e 15be
00000330: d6e1 65bd 8011 ba3e ee35 993d 3eb9 4ebe
00000340: af08 4b3e d126 0c3f ad96 01be 95dd 643d
00000350: ae66 87be d853 61bd b5a9 fc3e de2d 083e
00000360: c0be ee3d a848 4f3e 05f3 5c3e ee63 853e
00000370: d899 9ebd a381 09bf 2b74 10bf fa4f 20be
00000380: 9f6e c8bd 5a15 023e bd64 01bf 47aa ed3e
00000390: 9f54 243f 0b68 553c b7d3 d13e 42e5 bbbe
000003a0: 0366 6cbd 7806 c73d 0ba8 49bd fab8 88be
000003b0: 0687 5f3d fb4f 85be 0901 373e 1f46 62be
000003c0: 4039 a23e fe1c 713e 8dc2 ef3e 6693 24be
000003d0: f635 b43e cbcd c8be e3dc adbe e83e 253f
000003e0: 10b0 f13d 9330 d3bd b0ea bd3e 0e9d b33d
000003f0: f01a 2ebd af23 533d 959d 173d 5b9a 9cbe
-0.3811068 -0.12915982 -0.38319463 -0.50483316 0.6545316 0.41991052 -0.4496676 0.079540744
0.062330104 0.35586855 -0.43463385 0.18103974 -0.06311615 -0.088003136 0.25272074 -0.26607624
-0.48089606 0.28721702 0.13932905 0.676429 -0.2566321 -0.19581318 0.12040583 0.05899678
0.07257178 0.023378776 0.27937096 -0.039514735 0.023036273 -0.028682634 -0.09451255 0.8020035
0.22077183 0.24759428 -0.00829703 -0.01169695 -0.021061294 -0.036611475 -0.25857306 0.17757787
-0.1604132 0.043182738 -0.18282132 -0.61807793 -0.55526847 -0.15351945 0.41837254 -0.37754974
-0.25548857 -0.06992049 0.07145842 0.6930343 -0.12800044 -0.4322692 1.2486573 -0.13054834
0.26344123 -0.096450284 0.57137835 -0.03992753 0.00082651107 -0.08375674 -0.023778569 0.37374878
0.004532131 0.077843316 -0.11460715 0.074101515 1.2468919 0.1886372 0.27871656 0.35018075
-0.033690132 -0.24990954 0.4319633 -0.39748588 0.39858052 -0.16734517 0.15511635 -0.3649517
-0.65510774 0.25323138 0.59198964 -0.09782128 0.41679686 -0.051698312 0.30981186 -0.25913426
0.22785941 0.1543858 -0.11124996 -0.058068987 0.31893656 -0.53313977 0.35784248 0.317113
0.37384972 -0.5848203 -0.15247601 0.368666 -0.06292736 0.1153164 0.21913217 -0.32641163
-0.60905355 -0.16238128 0.14006828 -0.21901761 -0.113460556 -0.057555925 0.5696515 -0.42036825
-0.33652928 0.57029015 -0.29127946 0.48074362 0.06817779 -0.15714842 0.02425195 -0.23964815
0.4726359 0.24478872 0.5112635 -0.61241347 0.018735144 0.54989994 -0.18687528 -0.34714332
-0.3649065 0.12441394 0.010038289 -0.5415459 -0.19790804 0.413943 1.058937 0.86409545
-0.6681 -0.06231723 -0.34084547 0.47580972 0.38068038 0.22101735 -0.2776206 0.13579854
-0.2719405 0.63130444 0.11965408 -0.46409333 0.0029282768 -0.61164504 0.2853258 -0.4077869
-0.057290666 -0.28414792 0.27249515 0.110359594 0.28319904 -0.11466781 0.41533396 -0.8584395
-0.27102253 -0.4046446 -0.2922908 0.32072926 0.6438946 0.29256657 -0.06129238 -0.10827379
0.17678098 0.46561965 0.37843388 -0.3842376 -0.07652759 0.08773162 -0.12666966 -0.14652474
0.15588887 -0.11817173 -0.2075497 0.15062122 0.68016595 0.29517624 0.11034945 0.25621173
-0.10973928 0.34081087 -0.5398658 -0.4199068 -0.3034017 -0.20007524 -0.1273995 0.080046654
0.060547672 -0.42080912 -0.1863353 -0.17176293 -0.3048225 -0.081138626 0.15425144 -0.20048
0.10471551 -0.19144379 0.040331192 -0.14598924 -0.056123577 0.36341476 0.074809894 -0.20187852
0.19827531 0.5474673 -0.12655134 0.05587538 -0.26445526 -0.0550116 0.49348226 0.13298747
0.116574764 0.2024256 0.2157708 0.26052803 -0.07744187 -0.53713435 -0.5642726 -0.15655509
-0.09786724 0.12703457 -0.5054434 0.46418974 0.6419162 0.013025294 0.40981838 -0.36698347
-0.057714473 0.09718031 -0.049232524 -0.26703626 0.054572128 -0.26037583 0.17871489 -0.22097062
0.31684303 0.23546216 0.46828118 -0.16071853 0.3519742 -0.39219508 -0.33957586 0.6454911
0.118011594 -0.10311999 0.37093115 0.0877019 -0.04250616 0.051547702 0.037015516 -0.30586514

network_body.linear_encoder.seq_layers.2.bias f4 [64]
00000000: 9ce6 2a3e 181b 4c3e 90cf 42bd a656 0cbe
00000010: efa9 183e 1e35 053e 8742 31bc 1eed 033e
00000020: 9848 31be 068c e73d 9b31 1abe a9b3 1b3d
00000030: 794b d83c b66d a93d ac21 efbb 63b5 a7bb
00000040: 68de 52be 6462 f33d 00bf d73d 1eaa 023e
00000050: 2170 203e cd13 16be b01e 2e3e 150a 0fbe
00000060: 640c 943d 13a0 283e 1146 153e 601a ae3d
00000070: 56f6 0c3b 5b22 2b3e 5a18 aabd adf9 d23d
00000080: 33c9 0c3e 8058 71be f15d 063d 4a7e f2bd
00000090: b59b ef3d 829e 36bd c911 c13d caf0 103e
000000a0: 4a40 b33d 0bb7 2abd b15a 4fbd 6aea b9bd
000000b0: 6d86 293e ea37 2dbd 2312 1abe 377e 1f3e
000000c0: 199c 333c 37d9 3dbe 09fc c33d d27b 4c3e
000000d0: 1e18 153e 57a3 973d 245f 34bd 1920 13be
000000e0: abdd 0b3e d80a ee3d ba6d 223e b621 a93c
000000f0: a89a 22be 9032 173e d219 293e 2202 ae3d
0.16689533 0.1993221 -0.04756123 -0.13704929 0.14908575 0.13008544 -0.010819084 0.12883422
-0.17312849 0.11306004 -0.15057985 0.038013134 0.026403176 0.08272879 -0.007297715 -0.0051180585
-0.20592654 0.11884001 0.10534477 0.12760207 0.15667774 -0.14655991 0.17003894 -0.1396869
0.07228926 0.16467313 0.1457751 0.085011244 0.0021509132 0.16712324 -0.08305426 0.10301528
0.13748626 -0.23568916 0.032804433 -0.11840494 0.11699621 -0.04458476 0.094272204 0.14154354
0.087524965 -0.04167847 -0.0506236 -0.09077914 0.16555186 -0.042289652 -0.15045981 0.15575491
0.01096251 -0.18539892 0.09569556 0.19969109 0.14559981 0.074042015 -0.044036046 -0.14367713
0.13658778 0.11623162 0.1586217 0.020645957 -0.15879309 0.14765382 0.16513756 0.084965006

network_body.linear_encoder.seq_layers.2.weight f4 [64, 64]
00000000: 9607 a03e 2a18 94bd 6a54 803c bad0 9a3d
00000010: 185c a9be 6d8d a43d eb82 c03d ad90 db3d
00000020: 8ab5 eebd 7e50 883c 4a9c 7b3e c20b 7fbd
00000030: cab9 2ebe 65a9 df3d 9e09 893e 53b3 863d
00000040: 2aca 4a3e 8a86 2dbd e157 e23d 337c 25bd
00000050: 2ea3 a23a 7fdd 0a3e c379 5d3e f31f ec3d
00000060: 7a2a 71be c77c 21be 39dc 293e 054e 9abc
00000070: 02dc e13d 9146 2cbd 8d91 ea3d 76fc e8be
00000080: e3a8 43bd 6fec b93d cbbe ccbd 0f77 b0bd
00000090: 587b 2dbd 580c a13e 4c38 abbd b3a0 ca3c
000000a0: 2fd7 f7bd bc2d a4be 635a fc3c d702 573e
000000b0: dcc8 193e f746 863d 4419 d93b 9663 2f3d
000000c0: 96cc 623e b717 fbba d860 663e 4447 f63d
000000d0: 034d d33d d2fc 7ebb ad1f 02be 5e64 1a3e
000000e0: 9d54 55be 1b7d 94bd b386 48be 29d7 58be
000000f0: 0148 533e d455 1d3e 2f80 00be 745c 1ebd
00000100: 5168 9fbe 170a 633e dc5e d0bc fadd 28be
00000110: af2a 42be b155 153e c38f 25be 205f 163e
00000120: 12eb 1abd 8040 d83d 9f7b c83d d2da 7bbe
00000130: 27db 9b3d 6ca1 e73d 3be0 b53d f07d 893c
00000140: ee5c abbb dd51 00be 4c4c 9bbd 226d 1a3e
00000150: a2ef 9f3d 0ecf 5abd 14d3 ac3d 5d6a 393d
00000160: 0ee9 82be 33b1 853d 09b3 a8bd bbaf 65bd
00000170: cab3 c03d 2e9e 2c3d 6bef f73d cf81 d83d
00000180: 22f9 c7bd 95f3 173d ddf4 833e 4bd0 7cbe
00000190: 8066 183e 85b6 9e3e ba67 123e f1c8 5ebe
000001a0: 5e73 7d3e 136e f8bd 953e 123d 6a96 adbd
000001b0: a132 21be 809f f63d ad0a 513e 49f1 c3bd
000001c0: efee d6bd f0b3 e2bd 0740 b33e 3f39 dc3c
000001d0: 4d1f 54be 9832 073e 95fe c83d 0aac 4b3e
000001e0: d747 6e3e 7b71 963e 740c bb3d 78b9 55bd
000001f0: bd1e 083d 1952 9f3e 8764 9c3c 8e75 0f3e
00000200: 400a 273e 95f4 283e f587 613e c326 8dbe
00000210: 3bc6 b73d 0c25 a23c 67b1 48be 07f3 fe3b
00000220: 4425 b13d f438 01be 90cf 1a3d c3d1 063e
00000230: bdb6 1bbe f69e d4bd 5eba f7bd eda9 843d
00000240: 5af2 34bd 356a 78be 6cf0 23be d337 32be
00000250: ebeb c83d 25bc bfbd 49e9 353e 0989 a9bd
00000260: 13d2 363e 94b1 2e3e b04d 8f3d b933 5d3d
00000270: f510 b63b f19f 4dbe ec3c 25be 3c0a 323c
00000280: bb2b 36be 4485 953d 17db 743d b136 6a3d
00000290: 1081 673e d9e3 8cbe 8c2c 6a3e 724d 10b9
000002a0: 6bf5 033e 5141 823d 3648 afbd eb28 81be
000002b0: 1e6d 77be 904b 523e fe23 62be 21d6 8dbd
000002c0: 92ff cd3c 3baa 3d3e 25f3 42bd bd33 7dbe
000002d0: bfb2 933d a924 4d3d 3396 95be 6ff6 73bd
000002e0: 5523 a13e 8e56 2e3e d4ca 95bc a3bd 7cbe
000002f0: 6f44 3cbe aebf 86bd d8a6 4bbc e9e0 82be
00000300: 0a04 83bb 9eb0 1dbe 2c97 293d e0b6 06bd
00000310: e781 793d 8718 39be 84eb 223d 7a38 3fbe
00000320: b3a1 033d 6a52 bebd 981b b8bd d30a 403e
00000330: 477c 953e c905 833c 1ac2 2ebe 6d13 f83d
00000340: 4ad5 47bd d23c 01be 7f87 a5bd 4633 f53d
00000350: f2aa 47bd 95c7 053d 5e9b 5b3e 81f5 a7bd
00000360: 6236 ae3d c425 61be caf8 943b f6f3 cd3d
00000370: 4ba1 3ebd f19e 6e3e 4f38 69bd 8329 dbbd
00000380: 68e3 e5bd 98e0 443e 6fcd 843d c089 b8bd
00000390: 763a ba3c 2ef2 36bd 841c 7f3d 449a 803d
000003a0: a93c b53d eadc 40bc 2f4d 0ebe 98a5 4cbc
000003b0: 0add a63e ba90 bebe 6fe3 ee3d 6684 8bbe
000003c0: 99ff c83d 44be 12be f9dc 81bd 8a8c e3bd
000003d0: d6e3 53bd d3a6 8fbe 27b3 cb3c ed55 aabe
000003e0: d38c 90be 62a7 2bbe cc36 ab3e fc2a 1b3d
000003f0: 89d4 0bbc 4ac1 0dbe 07c0 98bd d8f3 963c
0.31255788 -0.072311714 0.015665252 0.07559343 -0.33078074 0.08034787 0.093999706 0.10720954
-0.116557196 0.016639944 0.24571338 -0.062267072 -0.1706306 0.10920981 0.2676515 0.06577172
0.19803682 -0.042364635 0.11051918 -0.04040165 0.001240825 0.13561057 0.2162848 0.11529531
-0.2355136 -0.15770255 0.16587915 -0.01883603 0.11028291 -0.042059485 0.11453543 -0.45505112
-0.047768485 0.09078299 -0.09997328 -0.086164586 -0.042353958 0.3145473 -0.08360347 0.02473483
-0.1210159 -0.32066143 0.030804818 0.20997177 0.15018028 0.06556504 0.0066253264 0.042819582
0.22148356 -0.0019156848 0.2249788 0.120253116 0.10317423 -0.0038908017 -0.12707396 0.1507735
-0.20833059 -0.072504245 -0.19582634 -0.21175827 0.20632936 0.15364772 -0.12548898 -0.03866239
-0.31134275 0.22171818 -0.025435857 -0.16490927 -0.18961595 0.1458347 -0.16168122 0.14684725
-0.037821837 0.105591774 0.09789204 -0.24595192 0.07610159 0.11310086 0.08880659 0.016783684
-0.005229584 -0.12531228 -0.07582912 0.15080693 0.07809378 -0.05342012 0.084386975 0.04526745
-0.25568432 0.06527939 -0.08237273 -0.056075793 0.09409292 0.04214304 0.12106212 0.10571634
-0.09764315 0.037097532 0.25772753 -0.24688832 0.1488285 0.30998626 0.14297381 -0.2175634
0.2475104 -0.1213037 0.035704214 -0.08475955 -0.1574197 0.12042141 0.20414229 -0.09567506
-0.10494792 -0.110694766 0.35009786 0.026882766 -0.20715065 0.13202894 0.09814183 0.19889846
0.23269592 0.29383454 0.091332346 -0.05217883 0.03323244 0.31117323 0.019090904 0.14009687
0.16312504 0.1649955 0.2202452 -0.27568635 0.08973356 0.019793056 -0.19598924 0.007780436
0.08649686 -0.12619382 0.037795603 0.13165955 -0.15206428 -0.10381882 -0.120960936 0.06477723
-0.044176437 -0.24259265 -0.16009682 -0.17404108 0.09810623 -0.093620576 0.17764772 -0.082780905
0.17853574 0.17059928 0.069972396 0.054004405 0.0055562207 -0.20080544 -0.16136521 0.010866698
-0.1779012 0.07300809 0.059779253 0.057181064 0.22607827 -0.27517584 0.22868556 -0.00013761761
0.12886588 0.06360114 -0.08558695 -0.2522653 -0.24162719 0.20536637 -0.22084042 -0.069256075
0.02514628 0.18521969 -0.047595162 -0.24726768 0.072118275 0.05008379 -0.29216155 -0.05956119
0.3147227 0.17025205 -0.018285193 -0.24681716 -0.1838548 -0.06579529 -0.012429915 -0.25562218
-0.003998284 -0.15399405 0.041403934 -0.032889247 0.0609149 -0.18075763 0.039775386 -0.18673888
0.03213663 -0.09293063 -0.08989638 0.18754129 0.2919638 0.01599397 -0.17066231 0.1211308
-0.048787393 -0.12620857 -0.080824845 0.1197267 -0.04874701 0.03266104 0.21445987 -0.08201123
0.085064664 -0.21987063 0.0045462595 0.100562975 -0.04654054 0.23302819 -0.056938466 -0.10701277
-0.11225015 0.192263 0.06484496 -0.09010649 0.022732954 -0.044664554 0.062283054 0.06279424
0.08849461 -0.01177142 -0.1389663 -0.0124906525 0.32590514 -0.37219793 0.11664473 -0.2724945
0.098143764 -0.14330393 -0.06340975 -0.1111079 -0.051730953 -0.28056964 0.0248657 -0.3326868
-0.2823244 -0.1676307 0.33440244 0.03788279 -0.008534559 -0.13843265 -0.07458501 0.01842682

network_body.vector_processors.0.normalizer.running_mean f4 [13]
00000000: d2e5 83c1 ed82 8941 163b 77c1 785f a73d
00000010: e095 1a3d ee3f e9bc 5b02 bb3d 3468 fbbe
00000020: b81c eb3e 8399 fabe 9330 24bd 6dea ca40
00000030: 1490 c83e
-16.487217 17.188929 -15.451925 0.08172506 0.03774059 -0.028472867 0.09131309 -0.49102938
0.45920348 -0.48945245 -0.040085386 6.3411164 0.39172423
