Assets/ML-Agents/Brains/MaxSpeedAgent.onnx (onnx, 144260 bytes, 11 tensors)

69 f4 [13]
00000000: da3c 0242 45d6 1541 dd53 ed41 4c0d d93e
00000010: 6356 b33e ba8f c23e bda0 c43e d0b8 d541
00000020: 493d 6641 2106 cb41 99d5 b73f c15a 953f
00000030: d177 9a3f
32.559425 9.364812 29.665949 0.42392957 0.35026845 0.3800028 0.38403884 26.71524
14.389962 25.377993 1.436206 1.1668321 1.2067815

action_model._continuous_distribution.log_sigma f4 [1, 4]
00000000: e2d3 73bf b74a 57bf 57b2 40bf 9e82 63bf
-0.9524518 -0.8409838 -0.75272125 -0.8887118

action_model._continuous_distribution.mu.bias f4 [4]
00000000: d746 bfbb 4306 c43c 608f aa3c d6c8 133e
-0.005837302 0.023928767 0.02082032 0.14432082

action_model._continuous_distribution.mu.weight f4 [4, 128]
00000000: 548a 04bd f703 a93d 0dca d83d 77ed f33c
00000010: 95f2 d53c 10d4 963b f3d9 18be 79a1 133d
00000020: 0895 9ebd cfa0 12ba 08b4 943d c7a0 613c
00000030: 47fe 9f3d 4118 4bbc 4f5e 433d a467 c4bd
00000040: d2b0 883d c6f3 33be 057e 58be 0d7c 5e3c
00000050: a314 e4bc 521e b63b ef0b 2fbd 2882 d5bd
00000060: cc32 ea3c a29e f2bd 2821 7cbd e0f2 3ebe
00000070: 58e6 dcbc a0d5 063c 542e 8a3d 6d58 143d
00000080: d1a1 883d efbb 09bd dbd4 56bd 46b0 c53d
00000090: af41 5d3d c046 c0bc 370b 4bbd 0188 82bd
000000a0: 2848 c73d 73b9 6fbd d2aa 01be b927 39bc
000000b0: 9e79 923d 34f3 e1bd e390 d1bd bbde 7fbd
000000c0: 63a3 433d 3bdb e2bd 990e d13c 83ba 083d
000000d0: ba1b 87bc 21bd bcbd 804c 073d bb03 c73c
000000e0: 6928 b5bd cc55 3c3a cd0b fb3d d96b 3f3d
000000f0: 0066 0a3e a99c 173d 625b 873c b421 ed3d
00000100: b77a 9abd 1566 6f3c 42d2 c73c a976 9a3c
00000110: 967b 5dbd 9b2d e0bd 0f66 ebbd 80f8 513d
00000120: 0a33 643d 5f97 30be 3057 3ebb 7503 db3c
00000130: 429f 093d 8662 3dbd fbe3 f0bd 7521 973d
00000140: 800e f93d ab37 b9bc 75c5 d1bb ebee 81bc
00000150: ad3d 793b 59de b6bd d8a4 133e 37a5 2c3d
00000160: 35b6 0a3c 7d19 c83d 024c 9abd e12a 913d
00000170: 695e c0bc 4c8c dcbd 178e 8e3d 4fd3 e5bd
00000180: 47f8 d33d 0ee9 293c 6839 20be 82b4 81bd
00000190: 0283 05be c90b f0bd a3ea 51bd 9ae5 b4bc
000001a0: 467f 02be 046c 783d df09 65bd dfcf 7dbd
000001b0: 633c 563e edb3 84bd de3a 10bd 6063 453d
000001c0: 2873 ad3d 51ae cf3d 752e d53d 65f0 1bbe
000001d0: 33ab 863d a08f 343d 3e44 993c df44 e1bd
000001e0: f284 32be 7d5f 2dbd bc14 5cbd fc19 30be
000001f0: d7a2 1fbd 7771 8ebc 5b76 c8b8 0203 8b3d
00000200: c0c2 e9bd cd4a 26be 6f1e 023e 7ca0 11bd
00000210: fd2a d6bd 3705 a1bd 6509 d93d ae7a c43a
00000220: 67b4 0a3e ef10 1ebe 9e9a 01be f088 31be
00000230: 1a7e 65bd eae7 b23d dfda 313d e6d5 993d
00000240: 5e4e fdbc c94f 703c a2f1 5a3e 6766 4fbe
00000250: 295f fdbd 6b08 9b3b da42 10bd 9103 a3bc
00000260: d616 db3d 1e00 173d 2ed7 58bd 10ac a93c
00000270: ca15 3abe 998e abbd 186a fdbd 9e28 e33c
00000280: 1216 523d 7372 eebc 1a34 5a3d 5908 b4bb
00000290: 7837 ca3c bed2 323d 6f7d 363c a223 2abd
000002a0: cfbb e1bd 257b 41bd b186 1a3c 7eec 16bd
000002b0: e463 96bd 4934 ce3c 5bdf b13d 2491 073e
000002c0: bb1f 4abb 8a7d 07bc e955 b9bd 3885 1bbe
000002d0: 12bc 323c e8c2 ec3d 9277 debd 1dc4 fabc
000002e0: 956d cbbd 5c74 8dbd 40cd 13bd d4ee 86bd
000002f0: cf15 81bd 43b9 d0bd 9481 de3c 144f 0abe
00000300: 3c48 95bc 9ff2 5e3c 1c4a 54be 66d0 d8bc
00000310: 66b7 a1bc 3d6d bb3c f07d 2cbd 0a48 2f3d
00000320: 421d 4c3d a92b 09bc 6e91 f33d d80a d3bd
00000330: 110b f23d 6d35 8ebd 8732 d93c 4ec2 8abe
00000340: dfa7 debd 15fe 36bd 1b84 373c 9739 e5bc
00000350: a702 95bd d015 ce3b dca6 debd a3b8 9a3d
00000360: 72b4 6d3c b74d 1cbe e487 32bd 8e47 5e3c
00000370: 0c10 33bd e66b a53b 2527 1abc dc38 573c
00000380: 24d5 1c3e 6d0b 0d3c e9be e83d 905a ab3d
00000390: 107c 0e3d c5f0 c93c 5356 2c3e ac6a 53bd
000003a0: 4a82 f63b 6b7c 513d d5c4 d7bd 80e3 26bc
000003b0: c3f6 6b3d 8bec 9cbd 5145 cebd 2bf2 d43d
000003c0: 7630 0bbe 8e75 273c d46a abbc 22a6 e4bd
000003d0: 07fa ed3a 6781 89bd 8d59 b5bb 81b4 f9bc
000003e0: 6715 b83d 07da 133d 9264 273d a21a ff3d
000003f0: 325e 213e aa55 15be d435 c83d adb0 4b3e
-0.032358482 0.08252709 0.10585413 0.029776318 0.026116649 0.0046029165 -0.14926891 0.036042664
-0.07743269 -0.00055934204 0.07260901 0.013771242 0.078121714 -0.012395919 0.04769736 -0.095900804
0.06674351 -0.17573461 -0.21141823 0.013579381 -0.027841872 0.0055578137 -0.04273599 -0.10425216
0.028588675 -0.11846663 -0.061555058 -0.18647337 -0.026965305 0.008229643 0.06747118 0.036217142
0.06671489 -0.033626493 -0.05244909 0.09652762 0.05401772 -0.023471236 -0.049571242 -0.06373597
0.097305596 -0.058526468 -0.12662819 -0.0113009745 0.07152103 -0.110327154 -0.10232713 -0.06246827
0.04776324 -0.11076971 0.025519656 0.033380996 -0.016492713 -0.09215761 0.03303194 0.024293771
-0.08845598 0.00071844156 0.1225811 0.04673371 0.13515472 0.037014637 0.016523067 0.11578694
-0.07542937 0.014611741 0.02439225 0.01885541 -0.05407294 -0.109461986 -0.114940755 0.05126238
0.055712737 -0.17245243 -0.0029043667 0.026735047 0.033599146 -0.046236537 -0.11762234 0.07379428
0.12160969 -0.022609552 -0.0064017125 -0.015860995 0.0038031146 -0.08929128 0.14418352 0.04214975
0.008466293 0.097704865 -0.075340286 0.070882566 -0.023482518 -0.10768947 0.06960695 -0.112219445
0.103500895 0.010370506 -0.15646899 -0.06333257 -0.13038257 -0.11720998 -0.051249158 -0.022082139
-0.12743863 0.060649887 -0.055917617 -0.06196582 0.20921473 -0.064796306 -0.03521239 0.048190475
0.0846923 0.1014067 0.104092516 -0.15228422 0.065756224 0.044082284 0.018709298 -0.10999464
-0.17433527 -0.042327393 -0.05373071 -0.17197412 -0.038973656 -0.017388089 -9.5587886e-05 0.06787683
-0.11414099 -0.16239472 0.12706922 -0.03555344 -0.10457418 -0.07862323 0.10597495 0.0014990175
0.1354538 -0.15436147 -0.12656638 -0.17337394 -0.056028463 0.0873564 0.043421622 0.07511501
-0.030921157 0.01466746 0.21381238 -0.20253907 -0.12371666 0.004731228 -0.035220005 -0.019899162
0.10697715 0.036865346 -0.052939586 0.020711929 -0.18172374 -0.08376808 -0.123737514 0.027729329
0.05129058 -0.029107308 0.053272344 -0.005494159 0.024684653 0.04365801 0.011138304 -0.04153789
-0.1102215 -0.04723658 0.009431527 -0.03684663 -0.073432714 0.025171416 0.0868518 0.1323896
-0.0030841667 -0.008269677 -0.09049589 -0.15187538 0.010909097 0.11560613 -0.1086265 -0.030611092
-0.099330105 -0.069069594 -0.036084414 -0.065885216 -0.06302988 -0.10191586 0.027161397 -0.13506728
-0.01822292 0.01360765 -0.20731395 -0.02646656 -0.019740772 0.022879237 -0.04211229 0.04279331
0.04983259 -0.008372226 0.11892973 -0.10304803 0.11818517 -0.06943784 0.026513351 -0.27101368
-0.108718626 -0.044675905 0.01120093 -0.027981563 -0.072758965 0.0062892213 -0.1087167 0.07554748
0.014508354 -0.15264021 -0.043586627 0.013566865 -0.043716475 0.005048263 -0.009408747 0.013136115
0.15315682 0.008608681 0.11364538 0.08366883 0.034786284 0.02465094 0.16829805 -0.051615402
0.007522856 0.051144045 -0.105355896 -0.010186076 0.057608377 -0.076623045 -0.10071815 0.103977524
-0.13592705 0.010220898 -0.020924963 -0.111645 0.0018156179 -0.06714135 -0.005534357 -0.030481579
0.08988457 0.0360966 0.040867396 0.12456252 0.15758589 -0.1458346 0.09775892 0.19891615

network_body.linear_encoder.seq_layers.0.bias f4 [128]
00000000: 7520 28bc a67f d23d 1d60 1abd 6e2a c33c
00000010: c4cf 8dbd 3e4a f53b 5d5f 673c b8b8 84bd
00000020: 9637 173d 1c78 d9bb 0243 39bc b86f 9c3c
00000030: 39cf f53b af78 9fbd 342c 363d ad95 de3b
00000040: 8bcd 123e 3bcb cc3d 5938 82bd b179 113d
00000050: eef2 453d 17d1 a33d 60c1 17bb 198a f23c
00000060: e32b fa3d 0d94 3c3d b88f f9bc 9723 d93d
00000070: e8f0 bdbc d6b3 9fbd 28e2 c53d 4368 623d
00000080: e648 8b3c 3f5c 02bd 1dcc 353d 8ce0 0e3d
00000090: 6af5 22bd a5d4 153d 3a10 c23d 5c4f ba3d
000000a0: 905c 3fbc d491 fabb 7aa3 b63c b51e fe3d
000000b0: 9b16 98bd 24b5 d53d 7536 1b3e d739 01bc
000000c0: fdff d13d ad5c 4e3d 9976 c83d d2c9 d03d
000000d0: e2a4 20bd f3dc 933c 6fcd cd3d b51f 84bd
000000e0: 5509 4f3d e1d5 aebd a6eb 5d3d 3cb7 b83d
000000f0: 7b6a 0d3d b2ba b43d c0c5 06bd 205c 82bd
00000100: ee0f f83d f7cd a1bd 8f65 a83c 56cb 17bd
00000110: 5119 babd 6fa1 5b3d 2597 5c3a 3d13 223b
00000120: fe48 0ebd 1bac ae3c e804 713d 4df7 8fbd
00000130: cc77 8b3d 1646 793d 1d8b b33d 76b2 143d
00000140: 6ed6 f23b dd05 9e3d 3108 62bd 98a1 083e
00000150: 5812 24bd 2469 b93c 211d 7e3d 74a2 cabd
00000160: 79ee c93d 9757 ce3d 0724 89bc 8250 ccbd
00000170: c45b e83d 2923 023e 04d1 3b3d 7efd 603b
00000180: 666c 733d c0d8 8f3c bc3c dd3d 6297 babd
00000190: ebe2 fbbc 283b c33d 6efe 4d3d cd7b 583d
000001a0: 99a9 973d 7751 adbc bcba f3bc 22ea f93c
000001b0: f751 e63d cbe0 94bd f91c a8bd 4b54 f3bd
000001c0: d0f8 3bbd ec8b 1c3d cd6c 333d 7b34 a83d
000001d0: 3aa5 8d3d 136c 32bd bd75 8f3d 3af7 25bd
000001e0: a844 a73d 4290 d3bc 6b06 323d d19d c53d
000001f0: e7c3 bbbb 8836 b4bd 19fd bf3c 45a5 213d
-0.010261645 0.10278253 -0.037689317 0.023823943 -0.06924394 0.007485657 0.0141218575 -0.06480545
0.036918245 -0.0066366326 -0.01130748 0.01909624 0.0075015095 -0.077866904 0.04447575 0.006792745
0.14336221 0.09999701 -0.06358404 0.035516445 0.04832738 0.07998865 -0.0023156032 0.029606866
0.12215402 0.04603963 -0.030464038 0.10602491 -0.023186162 -0.07797973 0.096622765 0.055275213
0.017002534 -0.031826254 0.04438411 0.034882113 -0.039784826 0.036579747 0.09475751 0.09097168
-0.011679783 -0.0076467786 0.022294749 0.12408201 -0.07426187 0.104349405 0.15157492 -0.007887325
0.10253904 0.05038135 0.09788246 0.10194744 -0.039219745 0.018049693 0.10048949 -0.0645136
0.05054601 -0.08536888 0.05417981 0.09019324 0.034525376 0.08824672 -0.032903433 -0.06365228
0.12112413 -0.07900613 0.02055624 -0.03705915 -0.0908686 0.053620752 0.0008414856 0.0024730705
-0.03473758 0.0213223 0.05884257 -0.07029591 0.06809959 0.060857855 0.08766768 0.036303006
0.007410816 0.07715962 -0.055183593 0.13342893 -0.040056556 0.022633143 0.0620395 -0.09894267
0.09859938 0.100753 -0.016740812 -0.09976293 0.11345628 0.12708725 0.04585363 0.003433078
0.05942955 0.01755941 0.108026 -0.09110905 -0.030747851 0.095327675 0.05029147 0.05285244
0.07405395 -0.02115701 -0.029752128 0.030507151 0.11246102 -0.07269438 -0.08208651 -0.11881312
-0.045891583 0.038219377 0.043804932 0.08213135 0.0691628 -0.0435601 0.07004879 -0.040518977
0.08167392 -0.025825623 0.043463152 0.09649242 -0.0057301405 -0.087994635 0.023436116 0.039464254

network_body.linear_encoder.seq_layers.0.weight f4 [128, 13]
00000000: 9ad0 7bbe 68f6 02bf b351 ac3d 98df fdbc
00000010: 3dba 23be 2580 603e c8c4 b03e 2ba4 a4bd
00000020: d6ae 56be 4119 213f 8c75 af3e 42b6 04be
00000030: acd6 c43b 4c52 0f3f 2bf6 eebe 73e7 303f
00000040: fb7c 06be 93f5 913d 3a83 2dbe af81 e13e
00000050: 1e38 5cbb 0b38 5e3a a460 cbbe 647c 4ebe
00000060: 5034 a9be 6a7b 303e 8199 d5bd b5e0 8a3e
00000070: d8ec 9f3e 990d 9b3e da56 1ebd dbab f5be
00000080: b8a3 8dbd 730f d0be 520d 97be 2fbe ccbd
00000090: d1ce 93bd 6c02 dfbd 4a78 39bc 6b6a 253f
000000a0: c5d8 fb3e e953 16be 134d 08bf 7f32 afbe
000000b0: 6d56 c63d 3b4b a03e 98b1 e33e 80d9 54bd
000000c0: 3102 fabe 2f8b b23e 6953 c7be d0b4 433e
000000d0: e467 8cbd 8cc4 8fbd bdf9 003f aed8 433e
000000e0: 6141 3abe db8c e7bd 3be4 08bd a92b aa3c
000000f0: 5cb9 973d a9c1 a6be 0b8c 9c3d ca79 58be
00000100: 4c6f 8e3e b9dc 003e dc41 2fbe 0cae a13e
00000110: 4ae6 8e3e 9dca 933e ed7e 48bd e98f 0e3f
00000120: c7ff 013f 807e ff3d c20e abbb 1475 983d
00000130: 9365 4f3e 05a9 e03d 5b57 4cbc 7ed4 883e
00000140: b69c 04be f98a d53d b001 663e 69ab 0ebb
00000150: f040 04be 46bc f0be 4a1b a63e 9a0f 9cbc
00000160: b2c0 8a3d 8b06 2d3f 39af 22be 23a4 b33d
00000170: 2536 973e f34f 93bc 1807 b23d 6ce9 84be
00000180: 1e39 983e 3d34 27be d207 a7be 8853 bd3e
00000190: 2024 3d3f d3da 083e 3282 b1be c597 06be
000001a0: 3cdb eebd 29ef adbd dc24 41be 9bef c53d
000001b0: bb97 983e 1e35 0f3f 7b93 38be 27be ce3c
000001c0: 7b39 873e c861 dd3d d888 dabe ac9d 7abd
000001d0: c690 4e3e 710b db3e 62a4 eabe 57f4 823e
000001e0: 8861 883c a48b 543e 41a0 a13c ffde ff3e
000001f0: 16a2 bb3e 96a4 9bbd f9fb c0be 4206 463e
00000200: f3e5 b3be 1aca 65be d29e 0b3f 8bc5 d23e
00000210: 2dc3 10bd 689f 52bc e6d8 f23e 5e75 e63e
00000220: 38fe 2ebe 265d 31be 2b2c 58be fc9b 8e3c
00000230: 583c fabd e32c 29be 9906 5dbd 32ac 9e3b
00000240: f5a5 d83e b291 623a b32e fb3c 39fd e03d
00000250: 5b5d 483d 543d 0b3e 8d07 c7be df80 20bf
00000260: 0675 43bf fd6c debe fe2a adbe 7ec7 d4be
00000270: 5f55 87bb c9c0 35be 9dbf 153e f671 a23e
00000280: f08f 493e bb23 25be de7e 08be 6fea c23e
00000290: 51e3 6b3c 7b52 1c3f e130 bebe 663b 383f
000002a0: cc6b 05bd df18 79be 148c 033f a5cb cebe
000002b0: ca57 e0bc f99f 703e 55eb b2bd 380e 6ebd
000002c0: 6856 c5be ea93 7fbd 3059 cb3c 335f 1bbd
000002d0: 7016 d3be 16a0 8cbd b994 d0be f53b 13bd
000002e0: b263 fd3d d57d dbbd 3b21 1c3f 8607 9e3e
000002f0: a8d0 24be 1c3d 2bbe c83d 3b3e cf7a 39bf
00000300: 5f93 f53e ffb3 443e 449b 8e3e abf4 1ebf
00000310: 0c47 b6be a579 313d 9bad 733e 6ed6 07bc
00000320: 9d82 373e 4bb9 193f c1b0 6cbd 89d7 a7bd
00000330: 9006 193e b672 a3be 67a2 003f 42e0 e63d
00000340: e43a 29bc 0f38 86bd bf46 683e f174 74be
00000350: 9516 a43e 071d 06be d95f 893d f536 cb3e
00000360: d736 45bd 1062 52be 6098 323e a08d 83bd
00000370: 8973 2cbe 9df8 5a3d dee9 03bf e1cf 6abc
00000380: aa20 2bbf f1be 91be 47bc 0cbf b741 78bd
00000390: 7fde 52bd 9a23 8bbe 73d8 263e 69c7 dcbb
000003a0: 4d2c 07be a3a6 a23d d2bb 44be 588d 3a3e
000003b0: c055 963c 2631 a63d 234c cabe 9cba 4fbe
000003c0: 97ba e43e 4813 b93e 943f 87bd f7b3 60bd
000003d0: 7b23 353f a6f0 a23c 6d67 1fbe 9ec3 c1be
000003e0: 26c2 dabd 3ffb f03d b3f6 993d aa14 723e
000003f0: 71ad e2bd 849f bbbe 34c6 923e d804 02be
-0.24591294 -0.51157236 0.084140204 -0.030990407 -0.15989013 0.21923883 0.34525132 -0.08039125
-0.20965132 0.6292916 0.3426937 -0.12960151 0.006007036 0.5598495 -0.46672186 0.69103163
-0.13133614 0.07126918 -0.1694459 0.44044253 -0.0033602784 0.0008476979 -0.39722168 -0.20164639
-0.33047724 0.17234579 -0.10429669 0.27124563 0.31235385 0.30283812 -0.038657047 -0.47982678
-0.069159925 -0.40636787 -0.2950235 -0.09997212 -0.072171815 -0.10889134 -0.011320183 0.64615506
0.4918882 -0.14680447 -0.53242606 -0.34218213 0.09684453 0.31307396 0.4447143 -0.051965237
-0.48829797 0.34871814 -0.38930824 0.19111943 -0.06855753 -0.0701991 0.5038107 0.19125625
-0.18189003 -0.11306163 -0.033420783 0.020772772 0.07408401 -0.32569626 0.076438986 -0.21140209
0.27819288 0.12584199 -0.17114967 0.315781 0.27910072 0.2886552 -0.04894917 0.5568834
0.5078091 0.124753 -0.005220265 0.07444206 0.20253591 0.10969738 -0.012471999 0.2672462
-0.12950405 0.104268976 0.22461581 -0.002176965 -0.12915397 -0.4701864 0.32442695 -0.019050408
0.06775035 0.6758811 -0.15887155 0.08771541 0.29533496 -0.017982459 0.08692759 -0.25959337
0.29731077 -0.16328521 -0.32623154 0.36977792 0.7388325 0.13364725 -0.34669644 -0.13143833
-0.116629094 -0.08492882 -0.18861717 0.09664842 0.2980326 0.55940425 -0.1802501 0.025237156
0.26411042 0.10809666 -0.42682528 -0.061185524 0.20172414 0.42782167 -0.4582854 0.25577042
0.016648069 0.20756394 0.019729735 0.4997482 0.366471 -0.07599752 -0.3769224 0.19338325
-0.35136375 -0.22440377 0.54539216 0.41166338 -0.035342384 -0.012855388 0.47431105 0.4501142
-0.17089164 -0.1732069 -0.21110599 0.017408364 -0.12218541 -0.16521029 -0.05396137 0.0048423046
0.42314115 0.0008642926 0.030661916 0.109857984 0.048917156 0.13597614 -0.38872948 -0.6269664
-0.7635044 -0.43442526 -0.33821863 -0.4155845 -0.00413005 -0.17749323 0.14623876 0.3172757
0.19683814 -0.16126911 -0.13329646 0.38069484 0.014397458 0.61063355 -0.37146667 0.71965635
-0.032573506 -0.24325894 0.5138562 -0.40389743 -0.027385611 0.23498525 -0.08736292 -0.05811903
-0.38542485 -0.06239692 0.024822801 -0.037932586 -0.41228056 -0.068664715 -0.40738466 -0.03594585
0.12372531 -0.1071736 0.60988206 0.30865115 -0.16095221 -0.1672253 0.18285286 -0.72453016
0.47963998 0.19209288 0.27852833 -0.62092084 -0.3560108 0.0433289 0.23796694 -0.00829087
0.17920919 0.6004836 -0.057785753 -0.08195407 0.1494391 -0.31923455 0.50247806 0.112732425
-0.010328982 -0.06553661 0.22683237 -0.23872735 0.3204848 -0.1309701 0.067077346 0.39690366
-0.048148002 -0.2054522 0.17440939 -0.06423497 -0.16840948 0.053459752 -0.5152873 -0.014331789
-0.66846716 -0.2846599 -0.5497479 -0.060609546 -0.05148172 -0.271756 0.16293506 -0.0067376387
-0.13200493 0.0794194 -0.19212273 0.18217981 0.018351436 0.08114843 -0.39511213 -0.2028603
0.44673607 0.36147523 -0.066039234 -0.054859128 0.70757264 0.01989014 -0.15566798 -0.37844557
-0.10681562 0.117666714 0.07517757 0.23640695 -0.110682376 -0.36645138 0.28666842 -0.1269716

network_body.linear_encoder.seq_layers.2.bias f4 [128]
00000000: 35c2 eebd eefc 27bc f518 4bbd dce1 cbbc
00000010: f7f8 28bc 2a67 48bd 589e 3ebd 6e7d a73d
00000020: 53a3 a7bd 6fa0 ae3d 87e7 b8bc 9cc2 d6bc
00000030: 64e9 b13c 0410 d13c 6ab5 51bc daf4 cebb
00000040: 15a5 903d cb6e e43b d334 ff3a 60a5 0ebd
00000050: 5a4e 88bd 5397 553d a4aa b2bd 4956 f4bb
00000060: 1d55 17be 80e5 ac3c 7075 753d 6020 b93c
00000070: 86de e63d f31b 5e3c a36b a0bd 6fd5 953d
00000080: b9fb 5d3d 428e 33bd de43 02be 667b 9b3d
00000090: cae1 06bd da0a 46bd 74ef 6eb9 96dc e23c
000000a0: 9516 3e3d 0644 313c df64 883d decb a93d
000000b0: 5019 413d 31cd 9bbd b4b7 9fbd 535a 273b
000000c0: 4b09 293c 0a60 593c 8720 f23d 09a0 1bbd
000000d0: c9a5 49bc 3c2a 343d a219 743d d48a 1cbd
000000e0: 6a3f b7bc 3057 273c afab 5c3d 4793 4e3c
000000f0: ba0c e8bd 121b 983d d46a 2f3d d9a0 27bd
00000100: 84af dcbd 8a58 ce3c 3011 8ebb 7b3e a03d
00000110: 0248 bb3c 6ad7 d93c 2c34 bbbd e00d 173d
00000120: 3f1a 0d3d ec4c 303d 13ab 9abc 7ad2 503d
00000130: 1b19 a53d 65d6 3dbc e2eb 8c3c 9305 213d
00000140: 483f 653d 1194 03be c3bd 633d 3fdd a43d
00000150: e572 603d 3b15 c03c 3f0b 68bd 4632 a5bd
00000160: aa74 7e3d e7a9 013d 09e6 4b3b 10cc 963d
00000170: e51b 31bd 79f1 3dbd 2ce2 8b3c ab8c d6bd
00000180: 7e8c ad3c 8725 023d d303 20bd 5252 e03d
00000190: 77ba 8ebd 9b32 c63a 95c9 873d f6ff 42bd
000001a0: 34f6 bc3d 91e8 823d dcd5 6e3d 6e36 0f3d
000001b0: 109b 283d d43c 9b3c c7b8 c5bc fd52 09bc
000001c0: 2a20 bb3d 3e8e a5bd 3886 983d d905 9b3c
000001d0: 422b 1b3c dfc6 30bb 1088 d2bd faec 983d
000001e0: 4c21 0dbd 0232 46bd fa6c 6f3d 3150 3d3d
000001f0: af91 0fbe f5dc 1abe 1f66 6fbd c539 dfbb
-0.11658136 -0.010253174 -0.049584348 -0.024887972 -0.010313264 -0.04892651 -0.046537727 0.08178221
-0.081854485 0.08526694 -0.022571338 -0.026215844 0.021717735 0.025520332 -0.0127996 -0.0063158097
0.07062737 0.0069712154 0.0019470699 -0.034825683 -0.066555694 0.052146267 -0.08723953 -0.007456575
-0.14778562 0.021105528 0.05992645 0.022598445 0.11272912 0.013556468 -0.0783303 0.073161
0.05419514 -0.04383684 -0.12721202 0.07591896 -0.032930173 -0.048350193 -0.00022786652 0.027693074
0.046408255 0.010819441 0.06659865 0.08290838 0.04714328 -0.076074965 -0.077987105 0.0025536015
0.010317157 0.013267526 0.1182261 -0.03799442 -0.012307593 0.04398559 0.059594758 -0.038218334
-0.022369105 0.010213658 0.053874668 0.012608356 -0.113305524 0.07427038 0.04282649 -0.04092488
-0.107756644 0.025188703 -0.004335545 0.07824417 0.022861484 0.026591975 -0.0914081 0.036878467
0.03444886 0.04304211 -0.018880403 0.050981976 0.08061429 -0.01158676 0.017202321 0.039311957
0.055968553 -0.12849452 0.055600893 0.08050012 0.054797072 0.023447623 -0.05665135 -0.080662295
0.06212298 0.031656172 0.0031112453 0.073631406 -0.043239493 -0.046372864 0.01707562 -0.10476049
0.021185156 0.03177407 -0.039066147 0.10953201 -0.06969159 0.0015121283 0.066302456 -0.047607385
0.09226647 0.06392015 0.05830942 0.034964018 0.041163504 0.018949904 -0.02413596 -0.008381602
0.09136994 -0.08083771 0.07447475 0.018923687 0.009470763 -0.0026974005 -0.10279858 0.07467075
-0.034455582 -0.048387535 0.058453538 0.046219055 -0.14020418 -0.15123351 -0.058447 -0.0068123066

network_body.linear_encoder.seq_layers.2.weight f4 [128, 128]
00000000: b906 53bd 6f6f 15be 4112 72bd a076 833d
00000010: 9d14 30bd e6ba 37be 85cd 5fbd 1f42 013c
00000020: cb59 713a 28aa fcbd 6917 1abe a51e ccbd
00000030: c5e9 99bc 49f3 7f3d 7ac3 723c 8107 763d
00000040: 9089 12be dde7 213d b29a 2b3e 11af 1abe
00000050: 2dd4 dbbd 0692 ba3a 2776 46be 79b3 41bb
00000060: 262d 49be cf94 a6bd 795f 9ebc 3f4d adbd
00000070: fd03 b3bd be15 3c3c 7810 523c a025 fb3b
00000080: e5be 9dbe 6898 953d 6fd2 8ebd 7fe5 dbbd
00000090: 50cd 103e a038 dabd 8f29 2fbd 0b51 893e
000000a0: 61d3 83bd 12c0 943d 4f22 243e 20b9 b63b
000000b0: e347 18be c479 de3d d887 43be 6074 83bd
000000c0: 61f3 acbd d324 433d e9b4 4c3d 80d1 ecbd
000000d0: 37f5 8c3b 794f 12be 6926 35be c53a 013e
000000e0: c880 95bd 7bde 903d cd3b 263e 9810 5bba
000000f0: 2442 13bd 294d 843d 7729 063e ffa1 7bbd
00000100: 24e6 95be dfe5 1abd d74d ee3c 7475 92bd
00000110: 9f82 da3d 62b2 0cbe c74b b4bd 0a5f cd3d
00000120: 81c1 4a3c a8ce e8bc 8447 d5bc 0d50 5a3d
00000130: 4c2e adbe 2274 5f3c 5698 88be 6f27 063d
00000140: 54f8 343d c9b4 a83b ffe2 2b3c 83a3 9cbc
00000150: 7f13 353d e73c 67be 6e1a 3e3c 1979 073e
00000160: 1986 90be 8421 8c3b 8b72 233e 07af 26bd
00000170: 4fef 15be 5a6f 20be fabd 49be 70c9 6ebd
00000180: 9be4 17be 53ad 103d f6f1 1c3e 2355 063e
00000190: e832 e9bd 44df 66bc f0f2 ff3d a625 85bb
000001a0: 5570 36be 68d2 67be c8d3 4d3c 033f 73be
000001b0: ad8a 033d 2257 533d ddbc 133e 085c 523d
000001c0: 58f5 de3c e564 ba3d 309a 2bbe 6e42 97bd
000001d0: ac54 e33d b724 873d 44a3 f1bc f592 47bc
000001e0: 8976 a63d 75d2 c7bc 20fb 233e 3633 1fbe
000001f0: ba32 15bc c01a 49be 6def fc3d a888 b4bd
00000200: 4493 bcbe d360 273c dc27 e63d 83d7 703d
00000210: 46f1 80bc 9c32 8e3d 3ba3 2dbc 03c7 f6bd
00000220: 5c1f 94bc e019 e23d 6b4a c7bc 6729 03be
00000230: 38cd ef3d ba3e cbbd 5ff9 f53c 1d0f 48be
00000240: 1a13 803d 313a 0cbe e90e 913d e409 103e
00000250: 9acb a43b 71f1 51bd 669f 93bd adad 63bc
00000260: 7572 173e 16da a23d ed4e 32bd 4d03 533e
00000270: a32a 9dbe 21c4 083e 7be7 66be 5391 f6bb
00000280: 5dc2 013e a203 173c d409 dcbd b969 3dbe
00000290: e932 fcbd ecdd 1f3e dd1e c73d 70c2 c23c
000002a0: 4236 3d3e 5f17 3e3d 2c58 3c3d 4c40 f83d
000002b0: 335c 58bd 2736 113e 8c3e 13be ee1f dabc
000002c0: ea8c 35be a584 a8bd 191b 8abd ea95 b13d
000002d0: e851 b33d fdfa 9abd cb61 163e 3d5b 08bd
000002e0: f48a babd 5d61 68bd 1a50 13bd a246 0c3e
000002f0: abf8 013e d186 273d bb01 b5bd d084 87be
00000300: 6a9a 48be 11ed 3c3e ff51 2cbd 1d54 13be
00000310: 7331 00bd fa51 20bd 1437 cebd 65e5 00be
00000320: 5683 87be f06c b4bd f287 823d f5ce 06be
00000330: a7e1 973b 4654 a5bd 28cb 1e3d ec86 8cbc
00000340: fd7b 2abe f9c7 c83c 0c9b 83bd b9e7 d3bc
00000350: 1b33 aabc f41b 00be c002 56bd 109b aabe
00000360: b6e8 8fbd ae0b 6e3d dd23 9a3d 6ece c23d
00000370: 8eac 2bbd 9825 033e dba8 273d 861a 7cbd
00000380: 9bc8 3e3d 385b 963d 8517 a33c 8fd3 a03d
00000390: e7f9 5dbb 00ef c7bc 384c 20be f2e1 d5bd
000003a0: 2b63 bbbc 52f2 01bd e50f 84be 0429 f23d
000003b0: efc0 373e 9c9d 3fbe bfc1 893d 8c08 3ebe
000003c0: edd5 803d 228d 2a3c 2221 60bd 30cc b5bd
000003d0: 3a6f d6bd 8ad8 f1bd d14a a83d 285e 1c3e
000003e0: de8e f0bd a1c5 ca3d a357 5a3d 785a 0ebe
000003f0: 0cee 843d f634 0abe 84ba 7c3d 7b56 32be
-0.051520083 -0.1459329 -0.05909944 0.0641911 -0.04298841 -0.1794239 -0.054639358 0.0078893
0.00092068006 -0.12337142 -0.15047993 -0.099667825 -0.018788228 0.062487874 0.014817113 0.06006575
-0.14310288 0.039527763 0.1675823 -0.15105845 -0.10733829 0.0014234192 -0.19381009 -0.0029556437
-0.19646129 -0.08133852 -0.019332634 -0.08461999 -0.08740995 0.011479793 0.012821309 0.0076643974
-0.30809703 0.0730446 -0.06973731 -0.10737132 0.1414082 -0.106553316 -0.042764243 0.26819643
-0.06436802 0.07263197 0.16028713 0.005576268 -0.14871173 0.10863069 -0.19094789 -0.06418681
-0.08444858 0.04764254 0.049977217 -0.115633965 0.004301693 -0.14288129 -0.17690434 0.12620075
-0.07299954 0.07073685 0.1623375 -0.00083566597 -0.03595175 0.0646003 0.13101755 -0.06143379
-0.29277146 -0.03781688 0.029089851 -0.07151309 0.10669445 -0.13739923 -0.08803516 0.10027893
0.0123752365 -0.028418854 -0.026035078 0.053299 -0.33824384 0.013638528 -0.26678723 0.03275245
0.044182137 0.0051485044 0.010491132 -0.019120937 0.044208046 -0.22581826 0.011602981 0.13229789
-0.28227308 0.0042764563 0.15961663 -0.040694263 -0.1464207 -0.15667477 -0.19701377 -0.058297575
-0.148333 0.035321545 0.15326676 0.13118415 -0.11386663 -0.014091317 0.124975085 -0.004063326
-0.17816289 -0.22638857 0.0125627 -0.23754506 0.032114673 0.05159677 0.14427514 0.0513573
0.027216598 0.09101275 -0.16758037 -0.07385717 0.11100134 0.065988 -0.029496796 -0.012181033
0.081280775 -0.024392346 0.16013765 -0.15546879 -0.009106332 -0.1963911 0.12350354 -0.088151276
-0.36831105 0.010215956 0.11238071 0.058799278 -0.015740048 0.06943247 -0.010597999 -0.12049677
-0.01808136 0.110400915 -0.024327477 -0.12808762 0.11709064 -0.099240735 0.030026136 -0.19537015
0.06253643 -0.13694073 0.07082922 0.14066273 0.005029154 -0.051255647 -0.07208137 -0.013896388
0.14789756 0.07951753 -0.0435323 0.20606728 -0.30696592 0.13356067 -0.2254924 -0.007524648
0.126718 0.009217175 -0.10744062 -0.18497361 -0.12314398 0.15612 0.097226836 0.023774356
0.18477729 0.046409007 0.045982525 0.12121639 -0.052822303 0.14180814 -0.14379328 -0.026626553
-0.17729536 -0.08228425 -0.0674345 0.08671172 0.08755857 -0.075674035 0.14685743 -0.033290137
-0.091085345 -0.056733478 -0.035965063 0.1369882 0.12692516 0.040900055 -0.08838221 -0.26468515
-0.19590154 0.18449809 -0.042070385 -0.14387555 -0.03129716 -0.03914068 -0.10069099 -0.12587507
-0.2646739 -0.08809841 0.06373586 -0.13164885 0.004635054 -0.080727145 0.038767964 -0.01715418
-0.1664886 0.024509417 -0.06426057 -0.02586733 -0.020776322 -0.12510663 -0.052248716 -0.33321428
-0.07026808 0.058116607 0.07526372 0.095120296 -0.041912608 0.1280731 0.040932517 -0.061548732
0.04657803 0.07341617 0.019908676 0.078528516 -0.0033870877 -0.024405956 -0.15654075 -0.10443486
-0.022874435 -0.031725235 -0.25793377 0.11824229 0.17944692 -0.18712467 0.06726407 -0.18557948
0.06290803 0.010409625 -0.054719098 -0.08876836 -0.104704335 -0.1180888 0.08217395 0.15270293
-0.11746 0.09900976 0.053306233 -0.13901699 0.06490716 -0.13496765 0.061701313 -0.17415802

network_body.linear_encoder.seq_layers.4.bias f4 [128]
00000000: 1648 d6bc 663a 00bd 61dc 783d 60ea 413d
00000010: 128f 43bc 9fbe b2bd 31ea 423d 9ba4 d83d
00000020: 735e fa3d 98ac 6c3c 247c 6cbd 7627 9f3d
00000030: 50b9 d23c 902f 8fbc 1798 073d d2d1 6b3c
00000040: 2b14 913c 2a88 bd3b 3568 5e3d df3b ae3d
00000050: b2a5 803d 42cd b73d 6f36 893d 045e 833c
00000060: 0b61 e73c 141a 5a37 fe7d 2c3d c0ad 203c
00000070: 1eeb c3bb 6241 a7bd 3870 00bd 092a e63d
00000080: 2830 acbd 2a6f 14be ea2a 7a3d c8e0 dbbc
00000090: 8b33 39bd e6ec a5bd 1fa8 b3bd 8e6d c2bd
000000a0: 304a bbbd fb18 2e3d 94ea 8f3d f374 f9bd
000000b0: 2732 423d 457e d73c b498 8c3d d1cf 25bd
000000c0: fb02 e93d ab0c e33b f08d c2bd f183 8dbc
000000d0: 84cd c93d 2903 a63d 8863 aebd 9852 04be
000000e0: 10cd 153d e0db b5bd 3014 cc3c 2b2d 84bd
000000f0: 43f8 6a3d 9622 c6bd 6b31 6abc b231 86bc
00000100: 0441 9cbd dd0e db3d feac 973d 50f8 cdbd
00000110: ffed e93d 0f4a a23d 9b42 123c 851a bf3d
00000120: c3ef c13b 4095 923d cc19 e63d 51de 173d
00000130: 3a90 b83d bc0a 803d f4ab 5bbd 30db 8c3b
00000140: 7311 533d 9eb1 f4bd cd24 b83d e878 16bc
00000150: 85b9 b6bd 70d0 ba3c d4b9 a93d 3afe c63d
00000160: fbe1 af3d ebb0 9a3d ef17 a3bd dc9f 363d
00000170: 53c0 e2bd 31ad 2b3d 1cbb b5bc fef3 9d3a
00000180: e2fe 5d3c a0c5 e4bd fa59 71bb cb88 07bd
00000190: 091e 2e3d a9ff a73c 1b1e a33d 0dd2 533d
000001a0: 5870 bcbc af9b 3f3d 26da d1bd 777e 993c
000001b0: 822f 813d 4bd6 493d fb92 3cbd 9331 073e
000001c0: a5df 33bb 8c22 8c3c 6ba9 5fbd 1dea 173d
000001d0: 47c8 abbd 68fc 9cbd 8e32 c33d 0b54 b03d
000001e0: 5dfe 6fbc fef5 8dbd 9d48 a13d 57d8 d23c
000001f0: 45d6 de3c 6662 0dbd 0f3a d53d f3d5 593d
-0.02615742 -0.031305693 0.060757045 0.047342658 -0.011935966 -0.08727764 0.047586624 0.10578271
0.12225046 0.014445446 -0.057735577 0.077711985 0.02572313 -0.017478734 0.03310403 0.014393287
0.017709812 0.0057840543 0.0542986 0.08507513 0.06281604 0.08974697 0.066998355 0.016036041
0.028244516 1.2999884e-05 0.042112343 0.00980705 -0.005978956 -0.08166768 -0.03135702 0.11238486
-0.084076226 -0.1449553 0.061076082 -0.026840582 -0.04521517 -0.081018254 -0.08772301 -0.09493552
-0.091450095 0.042504292 0.07027164 -0.121805094 0.04741111 0.026305327 0.06865063 -0.040481392
0.113775216 0.0069290004 -0.09499729 -0.017274829 0.09853652 0.081060715 -0.08515078 -0.12922132
0.036572516 -0.088798285 0.02491197 -0.064539276 0.057365667 -0.096745655 -0.014294009 -0.016381118
-0.07629588 0.10696194 0.074060425 -0.100571275 0.11422347 0.07924282 0.008927013 0.0933123
0.0059184744 0.071573734 0.11235389 0.03707725 0.09011884 0.062520474 -0.053630784 0.00429859
0.051530313 -0.1194794 0.08991394 -0.0091841 -0.08922104 0.022804469 0.08287397 0.097164586
0.08588024 0.07553276 -0.07963549 0.044586048 -0.11071839 0.041913215 -0.022183947 0.0012050865
0.013549538 -0.111705065 -0.0036827312 -0.03308944 0.042509113 0.02050765 0.079647265 0.051713992
-0.023002788 0.04677933 -0.10246687 0.018737061 0.063078895 0.04927663 -0.04603861 0.13202505
-0.0027446535 0.017106317 -0.05460493 0.037088502 -0.08387809 -0.0766533 0.09531127 0.0860978
-0.014648047 -0.06931685 0.07875178 0.025737925 0.027201781 -0.03451767 0.104114644 0.053182553

network_body.linear_encoder.seq_layers.4.weight f4 [128, 128]
00000000: 80d7 1dbe 4528 803e 436a 4e3c 3803 713e
00000010: 5cdf 193d 5658 9fbc fd82 973d 02d6 4e3d
00000020: 10c5 a93d 9335 5a3e a62a 64be b698 22bd
00000030: 74c0 833a d55a 1d3e 51d8 6e3e 7e0e 723e
00000040: bee2 193d 1056 463c 1aed bfbd cc5d ef3d
00000050: b0e1 073d 9c19 6ebd f1f0 acbc 6bd4 14be
00000060: 7ac2 b03d ab26 383d aef0 a1bc 91f3 923b
00000070: 2493 c7bc 9252 063d 0dd4 103e 0e93 973b
00000080: dea0 ebbc 5d76 363d 0bc9 a8bd e8e3 d73b
00000090: 48fb cc3c 780a febd f9d4 abbd c1ae 48bd
000000a0: 4597 0abe dd29 7c3d 7644 c13c d35a ef3d
000000b0: 63b3 b33d 732a 333e 3cc6 54be fee7 a93b
000000c0: e2e2 c23d bb1c 763c 04b8 b4bb abb4 093d
000000d0: d07a 00be b0a1 b03d f91a 643e 4524 49bd
000000e0: 12e3 623d daae 643d 2390 1fbe 33de 3f3d
000000f0: 0327 3f3e 5367 fcbd f7c7 173e c44f 62bd
00000100: d97e 9bbd 6efd 083e 17f1 613e e39d 6c3c
00000110: 2eb9 04be 185b 82bd b09a 07be 5247 273d
00000120: 3ac9 803d 41f5 a2bd a06d 193e 3156 a3bd
00000130: 1da8 143d ca44 1abd 9f46 97bb a371 dd3c
00000140: df68 babd 8ffe 30bd 35a8 9fbd bd50 81bd
00000150: 6cd3 8abd b549 2d3d aa10 4abd 6fb6 013d
00000160: 22d9 da3c cf90 583c a20c e43d 347c f43d
00000170: 0b43 8fbd 8607 473d bd22 aabc d551 e53c
00000180: b482 70bd e740 6ebd 6532 2abd c048 3f3c
00000190: a3d4 863e b40d 8fbd 42dc 4bbe 283e d3bd
000001a0: 880e 623d 5f0e 303b 95ee 923d 6bc2 c5bc
000001b0: b4a6 43be c34c ea3d 644e 8dbd 4259 f7bb
000001c0: c684 643d 356a 46be 54b0 de3d 8a6f c1bd
000001d0: 63c6 09bd 854f ffbc fc26 a83d 42d8 a9bd
000001e0: 5f46 9b3c a80b d33d 8f0f 553e 6b51 b43c
000001f0: 0881 7e3d f8bc 6c3d b0ab 233e f47b e03d
00000200: 7a13 04bc eb37 e83d 8b29 0fbe 7113 323d
00000210: c3ba 53bc 1741 133c dbd1 8d3e 9861 9dbe
00000220: 04a8 2b3e 67e9 253e 6f90 7cbd 4ad7 60be
00000230: 94d1 6d3d 0c2c 40be e31c 50be 88d5 813e
00000240: 936d 4f3c e776 063e fcb3 a03c 86b4 c03c
00000250: 7ff1 1b3e acb3 46bd decd d23d 81e9 77be
00000260: dfda d23d 6da3 c0ba c859 533c 7251 2cbd
00000270: 5c57 19be 3426 7e3d e19d 423e 56e5 c4bd
00000280: 0754 873d 6098 8ebd bcb4 7abb 6b13 a2bd
00000290: 7d86 b23d 9a34 d6bd 02cf 6abc 674f cf3d
000002a0: b6ad 343d 7c76 96bd c704 efbd 2c46 e63c
000002b0: f8c2 a93c 725a 5cbd 5793 0abe 5c2d 02bd
000002c0: 330b 97bd 62b1 a43d 697d a03b d382 6ebd
000002d0: 68e6 1c3d f04e aa3d 0b87 a8bd 7305 21be
000002e0: 36d8 9f3d 5504 423c 3149 a83d 59c4 7dbe
000002f0: f20f f03d 94d2 1e3e e721 efbd 1433 9f3d
00000300: d7c9 5c3e b7a5 e3bd fa59 d13c b5f5 823d
00000310: 6b8b 6fbc 3e4c 8c3d 3871 9b3d d974 843d
00000320: 7604 cd3d 8045 ee3b f2da 853e 70a9 833c
00000330: 16b8 42bd e7b7 2b3d 9544 283e e0b8 853e
00000340: 53d3 fbbd 6999 083e 9c0f 77bd 7640 9d3d
00000350: 6397 a6bc 8bde fd3c b490 a23d fabd d13d
00000360: c146 813d f4d6 bb3b d8e1 3f3c 4c97 4cbb
00000370: fed9 4bbe 407e 5d3d 22ca d6ba 5b39 443d
00000380: a2d2 893d 799b f53d 9b4f 8c3d 12a4 29be
00000390: 2885 f63d 3ef1 64bd f595 113e e3e8 f83c
000003a0: 4cd8 e43d c57d 663d f7b7 8e3d 83be bc3d
000003b0: b656 83be 259e d4bd 68a4 bb3d 7994 523e
000003c0: 1a86 0bbe 3308 aebc aba5 d9bd ade5 833d
000003d0: e9fe 4f3c 21b6 383d 185d 44bd a193 dabd
000003e0: 2b8e 203e 8f6c ab3e 0b6d da3b 3ac6 a9bd
000003f0: ffc2 383a 8a31 a8bd 0b51 183e 1845 b83d
-0.15414238 0.25030723 0.012598577 0.23536384 0.037566528 -0.019451302 0.07398031 0.050497063
0.0828954 0.213095 -0.22281894 -0.039696418 0.0010051862 0.15366681 0.23324706 0.23638341
0.037569754 0.01210548 -0.093713954 0.11687812 0.033174217 -0.05812989 -0.021110984 -0.14534156
0.086308435 0.04495875 -0.019768085 0.004484602 -0.024362154 0.03279359 0.14143391 0.0046256846
-0.02876323 0.044546474 -0.08241471 0.006588448 0.025022164 -0.124043405 -0.08390231 -0.048994783
-0.13534267 0.06156336 0.023592215 0.11687245 0.0877445 0.17496662 -0.20778745 0.0051851263
0.09515931 0.015021498 -0.0055151004 0.033619564 -0.12546849 0.086245894 0.22275914 -0.049106855
0.055392332 0.055830814 -0.15582328 0.046842765 0.18667226 -0.12324395 0.14822374 -0.05525185
-0.07592554 0.13377926 0.22064625 0.01444194 -0.12961265 -0.06365031 -0.13242602 0.0408395
0.06288381 -0.07956935 0.14983225 -0.07975424 0.036293138 -0.03766326 -0.004616573 0.027031725
-0.09102034 -0.043211516 -0.07795755 -0.06314228 -0.06778607 0.04230662 -0.0493323 0.031668123
0.026714865 0.013218119 0.11135222 0.11937752 -0.06995209 0.04859116 -0.020768518 0.027993122
-0.0587184 -0.058167364 -0.041551966 0.01167506 0.26334104 -0.069850355 -0.1990824 -0.1031459
0.05518964 0.0026864035 0.07174412 -0.024140557 -0.19106561 0.114404224 -0.068997175 -0.007548482
0.055790685 -0.19376452 0.10873476 -0.094451025 -0.033636462 -0.031165848 0.08210561 -0.08293201
0.018954454 0.10304958 0.20806716 0.02201148 0.062134773 0.057797402 0.15983462 0.10961142
-0.008061284 0.113387905 -0.13980691 0.043475572 -0.012922945 0.008987687 0.2769917 -0.3073852
0.16763312 0.16202317 -0.06166118 -0.21957126 0.058061197 -0.18766803 -0.2032352 0.25358224
0.012660402 0.13131295 0.019617073 0.02352358 0.15228842 -0.048511192 0.10293172 -0.24210168
0.102956526 -0.0014697142 0.0128998235 -0.04206986 -0.14974731 0.062048152 0.19005539 -0.09614055
0.06607824 -0.06962657 -0.0038254699 -0.0791386 0.08717058 -0.10459252 -0.014331581 0.10122567
0.044110976 -0.07346818 -0.11670833 0.028109632 0.020722851 -0.053797193 -0.13532768 -0.03178154
-0.07375183 0.080416456 0.0048977626 -0.058230232 0.03830567 0.083158374 -0.082288824 -0.15724735
0.07804911 0.011841853 0.08217085 -0.24781932 0.11721791 0.15510017 -0.11676388 0.07773414
0.21561371 -0.11115592 0.0255556 0.06394521 -0.014620642 0.068504795 0.07589954 0.064675994
0.100106165 0.0072714686 0.26143605 0.016072005 -0.04753884 0.04192343 0.16432412 0.2611761
-0.12296166 0.13339771 -0.06031762 0.076783106 -0.020335859 0.030989906 0.07937756 0.10241313
0.06312323 0.0057324115 0.01171156 -0.003121811 -0.19907376 0.05407548 -0.0016387145 0.04790626
0.06729628 0.11992545 0.06851121 -0.16566494 0.12037116 -0.05589413 0.1421736 0.030384487
0.11174068 0.056272287 0.06968682 0.09216025 -0.25652093 -0.10381726 0.091622174 0.2056445
-0.13625374 -0.021244144 -0.10627302 0.064402916 0.012695053 0.045095567 -0.047940344 -0.10672689
0.15679233 0.3348126 0.006665831 -0.08289762 0.00070480997 -0.08212574 0.14874665 0.089975536

network_body.vector_processors.0.normalizer.running_mean f4 [13]
00000000: 3fdf 2941 2821 be41 0f0e 3fc1 43a7 e8be
00000010: 2825 283e 3a86 cebe 8943 c8bd 9e45 aa40
00000020: 4f7c 343f b82e acc0 eac7 d5be 4c36 513e
00000030: 5a56 8ebe
10.617003 23.76619 -11.940932 -0.4544011 0.16420424 -0.40336782 -0.09778506 5.320998
0.7050218 -5.380703 -0.41754085 0.20430869 -0.27800256
