Assets/ML-Agents/Brains/MaxSpeedAgent2.onnx (onnx, 144260 bytes, 11 tensors)

69 f4 [13]
000000 be eb 11 42 12 94 1a 41 52 59 0c 42 ac a4 e8 3e
       36.480217 9.66115 35.087227 0.45438135
000010 0d f8 c2 3e fb a7 c8 3e e4 e2 ae 3e 9e 3e eb 41
       0.38079873 0.3919066 0.3415748 29.405575
000020 84 ae 37 41 21 15 e3 41 9e e3 b0 3f 46 0c 6d 3f
       11.480106 28.385317 1.3819463 0.9259685
000030 bd 08 7c 3f
       0.98450834

action_model._continuous_distribution.log_sigma f4 [1, 4]
000000 35 6e af bf 38 49 9c bf 88 87 b0 bf 90 6c 9c bf
       -1.3705508 -1.2209845 -1.3791361 -1.2220631

action_model._continuous_distribution.mu.bias f4 [4]
000000 ec bd 16 bb 58 97 bd 3c 50 d4 1e bc 55 a2 37 3e
       -0.0023001386 0.023143455 -0.009694174 0.17933019

action_model._continuous_distribution.mu.weight f4 [4, 128]
000000 de c7 2c bd d1 bf 7a 3d 67 6e a8 3d e5 dd 12 3d
       -0.042182796 0.061218087 0.082241826 0.035856146
000010 c2 0c e2 3c 89 2c 4e 3b 1f 8d ad bd 6b 94 20 3d
       0.027593974 0.003145965 -0.08474182 0.039204042
000020 a8 19 7d bd 97 9a 73 3c 82 a9 a4 3d 7c de 6b 3c
       -0.061792046 0.0148684 0.080401435 0.014396306
000030 77 dd 85 3d 51 a8 b3 3b 3f 6b 3a 3d 93 32 49 bd
       0.06536382 0.0054827114 0.045512434 -0.049120497
000040 dd 48 4f 3d 42 ae 24 be 96 f6 6a be bf df 8a 3c
       0.050606597 -0.16082099 -0.22945628 0.016952394
000050 ca ba f0 bc 36 81 2a 3c b7 3d 20 bd 75 0c db bd
       -0.029385943 0.010406783 -0.039121356 -0.10695735
000060 74 eb f7 bc ff 8a 03 be 0e 3d 7b bd 8c 4e 30 be
       -0.03026364 -0.12845992 -0.061337523 -0.17217463
000070 5e 97 37 bd 0a 05 be 3c 26 15 06 3d d5 01 da 3c
       -0.04482209 0.023195762 0.032735012 0.026612202
000080 f9 86 a3 3d 3d aa 14 bd 8f 0d 00 bd 05 50 8b 3d
       0.07984728 -0.036295164 -0.03126293 0.06802372
000090 cc 2e 2c 3d 28 a0 62 bd e8 de 68 bd cc 0c 89 bd
       0.042036816 -0.05532852 -0.056853205 -0.06691894
0000a0 22 99 c1 3d 04 8a 81 bd 4c 89 d7 bd f4 6b 8c bc
       0.09453036 -0.063251525 -0.10524234 -0.01714132
0000b0 3a 99 80 3d be 3b e7 bd 19 76 a3 bd 0e 8f ba bc
       0.06279226 -0.11290692 -0.0798151 -0.022773292
0000c0 65 1c a2 3c 6e 92 ce bd 3b d7 0e 3d 47 63 1b 3c
       0.01978893 -0.10086523 0.03487323 0.009484119
0000d0 49 e7 57 bc a2 3b 51 bd 48 09 79 bb 78 19 87 3c
       -0.013177701 -0.05108226 -0.0037999917 0.016491637
0000e0 3b f9 aa bd f7 cc 4b bb be 7b bd 3d 09 7a 72 3d
       -0.08348318 -0.003109751 0.092521176 0.059198413
0000f0 73 ef 15 3e b3 99 c0 3c 71 1f 94 3c 47 0d ef 3d
       0.14642124 0.02351079 0.018081399 0.11672454
000100 73 c0 8c bd 02 d6 b9 3c 4a 4e 73 bc 1a 03 9c b9
       -0.06872644 0.022685055 -0.014850209 -0.0002975695
000110 bf b2 23 bd ef 23 a8 bd ff 81 c4 bd a2 f5 f7 3c
       -0.039965387 -0.08209979 -0.09595107 0.030268494
000120 b6 e3 81 3d be ab 1f be eb ce 73 3c 30 da 85 3c
       0.063422605 -0.15592858 0.014880876 0.016339391
000130 26 06 48 3d 77 a6 dd bc a7 01 07 be 00 cf 98 3d
       0.04883399 -0.027056916 -0.13184224 0.07461357
000140 53 94 f3 3d 39 43 ae bc 53 56 ac ba 1b dd e1 bb
       0.11893525 -0.021272289 -0.0013148285 -0.006892813
000150 31 57 61 3c df 9e b0 bd 70 15 f5 3d 06 e0 ae 3c
       0.013753698 -0.08624052 0.119669795 0.021347057
000160 e5 ce 88 3b 16 13 b3 3d 21 29 57 bd db 05 d2 3d
       0.0041750544 0.08743875 -0.052529458 0.10255023
000170 da 53 00 bd dd 0d d1 bd 42 35 a7 3d 5c cc ca bd
       -0.031329967 -0.10207722 0.08164455 -0.0990226
000180 78 8b b7 3d f9 2a 5e 3c 06 21 38 be 39 be 5d bd
       0.089621484 0.01356005 -0.17981347 -0.05413649
000190 42 9f 02 be 6c 4c c4 bd 6f aa 1d bd 5d 97 b0 bc
       -0.12756065 -0.09584889 -0.038492616 -0.02155655
0001a0 25 a6 15 be 1b 3a 84 3d bf 74 46 bd 8c 89 67 bd
       -0.1461416 0.06456395 -0.04845118 -0.05652766
0001b0 63 b8 5d 3e 0c 1f 86 bd 97 52 28 bd 2c ad fb 3c
       0.21652369 -0.065488905 -0.04109439 0.030722223
0001c0 2d 21 8c 3d f3 33 3f 3d 7a 54 a0 3d 09 f5 1c be
       0.06842265 0.046680402 0.078286126 -0.15327848
0001d0 40 fe 94 3d ac 92 23 3d 5d 9f 89 3c 79 d5 cf bd
       0.07275057 0.0399348 0.016799623 -0.101481386
0001e0 d8 ac 38 be f8 e4 0d bd e9 79 3d bd f7 9e 37 be
       -0.18034685 -0.03464219 -0.04625884 -0.17931734
0001f0 8f 18 41 bc f1 c3 50 bd 10 e6 9d 3b 6a e2 96 3d
       -0.01178564 -0.050968114 0.0048186854 0.07367404
000200 f7 b1 ac bd 39 2e 38 be 05 fb a9 3d 74 6e db bc
       -0.084323816 -0.17986383 0.08299831 -0.026786067
000210 97 be d7 bd 15 40 9f bd 15 87 d5 3d fe d5 c7 bb
       -0.10534399 -0.077758946 0.104261555 -0.006098508
000220 9f 28 f2 3d d2 c3 1c be 45 03 08 be f7 61 38 be
       0.11824154 -0.15309075 -0.13282497 -0.1800612
000230 e9 04 2a bd 49 d4 92 3d a8 d1 1b 3d 29 23 b9 3d
       -0.04150859 0.071693964 0.03804174 0.090399094
000240 3c 7c ab bc 0b 61 30 3d 86 21 4d 3e d0 a7 4c be
       -0.020933263 0.043061297 0.2003232 -0.1998589
000250 cc 65 00 be 9e f6 f2 3b f7 5f 0b bd bd 6e 23 3d
       -0.12538832 0.007414653 -0.034027066 0.03990053
000260 f5 4f 08 3e 57 84 66 3d b1 5d dd bc 18 4a 29 3d
       0.13311751 0.056278553 -0.027022215 0.041330427
000270 e1 27 36 be 6a f6 ab bd dc 84 2a be 30 66 01 3d
       -0.1778865 -0.08396609 -0.16652244 0.031591594
000280 84 3e 69 3d 93 25 f2 bc 60 12 87 3d ba fa 96 3a
       0.056944385 -0.029558932 0.06595302 0.0011518814
000290 17 0a cb 3c 60 c4 98 3c 25 7b 42 3c 1b 9e 0b bd
       0.024785085 0.018648326 0.01187018 -0.034086328
0002a0 8b f8 e4 bd 3a 7d 3b bd 20 e0 31 bc d0 61 24 bd
       -0.11180218 -0.045773722 -0.010856658 -0.040132344
0002b0 1e 6d 4d bd 32 21 14 3d cd 0f cd 3d 74 e1 06 3e
       -0.05015289 0.03616447 0.100127794 0.13171941
0002c0 24 2d 7e 3b 15 e0 ff b9 22 1e e1 bd b8 a5 0d be
       0.003878423 -0.00048804344 -0.109920755 -0.13832748
0002d0 17 36 44 3c c7 83 d0 3d 69 ea ed bd 26 14 10 bd
       0.011975787 0.101813845 -0.11616976 -0.035175465
0002e0 78 48 f5 bd 82 5b 88 bd 80 cb de bc 81 2a 7d bd
       -0.11976713 -0.06658079 -0.027196646 -0.061808113
0002f0 b7 ca 77 bd f1 9b d5 bd 96 6c c8 3c c0 d7 11 be
       -0.06049606 -0.10430134 0.02446584 -0.14242458
000300 2f 23 05 3c 00 1a 3e 3b 4a dd 62 be 2a e1 26 bd
       0.008126064 0.0029007196 -0.22154728 -0.040742077
000310 44 25 11 bc 0c 03 b4 3c bb 8d 04 bd 2d 4f 6b 3d
       -0.0088589825 0.02197411 -0.032361727 0.057448555
000320 d1 c6 2b 3d 21 2d ba bc 4b 54 d5 3d 49 18 d2 bd
       0.041937653 -0.022726597 0.10416468 -0.10258538
000330 4d b9 9f 3d b7 57 ad bd 09 d3 46 3d 73 1c 81 be
       0.07799015 -0.08463996 0.048541103 -0.25217018
000340 a1 72 d3 bd 8a 23 12 bd 09 2c 7f 3c 6f 55 c5 3a
       -0.10324598 -0.035678424 0.015574464 0.0015055368
000350 b0 22 4c bd 7e 2f 92 bc d2 2a f1 bd 51 05 a8 3d
       -0.049837768 -0.017844912 -0.117757455 0.08204139
000360 5f 00 60 3c f5 23 0d be 2c 76 ae bc 0c c7 62 3c
       0.0136719635 -0.13783248 -0.021296583 0.013841402
000370 69 82 3a bd 77 b6 1e 3c 5b 11 8e 39 f7 3c f9 3b
       -0.045534525 0.009687058 0.0002709728 0.0076061445
000380 cd e8 2d 3e 8d 71 8e 3b 78 96 3a 3e e0 73 cc 3d
       0.16983338 0.0043470324 0.18221462 0.09983039
000390 96 af f4 3c 1d 83 58 3d 11 ad 60 3e 37 97 48 bd
       0.029868882 0.052859414 0.2194102 -0.048972335
0003a0 37 c7 55 3d 1b 78 40 3d bd a0 c8 bd d7 b5 79 bb
       0.05219194 0.04698954 -0.097962834 -0.003810277
0003b0 51 85 5e 3d f0 58 b2 bd b1 6f c0 bd 60 c8 78 3d
       0.05432636 -0.0870837 -0.093963034 0.060737967
0003c0 e1 bf 11 be ea eb 01 3c ab cf 24 bc d0 bf c5 bd
       -0.14233352 0.007929781 -0.0100592775 -0.09655726
0003d0 b6 24 17 bb d8 ca 8f bd 2d f7 7c 3b ed d5 1a bd
       -0.0023062653 -0.07021111 0.0038599477 -0.03780167
0003e0 5d 26 ad 3d 3d db 3a 3d c8 18 14 3d 66 aa e7 3d
       0.08454583 0.04561924 0.036156446 0.11311798
0003f0 3a c8 0e 3e d7 18 29 be ba 37 ac 3d 45 a7 53 3e
       0.13943568 -0.16513382 0.084090665 0.20669277

network_body.linear_encoder.seq_layers.0.bias f4 [128]
000000 49 83 14 bd de 8c 89 3d 2f 16 04 bd 01 9b 30 3c
       -0.036258016 0.067163214 -0.03224772 0.010779143
000010 61 e9 82 bd 49 6c 31 bc 52 01 3f 3c c1 e0 a3 bd
       -0.0639217 -0.01082904 0.01165803 -0.08001853
000020 c7 ba 3c 3d d3 c9 ee bc ae 96 0b bd 90 b3 dc 3b
       0.046076562 -0.029148972 -0.034079246 0.0067352727
000030 1b 68 4f 3a 16 4c 90 bd 1c fc 34 3d 3b 7a 43 ba
       0.0007911936 -0.07045762 0.044185743 -0.00074568734
000040 07 c8 eb 3d b9 3e b2 3d 1f 49 9e bd 6f 9c 16 3d
       0.115127616 0.0870337 -0.077287905 0.03677028
000050 ef 8b 42 3d b1 df 94 3d 57 80 a4 bb 17 48 28 3c
       0.047496732 0.07269228 -0.005020182 0.010271094
000060 13 2e e3 3d 32 de 1a 3d 53 d0 c5 bb 86 13 de 3d
       0.11092772 0.03780956 -0.006036797 0.108435676
000070 b4 e1 99 bc 5e 93 45 bd 1c 15 ae 3d 69 e4 3f 3d
       -0.018784381 -0.048236243 0.0850012 0.04684869
000080 cf b4 66 bc 25 30 eb bc e3 a3 54 3d 30 cc dd 3b
       -0.014081194 -0.02870948 0.051914107 0.006768726
000090 ad c9 29 bd 6d 04 d7 3c 67 ad ca 3d 1c 82 b1 3d
       -0.0414521 0.026247228 0.09896355 0.086673945
0000a0 69 26 8e bc 20 83 02 bd 28 68 94 3c 4c 13 06 3e
       -0.0173523 -0.03186333 0.018116072 0.13093299
0000b0 d3 a7 36 bd 42 ec c8 3d 8f d6 1d 3e 41 28 12 bd
       -0.044593643 0.098106876 0.15413879 -0.03568292
0000c0 e6 ff b2 3d 01 ff e5 3c 83 35 cb 3d e9 03 cb 3d
       0.08740215 0.028075697 0.09922316 0.09912855
0000d0 dc 32 3b bd 8a 5d 0f bd 5c 64 9b 3d 7c f9 95 bd
       -0.0457028 -0.035001315 0.075875014 -0.07322976
0000e0 91 77 22 3d dc b6 a6 bd 55 14 57 3d ea 1b 8d 3d
       0.03966481 -0.081403464 0.052509625 0.0689009
0000f0 83 6f 27 3d cc 46 a1 3d 09 6d e2 bc bd 7d 88 bd
       0.04087783 0.078748316 -0.027639883 -0.06664608
000100 9e f9 cd 3d 68 7b 9e bd 10 07 55 3c 67 ef 0e bd
       0.10057376 -0.077383816 0.013002172 -0.03489628
000110 87 d0 b0 bd 0b b0 2d 3d cf 37 00 3c 69 62 bc 3c
       -0.086335234 0.042404216 0.007825806 0.022996144
000120 96 2f 17 bd 6b b6 04 3b 3f c8 82 3d 93 56 9c bd
       -0.036910616 0.002025033 0.0638585 -0.076337
000130 13 51 60 3d 2d 56 72 3d 3e ca a9 3d 5d 5d 4b bb
       0.05476482 0.059164215 0.08290528 -0.003103099
000140 fa 07 65 3b b5 f1 8f 3d bb 0e 3d bd fe 60 ac 3d
       0.0034947381 0.07028524 -0.046156626 0.08416937
000150 0c 4c 4a bd 92 4d 2e 3d 7c d0 3b 3d 97 0d a5 bd
       -0.04938893 0.042554446 0.045853123 -0.08059233
000160 13 01 aa 3d f3 46 af 3d b0 eb f4 bc 14 51 e9 bd
       0.08300986 0.08558454 -0.02989754 -0.113924176
000170 f9 6f e8 3d 18 29 ea 3d ec e8 0e 3d bf 0b ed bb
       0.11349482 0.11433619 0.0348901 -0.0072340663
000180 af db 5a 3d e3 5b c8 3c 32 81 d9 3d e7 6d a4 bd
       0.053432163 0.024457878 0.10620345 -0.08028775
000190 50 94 8d bd b4 1d e0 3d d6 7c 18 3d 07 73 75 3d
       -0.06913054 0.109431654 0.037228428 0.05992415
0001a0 14 42 36 3d 42 c6 e1 bc e1 7c 3b bd 6d aa af 3c
       0.04449661 -0.027560357 -0.04577339 0.02144357
0001b0 54 66 c3 3d 0a 3f c0 bd d5 ba 8f bd 28 df 09 be
       0.09541002 -0.09387024 -0.07018057 -0.13464034
0001c0 87 5b 60 ba c0 55 52 3d 04 e2 ab 3c b0 e7 61 3d
       -0.00085585605 0.05135131 0.020981796 0.055152595
0001d0 86 4a 38 3d 89 26 1b bd 84 fb af 3d 8e 31 60 bd
       0.044992946 -0.037878547 0.08592895 -0.05473476
0001e0 9f ff c5 3d 34 bb 5c bd 7c e5 2a 3c 98 95 d9 3d
       0.096678965 -0.05388947 0.01043069 0.10624236
0001f0 ca 90 c3 bc 67 a6 db bd b2 1d 2b 3d 00 b3 1f 3d
       -0.023872752 -0.10725098 0.041776367 0.038989067

network_body.linear_encoder.seq_layers.0.weight f4 [128, 13]
000000 d8 2f 84 be 32 fb fd be b1 31 f1 3d 8b 17 68 bc
       -0.25817752 -0.4960571 0.11777056 -0.014165769
000010 5b 1f 32 be dd 07 62 3e 5d 76 ac 3e 77 3a d3 bd
       -0.17394774 0.22073312 0.33684054 -0.10313886
000020 c9 a6 7a be 02 b4 22 3f 5b 1f b4 3e 89 52 03 be
       -0.24477686 0.6355592 0.35180172 -0.12824453
000030 a7 2c 2e 3d e6 8e 0a 3f 3e 55 ed be 0e 31 34 3f
       0.042523053 0.54124296 -0.46354097 0.7038735
000040 2f b8 1d be 1d a2 59 3d 90 c9 3f be d5 00 ec 3e
       -0.15402292 0.05313312 -0.18729234 0.46094385
000050 94 dd 07 3b b8 53 83 3b 7e e9 bd be a9 a5 58 be
       0.0020731436 0.004007783 -0.37092203 -0.21156944
000060 b5 96 b4 be 48 21 26 3e f4 18 10 be 17 f2 83 3e
       -0.3527123 0.16223633 -0.14072019 0.25770637
000070 a7 56 a7 3e 8e f4 a3 3e 1d 25 27 bd 26 20 fa be
       0.32683298 0.32022518 -0.04080688 -0.48852652
000080 23 3e 02 bd a6 7d db be 95 98 91 be ba 7e 85 bd
       -0.03179754 -0.428693 -0.28436723 -0.06518312
000090 04 49 38 bd 4b da b3 bd cb fb 0f 3c 7e a2 2e 3f
       -0.044991508 -0.087818705 0.008788059 0.68216693
0000a0 40 32 e7 3e be b1 2b be 7d 17 08 bf 25 e2 af be
       0.45155525 -0.16767022 -0.5316084 -0.34352222
0000b0 c5 3c c6 3d bd 37 9d 3e 88 0d f5 3e b5 db 1f bd
       0.096795596 0.30706587 0.47861886 -0.03902789
0000c0 90 99 04 bf fc 7f ac 3e fd 75 b1 be 3a cf 2f 3e
       -0.5179682 0.33691394 -0.3466033 0.17168894
0000d0 be 80 c4 bd f2 b8 a0 bd 0e 88 04 3f 7e 60 49 3e
       -0.09594868 -0.078477755 0.517701 0.19665715
0000e0 a3 84 5d be a1 32 03 be 36 01 a9 bc ea e5 48 bc
       -0.21632628 -0.12812282 -0.02063046 -0.012261847
0000f0 95 50 cd 3d a6 43 95 be f3 ee 51 3d 42 db 48 be
       0.100251354 -0.29153174 0.05125327 -0.1961489
000100 db b2 7d 3e 2d 7c 20 3e 6b 46 37 be 0e cb 9a 3e
       0.24775259 0.1567237 -0.17897956 0.30233043
000110 24 49 98 3e 7e 6d 8c 3e 82 26 89 bd d9 bc 0e 3f
       0.29743302 0.27427286 -0.06696798 0.5575691
000120 a7 b2 02 3f a5 fa 13 3e ec 49 91 bb 1a 54 98 3d
       0.5105385 0.14451082 -0.004433861 0.07437916
000130 de d0 56 3e 65 39 d5 3d 13 05 00 bd a2 e1 80 3e
       0.20978114 0.10411338 -0.03125484 0.25172144
000140 3d 94 0e be 8f 48 fb 3d c7 8e 59 3e 2f d3 e1 3a
       -0.13923736 0.12269699 0.21245871 0.0017229075
000150 49 0c 07 be de 3f fb be ef 34 8d 3e 1f a3 3e bd
       -0.1318828 -0.49072164 0.27579448 -0.046542283
000160 90 a2 75 3d 35 73 1f 3f 31 31 2a be 48 f7 7c 3d
       0.059969485 0.62285167 -0.16620328 0.061759263
000170 67 7c 9c 3e 08 27 bc 3c b9 07 c8 3d 84 e9 90 be
       0.3056366 0.02296783 0.09767098 -0.28303158
000180 b7 85 92 3e 11 41 2b be a2 c4 b4 be 3f 24 b9 3e
       0.2861764 -0.1672404 -0.3530627 0.36160466
000190 04 b0 43 3f 2f 23 24 3e 47 53 b6 be c8 ae df bd
       0.76440454 0.16029046 -0.3561041 -0.10922009
0001a0 ff be 0c be 22 9c c7 bd 3a e6 5d be c1 80 9b 3d
       -0.13744734 -0.09746577 -0.21669856 0.07592917
0001b0 90 f5 90 3e a7 1b 0e 3f c9 39 29 be f3 b2 30 3b
       0.2831235 0.55510944 -0.1652595 0.002696213
0001c0 7f eb 93 3e d2 c9 f8 3d b5 d1 cc be a4 3c 88 bd
       0.28890607 0.12147869 -0.40003744 -0.06652191
0001d0 f1 16 34 3e d9 37 e6 3e fe fd f4 be 50 94 76 3e
       0.17586876 0.44964483 -0.4785003 0.24080014
0001e0 3a fe 6e 3c 55 9a 44 3e 85 78 de 3b 75 6e 00 3f
       0.0145869795 0.19199498 0.0067892694 0.50168544
0001f0 17 9f cc 3e c6 9e b4 bd f0 9e cc be 54 91 44 3e
       0.39965126 -0.08819346 -0.3996501 0.19196063
000200 6b 40 a7 be 71 70 6a be b8 21 03 3f b8 94 b8 3e
       -0.32666335 -0.22894455 0.51223326 0.36050963
000210 28 71 19 bd d3 cd a5 bc 3b d3 e2 3e 4b 86 d3 3e
       -0.03746143 -0.020239746 0.4430178 0.41313395
000220 e1 73 e2 bd 3d b4 45 be b0 20 5c be 30 f5 6a 3d
       -0.110572584 -0.19307037 -0.21496844 0.057362735
000230 cc 9e b5 3b e0 62 52 be c4 00 3c bd f6 7b 4b 3b
       0.0055426117 -0.2054553 -0.045899168 0.0031049228
000240 58 60 c6 3e f5 e7 14 bd d0 c9 f2 3c 11 07 c9 3d
       0.3874538 -0.036354024 0.029637247 0.09815801
000250 d2 3e 7d 3d ac 99 02 3e 7b aa c3 be 9d 15 25 bf
       0.06182749 0.12753934 -0.38216004 -0.64486104
000260 7f df 4d bf ad ea d7 be 27 e2 95 be 37 84 d1 be
       -0.8041915 -0.4217123 -0.29274103 -0.40921184
000270 40 3d c9 b8 38 40 25 be 6d 2b 2d 3e 61 cf b1 3e
       -9.5958356e-05 -0.16137779 0.16911097 0.3472853
000280 09 0b 41 3e 08 b6 2d be ae 5c 01 be 1a fa bd 3e
       0.18851866 -0.1696397 -0.1263301 0.37104875
000290 4b be 35 3d ed a4 1e 3f d1 ff bc be 96 ee 34 3f
       0.04437093 0.61970407 -0.36913922 0.70676553
0002a0 cf 05 d3 bc d9 9c 91 be ce 53 00 3f f3 2d cc be
       -0.025759606 -0.28439978 0.50127876 -0.39878806
0002b0 4b 71 c3 bc a4 9e 72 3e 49 14 b8 bd c1 00 84 bd
       -0.023857733 0.23693329 -0.08988244 -0.06445456
0002c0 a8 0a cf be b2 7c de bc aa 1c 1b 3d f3 d1 8c bc
       -0.40437818 -0.027159069 0.037869133 -0.017189955
0002d0 ff 05 cc be f1 bb 47 bd ca 7d d2 be 1f 68 f5 bc
       -0.39848325 -0.04876322 -0.41111594 -0.029956875
0002e0 4f 04 de 3d 7b 6a d6 bd 23 7d 1a 3f d6 a2 9c 3e
       0.108406655 -0.10469528 0.60347193 0.30592984
0002f0 15 49 1d be 40 a2 38 be 81 89 0f 3e 05 9d 35 bf
       -0.1535991 -0.18030643 0.14017297 -0.7094272
000300 bb 99 f8 3e d6 14 25 3e 5d 90 87 3e 17 ce 27 bf
       0.48554787 0.1612123 0.26477328 -0.65548843
000310 54 d7 ba be 89 3d 1b 3d 24 00 8e 3e f4 3e f5 bc
       -0.36492407 0.03790048 0.27734482 -0.029937245
000320 a3 3c 21 3e a5 e2 0f 3f 0e c6 c3 bd d9 3e ec bd
       0.15745787 0.5620521 -0.0955926 -0.11535425
000330 d9 7a 1b 3e d8 db 9c be e7 5a f5 3e 27 80 f7 3d
       0.15183581 -0.30636477 0.47920915 0.1208499
000340 c5 dd 8a 3c c4 a1 00 be bd ce 40 3e a6 e4 56 be
       0.016951451 -0.12561709 0.18828864 -0.2098566
000350 0b 80 92 3e ad be 2e be 33 f6 a5 3d 2f 03 c3 3e
       0.28613314 -0.17064925 0.081035994 0.38088366
000360 77 96 c8 bd 06 6d 64 be 52 03 28 3e 82 a8 1c bd
       -0.09794324 -0.22307214 0.16407517 -0.03824664
000370 36 5d 1e be 1a 45 8d 3d 88 35 f6 be 5f e1 7f bb
       -0.15465245 0.06897946 -0.48087716 -0.0039044244
000380 13 28 2f bf 5e 8a 7e be ba 8a 07 bf d2 b2 24 bd
       -0.68420523 -0.2485747 -0.52946055 -0.0402096
000390 69 8e ae bc 56 5e 8b be a0 19 2d 3e ff 9b a5 bc
       -0.02130814 -0.2722041 0.16904306 -0.020215986
0003a0 a7 ee d0 bd f6 c8 a2 3d a3 40 43 be 6e 87 44 3e
       -0.10201769 0.079484865 -0.19067626 0.19192287
0003b0 bb 03 0d 3d 44 d8 cd 3d e7 1a c9 be a8 0f 48 be
       0.034427386 0.10051015 -0.39278337 -0.19537222
0003c0 d5 c9 e3 3e f4 bf bb 3e 24 14 83 bd c0 a0 33 bd
       0.44489923 0.36669886 -0.06400326 -0.043854475
0003d0 e5 e0 38 3f e4 88 8b 3c 6c ac 1d be 91 f6 c1 be
       0.7221816 0.017033048 -0.15397805 -0.37883428
0003e0 b8 61 0d be e0 22 cb 3d 9a 2f af 3d 50 ee 77 3e
       -0.13806808 0.09918761 0.08554001 0.24212003
0003f0 19 0a f2 bd 3c 9b ba be 82 a8 88 3e 4a b1 e3 bd
       -0.11818332 -0.3644656 0.2669106 -0.111177996

network_body.linear_encoder.seq_layers.2.bias f4 [128]
000000 25 a7 f8 bd 73 b9 f9 bc f0 ff 28 bd 6d ec 25 bd
       -0.12141255 -0.030483937 -0.041259706 -0.040508676
000010 e9 89 c7 bc f7 e1 7b bd e8 ce 75 bd dc 92 8b 3d
       -0.024357753 -0.061494794 -0.060011774 0.068151206
000020 77 d4 91 bd 3f c8 8f 3d 42 00 ec bc b4 dd 6c bc
       -0.071206026 0.07020616 -0.028808717 -0.014457155
000030 ae 3d 53 bc cc 7d 0d 3d c1 66 26 bd fb f3 09 bd
       -0.012893124 0.034543797 -0.040625338 -0.033679944
000040 d6 62 7c 3d da 5b b3 bc 35 98 96 3c 57 12 a8 bc
       0.061617695 -0.021894384 0.018383125 -0.020516558
000050 4c be cf bd 21 dd 36 3d 3c fe d5 bd 5a 07 b0 bb
       -0.10143718 0.04464448 -0.10448882 -0.00537197
000060 00 3b 2d be 3b 41 05 3c a1 cd f4 3c 0f d8 3f 3c
       -0.16917038 0.008133228 0.029883208 0.011709227
000070 85 32 03 3e 35 dc e6 bb 78 3f ba bd 92 86 93 3d
       0.1281224 -0.0070452937 -0.09094137 0.072034016
000080 a8 78 60 3c 4f 65 14 bd c5 e7 f7 bd 47 52 ba 3d
       0.013700642 -0.036229428 -0.121047534 0.090977244
000090 70 95 1b bd fc 33 0b bd 83 df d0 b9 64 5c bc 3c
       -0.03798431 -0.033985123 -0.0003983938 0.022993274
0000a0 c1 f1 cd 3c 5b e5 76 3c e5 53 6b 3d 1e 6e ad 3d
       0.025139691 0.015069331 0.057453055 0.08468269
0000b0 34 60 5f 3c 1a a4 c3 bd c8 12 17 bd 6f ba c4 bc
       0.013633776 -0.09552784 -0.036883146 -0.02401468
0000c0 fa 36 b8 bc 61 c5 92 3c b3 65 c6 3d 8b 40 01 bd
       -0.022487152 0.017916383 0.09687366 -0.031555694
0000d0 c6 1b 46 bb 81 9d 65 3d b9 65 00 3d c3 6a 9e bc
       -0.0030228957 0.05605841 0.03134701 -0.019338017
0000e0 2d cb 3b bd 5a 46 da bb 8c 87 65 3d 42 4d 0b bc
       -0.04584806 -0.0066612186 0.05603747 -0.008502306
0000f0 0f 3b f9 bd 9d da 54 3d 63 b6 a7 3c 84 f3 3e bd
       -0.12169468 0.0519663 0.020472711 -0.046618953
000100 1e d3 f4 bd 8e d0 bc 3b 1a a0 bb bb df 3d 7e 3d
       -0.1195433 0.0057621663 -0.0057258727 0.062070724
000110 be 31 1a 3d 40 de f9 3b 72 78 ca bd 1b ea 45 bb
       0.037645094 0.007625371 -0.09886254 -0.0030199352
000120 98 e4 ba 3c b7 af 17 3d 08 fd d1 bc de be 49 3d
       0.02281408 0.03703281 -0.02563335 0.04925429
000130 ac ef b4 3d 6b 71 de bc c4 88 ea 3b d9 0c 87 3c
       0.08834776 -0.027153691 0.007157417 0.016485618
000140 db 4a 1d 3d 85 58 02 be ae b1 e9 3c ef 60 72 3d
       0.038401466 -0.1272908 0.028527107 0.059174474
000150 05 41 13 3d 79 e7 7b 3c 6c 03 86 bd 1c a7 ba bd
       0.03595068 0.015375012 -0.065436214 -0.09113905
000160 68 3e 61 3d f7 c2 f8 3c 2c 80 31 bd 83 c0 20 3d
       0.054991156 0.030366404 -0.043335125 0.039246093
000170 45 b8 3b bd 51 42 01 bd 3c f5 39 3c 44 ab 0d be
       -0.04583003 -0.031557385 0.011349972 -0.13834864
000180 65 d6 e8 3c 77 8e 81 bc 6d bd 42 bd 46 fb f7 3d
       0.028422544 -0.015815003 -0.04754393 0.121084735
000190 65 35 ab bd 29 04 bc 3b 17 b7 ed 3c 37 a9 61 bd
       -0.083597936 0.0057378006 0.029017968 -0.055093016
0001a0 f0 24 88 3d 1a 28 69 3d b3 db 0d 3d f5 d4 d7 3c
       0.0664767 0.05692301 0.03463335 0.026346663
0001b0 cb fd 36 3d ef d0 fd bb 28 09 f2 bc dd 38 84 bc
       0.04467563 -0.007745854 -0.029545382 -0.016140396
0001c0 97 2d 67 3d 3e 48 cf bd 34 ac 66 3d 6a c2 ce ba
       0.056439962 -0.10121201 0.05631657 -0.0015774493
0001d0 72 86 9e bb 40 91 b6 3b c1 c1 d3 bd ca 3c 87 3d
       -0.0048378045 0.0055715144 -0.1033969 0.066033915
0001e0 c8 16 b8 bd e9 17 84 bd ab e5 aa 3d 9e 28 fe 3c
       -0.0898872 -0.06449873 0.08344587 0.031025227
0001f0 8c 05 25 be fb 38 2c be d7 23 94 bd 2c 85 60 bc
       -0.16115397 -0.16818611 -0.072333984 -0.013703626

network_body.linear_encoder.seq_layers.2.weight f4 [128, 128]
000000 e3 ad 89 bc 36 82 26 be 9d 57 35 bd 5f fd 9d 3d
       -0.016806548 -0.16260609 -0.044273008 0.07714342
000010 fe 08 1b bd e5 20 3d be 23 c8 24 bd 0e 83 65 3d
       -0.037850372 -0.1846958 -0.040229928 0.056033187
000020 b0 5b 8e 3c 62 3d 08 be c0 5b 17 be 58 b3 d1 bd
       0.017377704 -0.13304666 -0.14781094 -0.10239285
000030 d5 93 b8 bc ef 8e 01 3e 54 a0 be 3c 7f 18 9d 3d
       -0.02253143 0.12652181 0.02326981 0.07670688
000040 ec 88 13 be b0 28 02 3d 90 94 3d 3e e8 db d2 bd
       -0.144077 0.031777084 0.18513703 -0.1029585
000050 4a b8 f3 bd 77 b9 c9 b9 0a 71 58 be 07 8b 96 3b
       -0.11900385 -0.0003847589 -0.21136871 0.00459421
000060 37 1c 5b be 02 90 bb bd 4f 85 d7 37 0a fa 97 bd
       -0.21397482 -0.09158327 2.5692074e-05 -0.07420738
000070 25 0f 87 bd aa 62 90 bc ad af d7 bc 06 bf 02 3c
       -0.065946855 -0.017625172 -0.026328886 0.007980114
000080 9f 07 98 be 66 82 f4 3d af e1 80 bd b0 2c 9b bd
       -0.29693314 0.11938934 -0.06293046 -0.07576883
000090 29 70 03 3e 87 20 b8 bd 50 76 92 bc 64 67 8d 3e
       0.12835754 -0.08990579 -0.017878681 0.27617943
0000a0 b0 93 3b bd 68 cf b9 3d 94 98 18 3e ee 3a c6 bc
       -0.045795143 0.09072763 0.14901954 -0.024198022
0000b0 87 f0 46 be 36 86 11 3e e6 6b 3c be 52 fa 93 bd
       -0.19427691 0.14211354 -0.18400535 -0.07225479
0000c0 a8 0f a2 bd a3 25 e6 3c 00 16 01 3d 30 9b c2 bd
       -0.079131424 0.028094118 0.03151512 -0.09502256
0000d0 d7 4b f2 3b 8a 56 17 be 6a 1c 46 be 7f 59 e4 3d
       0.0073942947 -0.14779106 -0.19346777 0.111498825
0000e0 b0 5f 82 bd a1 36 9a 3d 58 8c f7 3d a7 0e 4a bd
       -0.06365907 0.07529951 0.12087315 -0.04933038
0000f0 dd a7 a8 bd a2 df 89 3d 2b 08 e9 3d d6 eb 23 bd
       -0.082351424 0.06732108 0.11378511 -0.040019833
000100 7b e2 9d be 09 06 2a bd e7 2e 60 3d db f4 39 bd
       -0.30836853 -0.04150966 0.05473223 -0.045399528
000110 bb 37 c1 3d a1 9c 09 be dc 63 a5 bd 85 09 f1 3d
       0.09434458 -0.13438655 -0.08075687 0.11769394
000120 62 e0 32 3c ad d3 fb bc 3d e0 83 bd cd 83 19 3d
       0.010917755 -0.030740583 -0.064392544 0.03747921
000130 0b c6 b3 be 00 d5 ef 3c c7 bb 99 be 9e 44 37 3d
       -0.35112032 0.029276371 -0.30026075 0.044743173
000140 be d5 53 3d 4b 6a fd bc d6 14 18 3d d3 c5 a4 bc
       0.051717512 -0.030934473 0.037129246 -0.020113861
000150 0b 5e f0 3c 21 bf 55 be 7b d0 85 3c 6a b3 26 3e
       0.029341718 -0.20873691 0.016334763 0.16279379
000160 45 5b 8d be 1f 3d 82 3c 3d 89 16 3e a4 2d 88 bd
       -0.27608696 0.015898285 0.1470079 -0.0664933
000170 62 1f 05 be e8 dd 4b be 77 9d 2f be 9f 39 0a bd
       -0.13000253 -0.1990887 -0.17149912 -0.033746358
000180 53 47 2a be ff 89 0d 3d cd e1 3a 3e 22 82 f7 3d
       -0.1662877 0.03455543 0.18250199 0.12085368
000190 cf 06 11 be 55 85 3e 3c 15 d8 ea 3d ca 0f 9b bc
       -0.14162754 0.0116284685 0.114669956 -0.018928427
0001a0 92 71 40 be c8 01 71 be 2d 38 2a 3c 6f 0d 56 be
       -0.18793324 -0.23535836 0.01038937 -0.20903562
0001b0 b3 62 07 3d 53 1a ce 3d ef a6 35 3e de d4 8c 3d
       0.03305311 0.10063615 0.17739461 0.06876539
0001c0 57 cd fe 3c f2 43 99 3d d1 8c 3a be c7 ba 94 bd
       0.031103773 0.07483663 -0.1821778 -0.072621875
0001d0 31 9f e5 3d 0a 7f 90 3d 80 49 c3 bc fa c9 fd bc
       0.11212004 0.07055481 -0.023838758 -0.030980099
0001e0 77 08 ff 3d 76 03 f8 39 7b a6 1d 3e 2b 81 30 be
       0.124527864 0.00047304825 0.15395539 -0.17236774
0001f0 02 28 a2 bc 7e 42 5c be b2 dc 24 3e 4f 25 e2 bd
       -0.019794468 -0.2150974 0.16099814 -0.11042272
000200 b3 d1 d1 be 9d 90 bd 39 06 80 bd 3d 0e 0e 99 3c
       -0.409803 0.00036156634 0.09252934 0.01868346
000210 60 4f 9d bc b0 9e ac 3d c6 f6 8e bc f5 2b 23 be
       -0.019202888 0.08428705 -0.017451655 -0.15934737
000220 66 f5 9c bc 73 84 ba 3d 04 6f 8d bd fe 51 33 be
       -0.019159984 0.09107294 -0.0690594 -0.17511746
000230 0c 9a 0a 3e eb 89 9e bd 16 f9 5f 3c 80 e9 50 be
       0.13535327 -0.077411495 0.013670227 -0.20401573
000240 1b 9c 71 3d 7e 34 0d be 29 68 7c 3d ff 59 15 3e
       0.058986764 -0.13789555 0.061622772 0.14585112
000250 a7 fc e3 3c c5 59 92 bd 56 ab 58 bd fb f0 b8 bb
       0.027830435 -0.071460284 -0.052897774 -0.0056439615
000260 98 19 00 3e f7 ec b5 3d 4d b0 ca bd d4 80 81 3e
       0.12509763 0.08883088 -0.09896908 0.252936
000270 85 90 a9 be 17 47 30 3e 0e ae 72 be 9d e8 54 3c
       -0.33118072 0.17214619 -0.23699209 0.012994912
000280 a9 7e b6 3d b2 41 9f 3c 6e ae fd bd ee 48 42 be
       0.08910877 0.019440506 -0.123867854 -0.18973133
000290 e8 28 f6 bd 3d e9 2b 3e 8e 80 21 3e 60 31 c5 3c
       -0.12019521 0.16788192 0.15771696 0.024071395
0002a0 b8 19 1f 3e cc 4f 2a 3d 5d d8 31 3d d5 99 29 3e
       0.15537155 0.041580006 0.04341923 0.16562589
0002b0 ef d7 8b bb 42 4e 08 3e 59 55 2a be 28 ad 3f bd
       -0.0042676846 0.13311103 -0.1663412 -0.046795994
0002c0 63 53 46 be 96 b3 94 bd 67 50 a1 bd b3 96 b7 3d
       -0.19367747 -0.07260816 -0.07876664 0.089642905
0002d0 6b 58 25 3d 57 d9 b1 bd f9 8e c5 3d bf d3 07 bd
       0.040367525 -0.086840324 0.096464105 -0.03316092
0002e0 75 a9 ec bd bd 14 9b bd d5 d6 0f 3b 1c aa d9 3d
       -0.11555759 -0.07572315 0.0021948118 0.10628149
0002f0 18 56 10 3e e1 c9 93 3c ed 8e bd bd 29 6f 8e be
       0.14095342 0.0180406 -0.092557766 -0.27819183
000300 6c 4b 4c be f2 bf 0d 3e 10 b1 b1 bd 1e 07 f7 bd
       -0.19950646 0.13842753 -0.0867635 -0.12061904
000310 b2 b2 bf bc af d3 65 bd fc 34 fb bd 81 1c 06 be
       -0.023400638 -0.05611008 -0.12265965 -0.13096811
000320 d3 69 8f be cf 20 9f bd 56 32 4b 3d 7c 25 17 be
       -0.28010425 -0.077699296 0.04960855 -0.14760393
000330 4e 1f eb bc b0 70 12 bc 58 93 0d 3d 4a 30 41 3b
       -0.02870145 -0.008938 0.034564346 0.0029478245
000340 c5 19 48 be e5 31 d7 3b 6d 74 70 bd 28 cb 1e bd
       -0.1954108 0.006567227 -0.058704782 -0.038767964
000350 7c 1a 3f bd 1d 7e fc bd 67 f4 7d bc 1a 81 c2 be
       -0.046656117 -0.12328742 -0.015500165 -0.37989122
000360 4d 0f fb bc f9 6b 5a 3d 3d d4 c1 3d 86 e3 ab 3d
       -0.030646944 0.053325627 0.09464309 0.08393006
000370 52 c9 fe bc 96 ab f2 3d 63 5f 92 3d 23 45 6e bd
       -0.031101856 0.11849134 0.071471 -0.058171403
000380 ae 98 e8 3d 16 2a 71 3d 7e 47 cf 3d d9 8a 23 3d
       0.11357246 0.058878027 0.10121058 0.039927337
000390 10 d4 5b bd d3 e9 d5 bb 39 4b 3e be 52 8c 06 be
       -0.053669035 -0.006528118 -0.18583383 -0.13139465
0003a0 4e 94 39 3d 7e ac 11 bd 4f 8f 62 be 2a 97 0e 3e
       0.04530745 -0.035564892 -0.2212498 0.13924852
0003b0 14 94 2c 3e 12 9b 4d be 41 2a e2 3d f2 c6 39 be
       0.16853362 -0.20078686 0.110432155 -0.18142298
0003c0 d0 a1 f3 bc b7 ea a5 3c 18 83 48 bd 9a 79 c3 bd
       -0.029740244 0.020253522 -0.048953146 -0.09544678
0003d0 cf 89 b4 bd e4 f0 ef bd ce 55 c5 3d bf 8c f8 3d
       -0.088153474 -0.11715868 0.096355066 0.1213622
0003e0 58 04 0a be 84 30 9f 3d 91 2b e1 3d 05 22 0f be
       -0.1347822 0.077729255 0.10994638 -0.13977821
0003f0 1b 98 7a 3d 4e ba 38 be f1 27 9f 3c f7 e0 fc bd
       0.061180215 -0.1803982 0.019428225 -0.12347596

network_body.linear_encoder.seq_layers.4.bias f4 [128]
000000 ac dd 85 bd b0 c0 42 bd 09 84 12 3d 97 50 23 3d
       -0.06536421 -0.047547042 0.03577045 0.03987178
000010 cf 77 13 bd 1a af e3 bd 4c d9 be bb a4 53 ac 3d
       -0.03600293 -0.11117382 -0.0058242436 0.08414391
000020 7a b4 d5 3d 23 43 9c bb 02 f0 aa bd 1c 73 4e 3d
       0.10434814 -0.0047687455 -0.08346559 0.050402746
000030 03 62 35 3c ab 0f a0 bd 3b 7f 47 3d bf ca 50 bc
       0.011070731 -0.078154884 0.04870532 -0.012743651
000040 6a da 2b bd 1a ea c5 bc 1d 19 07 3d 07 cd 3f 3d
       -0.041956343 -0.02415948 0.032982934 0.04682639
000050 5c 26 91 3c 2a fa 33 3d 9d 28 81 3d b8 af 01 3b
       0.017718486 0.043939747 0.063065745 0.0019788574
000060 3f fe 6f bc 71 be af bc ce 56 df 3c dd 52 42 bd
       -0.014648019 -0.021453114 0.027263071 -0.047442306
000070 15 af 21 bd f5 bd cd bd 1d 1a 5a bd 80 5f b7 3d
       -0.03947361 -0.10045997 -0.05324756 0.08953762
000080 83 75 d2 bd 1f 89 1e be 1f 89 5b 3d d8 e9 c1 bd
       -0.1027632 -0.15481995 0.053597566 -0.0946843
000090 ac 2c e6 bd 9f 22 fb bd 9d e4 ed bd fa 2f 0e be
       -0.11238989 -0.12262463 -0.1161587 -0.13885489
0000a0 85 e3 e1 bd 59 57 a7 3c fe d6 12 3d 97 b7 16 be
       -0.11029724 0.020427393 0.035849564 -0.14718471
0000b0 e5 41 1a 3d dd 29 d3 3b 39 b2 81 3d 24 81 73 bd
       0.0376605 0.0064441995 0.063328214 -0.05944933
0000c0 e3 74 a2 3d ab 04 78 bb 51 de b8 bd 3d b0 37 bd
       0.079324506 -0.003784458 -0.090267785 -0.04484581
0000d0 73 eb ec 3d 4a 2c 78 3d 75 ca 01 be c3 17 0e be
       0.11568346 0.060589112 -0.12674887 -0.13876252
0000e0 0f d0 93 bc 27 c2 f9 bd f7 7c 56 bd 84 91 82 bd
       -0.018043546 -0.12195235 -0.05236527 -0.06375411
0000f0 fe 89 2d 3d 92 98 f7 bd 40 fc f2 bc bd 2e 94 bc
       0.042367928 -0.12089647 -0.029661298 -0.018088693
000100 0c 57 e4 bd 58 3b de 3d 3a 17 85 3d a1 67 12 be
       -0.111494154 0.10851163 0.06498571 -0.14297344
000110 ad 1d 09 3e b2 02 99 3d e4 47 af bc 19 1c 47 3d
       0.13390227 0.07471217 -0.021396585 0.04861078
000120 94 7c 80 bb 5f fd 76 3d 14 51 dd 3d 68 ce 0c 3d
       -0.003921101 0.060300227 0.1080648 0.03437653
000130 26 d7 a3 3d 91 33 ee 3c f9 84 c9 bd fa c4 1e bc
       0.08000021 0.029077323 -0.09839816 -0.009690518
000140 c3 10 14 3d 63 e7 1a be 93 ec a5 3d 98 38 db bc
       0.036148798 -0.1512733 0.081017636 -0.026760384
000150 ff fd 08 be c3 18 14 3b cd cc 43 3d 6b 08 8e 3d
       -0.13378142 0.0022597767 0.047802735 0.06935199
000160 e6 e8 cc 3d 9f a5 77 3d 67 9f 0d be fe 3e 4d 3d
       0.10005359 0.060460683 -0.13830338 0.050108902
000170 f2 60 31 be 25 a7 da 3c a5 91 ce 3b bd 0f d9 bc
       -0.17322138 0.026691029 0.0063039833 -0.026496762
000180 b7 1e b1 3c 03 0b 0d be 2e 35 7a ba b0 81 82 bd
       0.021621091 -0.13773732 -0.00095446676 -0.06372392
000190 8b 87 15 3d 12 56 18 3b e1 fb b0 3d 83 c0 47 3d
       0.036506217 0.0023244661 0.08641792 0.048767578
0001a0 8a a4 e0 bc 57 6c 67 3d 40 2e 22 be bd 29 78 3c
       -0.027422208 0.056499805 -0.15837955 0.01514667
0001b0 37 7d 8e 3d e5 f0 5b 3c fa 00 f9 bd a3 01 fe 3d
       0.069574766 0.013424133 -0.121583894 0.12402656
0001c0 56 3e 7c bc d4 90 db bb 69 04 9b bd 35 30 c9 3c
       -0.015395721 -0.0067006145 -0.075692005 0.02455912
0001d0 5c 44 e5 bd 0e 06 ae bd 40 47 93 3d 1c 21 a2 3d
       -0.11194679 -0.084972486 0.07191324 0.07916471
0001e0 ba 9a 9f bc d7 68 c3 bd d7 05 4a 3d b5 e7 10 3a
       -0.019482959 -0.09541481 0.049321976 0.0005527691
0001f0 ec de b1 bc 10 c8 80 bd 71 d7 cd 3d ac 74 12 3d
       -0.021712743 -0.06288159 0.10050858 0.0357558

network_body.linear_encoder.seq_layers.4.weight f4 [128, 128]
000000 b1 2e e9 bd 45 a4 80 3e 4a 3c d7 bc 38 05 6c 3e
       -0.11385859 0.25125328 -0.026273865 0.23048866
000010 a1 c7 9e 39 55 b5 e0 bc 16 f6 ad 3d 5e 83 27 3d
       0.00030284844 -0.027430216 0.08494203 0.040896766
000020 a0 8c 09 3e aa b3 39 3e 9b cb 4e be a8 d2 97 bc
       0.1343255 0.18134943 -0.20194857 -0.018533066
000030 d7 e8 f4 3c a0 9a 24 3e f8 fe 63 3e e5 30 3d 3e
       0.029896183 0.1607461 0.22265232 0.18475683
000040 ed db 2c bc 01 83 84 3c 05 c0 d0 bd 1d 48 12 3e
       -0.010550481 0.016175749 -0.10192875 0.14285322
000050 ea 2e 80 3d 0d 2b 8c bd 61 0d 25 bd f7 1d 04 be
       0.06258948 -0.06844149 -0.040295962 -0.12902056
000060 a3 fe 03 3e 1f 22 04 3d ac 1c ee bc a5 bd 34 bd
       0.12890105 0.032259103 -0.029066406 -0.04412617
000070 05 42 4f bd 78 4d 76 bc de b1 39 3e 5a 34 06 bd
       -0.05060007 -0.015033118 0.18134257 -0.03276477
000080 c7 9c 3e 3b cd 92 34 3d d5 6b 58 bd 46 aa a7 bc
       0.0029085146 0.044085313 -0.05283721 -0.020466935
000090 94 03 37 3b c0 bd 08 be c9 22 e7 bd 4e e8 dc ba
       0.0027925717 -0.13353634 -0.112859316 -0.00168539
0000a0 4b 4e 15 be 6f c5 c6 3d aa 01 1e bd 11 59 e6 3d
       -0.14580648 0.09705626 -0.038575806 0.11247457
0000b0 86 c1 8d 3d f2 c9 3a 3e 6b fd 49 be c6 39 43 3c
       0.06921677 0.18241099 -0.19725578 0.01191563
0000c0 21 41 b0 3d b1 8e e4 3c 1d ca 33 bd a8 84 3e bc
       0.08606172 0.027900072 -0.043893922 -0.011628307
0000d0 4a bf 19 be a1 ef e5 3d eb e1 44 3e 3a 2e 23 bd
       -0.15014377 0.11227346 0.19226806 -0.039839007
0000e0 10 69 cf 3c ff bf 2a 3d 76 b3 41 be a9 a3 a3 3d
       0.025318652 0.041687008 -0.18916115 0.079902
0000f0 a6 20 3d 3e ef 06 29 be 98 92 cd 3d 01 77 2d bd
       0.18469486 -0.16506551 0.10037726 -0.04234982
000100 22 fa 5a bd 69 cb d6 3d 88 b4 28 3e 7c cf 00 3d
       -0.0534612 0.10488016 0.16475117 0.031447873
000110 9e ae 1e be dc fa 0e bd 06 d5 c3 bd fc ae 11 3d
       -0.15496299 -0.034907207 -0.09562115 0.03556727
000120 c9 ac b3 3d 90 4c bb bd 88 d1 47 3e 41 40 d3 bd
       0.087731905 -0.091454625 0.19513524 -0.1031499
000130 84 ef f0 3c 54 20 0a bd b5 4d bc bc 68 b7 2c bc
       0.029411085 -0.033722237 -0.022986272 -0.010541774
000140 a9 5d ce bd 7a c3 c1 3b 94 6b e6 bd cd 46 ac bd
       -0.10076458 0.005913195 -0.11250988 -0.08411942
000150 95 ac 42 bd d5 3c ab 3b a6 04 ab bd 26 1b 8c 3d
       -0.04752787 0.0052257576 -0.08350496 0.06841116
000160 be c4 68 3b ad c6 96 3c 9b c0 06 3e e5 8e fc 3d
       0.0035517658 0.018405283 0.1315941 0.123319425
000170 e0 3c 3a bd e2 d3 84 3d b4 f3 d1 bb d5 88 8d 3d
       -0.04546821 0.06485726 -0.0064072255 0.06910864
000180 2b 32 a8 bd 2b b8 8a bd a4 d2 3c bd 7e ae 02 bc
       -0.08212694 -0.067734085 -0.04609932 -0.0079761725
000190 78 e2 8b 3e 94 24 a5 bd 86 af 39 be 1a 2c bc bd
       0.2732122 -0.08063617 -0.18133363 -0.09188099
0001a0 7a 0e eb 3d 1b 56 0d 3c fe 86 b2 3d 8e 55 52 bd
       0.114773706 0.008626486 0.08717154 -0.051351123
0001b0 80 a4 38 be 65 32 d9 3d 8b 35 7e bd 81 d4 25 bd
       -0.18031502 0.10605315 -0.06206278 -0.040485863
0001c0 f9 e4 6e 3d d1 e8 5f be 58 8a b5 3d d9 0e 01 be
       0.058323834 -0.21866156 0.088642776 -0.1260332
0001d0 7a 84 89 bd 78 d7 3d bc b4 d5 79 3d 16 11 95 bd
       -0.06714721 -0.011587016 0.06099482 -0.072786495
0001e0 31 8b 46 3d 04 78 06 3e 61 b2 41 3e 14 3a a3 3b
       0.048472587 0.1313172 0.18915702 0.0049812887
0001f0 c0 31 ad 3d 30 3b c7 3d 8f 40 0e 3e ad 80 83 3d
       0.08456755 0.09728086 0.13891815 0.06421027
000200 0c 3e 5b bc 46 7c e1 3d 85 0d fd bd 8d 1a 3d 3d
       -0.013381492 0.110100314 -0.12356094 0.0461679
000210 52 d8 80 bd 6e ee 0d 3c 2c dd 8c 3e ac 8f 9c be
       -0.0629126 0.008662803 0.2751249 -0.30578363
000220 9c 8a 4e 3e 54 57 2d 3e 94 c7 6f bd 75 cd 68 be
       0.20170063 0.16927844 -0.058539942 -0.22734626
000230 8e 0d ba 3d 9b 22 39 be 9b 0a 38 be 28 ac 6d 3e
       0.090846166 -0.18079607 -0.17972796 0.23210204
000240 e8 68 24 3c 8a d6 21 3e ec 5d 9a 3c 92 ba a3 3c
       0.010034777 0.15804496 0.018843614 0.019986425
000250 e8 83 3e 3e ca a5 64 bd ae 05 e4 3d 5a 44 82 be
       0.18605006 -0.05582217 0.11133896 -0.25442773
000260 bf 70 e1 3d 85 54 e6 3c ba 95 14 3d 51 45 3b bd
       0.11007833 0.028116474 0.036275603 -0.045720402
000270 7b bb 28 be 06 7d a9 3d fa aa 34 3e ff 8a ac bd
       -0.16477768 0.082757995 0.17643347 -0.08424949
000280 ef 44 6b 3d f1 f0 c2 bd f1 a2 0c bb 4d 01 ac bd
       0.057438787 -0.09518612 -0.0021459425 -0.083986856
000290 a3 f2 e4 3d 7e c7 ee bd 30 91 bd bc ca e6 f5 3d
       0.11179092 -0.11659144 -0.02314052 0.1200691
0002a0 f7 8e 58 3d f2 c9 6b bd 82 75 07 be 13 40 e9 3c
       0.052870717 -0.057565637 -0.1322842 0.028472936
0002b0 64 1b 3e 3d 22 58 63 bd 74 15 f1 bd 67 c4 a9 bc
       0.04641284 -0.055503972 -0.1177167 -0.020723535
0002c0 6b 8a e2 bc 1a 7c 9b 3d 12 e6 92 3c 1e 44 2b bd
       -0.027653893 0.0759203 0.017931972 -0.04181301
0002d0 fe aa 0d 3d a5 fd ba 3d 24 9a fb bd 2f a6 2c be
       0.0345869 0.0913041 -0.12285259 -0.16860269
0002e0 84 0a aa 3d 49 09 64 bc 8d af b9 3d a9 2c 8c be
       0.08302787 -0.013918229 0.09066687 -0.27377823
0002f0 2f 15 d5 3d 3e 96 18 3e d3 eb dd bd 9e bc a5 3d
       0.10404431 0.14901063 -0.108359955 0.080926165
000300 f5 e1 88 3e 18 f8 d9 bd f3 d6 80 3d ae 3a 4e 3d
       0.26734892 -0.10643023 0.06290998 0.05034893
000310 4b cb 0c bd 5c c6 67 3d 5e 0c 8e 3d 2d 4d 90 3d
       -0.034373563 0.056585655 0.069359526 0.0704597
000320 5a 54 e8 3d 86 61 9d 3c 34 fa 8c 3e 4a f5 c5 bb
       0.11344214 0.019211542 0.2753464 -0.0060412036
000330 a6 d9 69 bd ef e7 3d 3d d8 96 4d 3e 2f 4f 80 3e
       -0.05709233 0.046363767 0.20077074 0.25060412
000340 04 ba ff bd 64 54 01 3e 6f d9 8c bd 96 c2 ba 3d
       -0.124866515 0.12629849 -0.0687741 0.091191456
000350 59 6b 36 bd 41 db e4 3c a2 30 ce 3d 09 1b f7 3d
       -0.04453597 0.02793658 0.1006787 0.120657034
000360 9e 88 8b 3d 66 00 07 bb f4 c4 1b 3c a2 fc 12 3c
       0.06813167 -0.0020599603 0.0095074065 0.008971365
000370 a1 bb 51 be bc 75 63 3d c9 25 cd ba 8e a0 37 3d
       -0.20481731 0.055532202 -0.001565152 0.04483085
000380 64 c4 6a 3d eb 3a ff 3d eb 59 34 3d 08 01 2b be
       0.0573162 0.124624096 0.044031065 -0.16699612
000390 41 84 ef 3d c0 cd 91 bd b0 8b 14 3e 7a 50 b7 3c
       0.11695147 -0.07119322 0.14506412 0.022377241
0003a0 be e8 f3 3d 33 18 aa 3d 2e 95 9d 3d f1 38 ce 3d
       0.119096264 0.08305397 0.076944694 0.100694545
0003b0 b8 ba 84 be ec 7d b4 bd a7 2c c1 3d 77 b2 5d 3e
       -0.25923705 -0.0881308 0.09432345 0.2165011
0003c0 f8 2e 1b be a0 06 10 bb 10 a7 b4 bd 62 08 6e 3d
       -0.15154636 -0.0021976605 -0.08820927 0.058113463
0003d0 c1 2d 31 3c 12 01 81 3d c3 14 15 bd 17 06 d7 bd
       0.010814131 0.06299032 -0.036396753 -0.104992084
0003e0 6c a6 27 3e 2d 09 b4 3e ac 9d 55 bc 4e b1 73 bd
       0.16372079 0.3516325 -0.01303808 -0.059495263
0003f0 22 9d ec 3a 29 81 91 bd 30 9c 30 3e 0b 9c e4 3d
       0.00180522 -0.071047135 0.17247081 0.11162575

network_body.vector_processors.0.normalizer.running_mean f4 [13]
000000 0c 0c c3 40 ea 29 b3 41 07 4d db c0 9e 93 ad be
       6.0952206 22.395466 -6.8531528 -0.33901685
000010 85 56 66 3e 7f a5 e8 be 93 2f a2 bd 10 55 26 40
       0.22493942 -0.45438763 -0.0791923 2.5989418
000020 bf aa e1 3e dd 34 26 c0 67 b1 c2 be d5 96 0c 3f
       0.4407558 -2.5969765 -0.38025972 0.5491765
000030 9e c5 81 be
       -0.25346082
